models/MobileNet-SSD_V1_0.25_192x192/quantized_model.tflite (tflite, 594800 bytes, 51 tensors)

model/conv1/Conv2D i1 [8, 3, 3, 3]
77 -71 -8 11 -29 11 -58 50
3 26 -38 10 -80 40 43 -127
110 27 -35 50 -8 -119 107 25
-103 88 16 0 0 0 0 0
0 0 0 0 0 0 0 0
0 0 0 0 0 0 0 0
0 0 0 0 0 0 -21 -35
10 3 -27 27 -1 16 45 23
5 13 75 23 31 127 106 53
-1 6 -2 57 14 18 108 42
22 17 29 17 -39 -61 -36 17
25 38 54 64 18 -107 -127 -8
50 48 24 30 21 6 -104 -80
-2 41 22 35 -22 -80 -64 -53
-127 -53 -42 -85 -51 -48 -69 -40
-27 -90 -104 -40 -49 -21 -16 -59
-41 -11 -67 -68 -34 -60 -61 -86
-72 -25 -127 -113 -42 -60 -50 -12
-11 18 10 -79 -18 -27 -32 22
-13 40 27 24 25 36 0 28
39 -8 0 0 0 0 0 0
0 0 0 0 0 0 0 0
0 0 0 0 0 0 0 0
0 0 0 0 0 -90 80 -1
-64 73 14 4 29 -37 -121 127
21 -99 76 -4 -36 47 -8 -14
48 -41 -18 35 -47 -18 50 -26
00000000: 4db9 f80b e30b c632 031a da0a b028 2b81
00000010: 6e1b dd32 f889 6b19 9958 1000 0000 0000
00000020: 0000 0000 0000 0000 0000 0000 0000 0000
00000030: 0000 0000 0000 ebdd 0a03 e51b ff10 2d17
00000040: 050d 4b17 1f7f 6a35 ff06 fe39 0e12 6c2a
00000050: 1611 1d11 d9c3 dc11 1926 3640 1295 81f8
00000060: 3230 181e 1506 98b0 fe29 1623 eab0 c0cb
00000070: 81cb d6ab cdd0 bbd8 e5a6 98d8 cfeb f0c5
00000080: d7f5 bdbc dec4 c3aa b8e7 818f d6c4 cef4
00000090: f512 0ab1 eee5 e016 f328 1b18 1924 001c
000000a0: 27f8 0000 0000 0000 0000 0000 0000 0000
000000b0: 0000 0000 0000 0000 0000 0000 00a6 50ff
000000c0: c049 0e04 1ddb 877f 159d 4cfc dc2f f8f2
000000d0: 30d7 ee23 d1ee 32e6

model/conv_dw_1_bn/FusedBatchNormV3;model/conv_dw_1/depthwise i1 [1, 3, 3, 8]
101 -111 -1 -10 -85 -20 -92 13
-105 -97 13 -23 75 -37 -127 -36
-16 -127 1 -10 95 0 -37 10
-52 40 -127 8 127 127 -120 4
-66 -92 -12 127 27 124 -88 127
54 -97 10 -22 112 -45 -10 -74
-52 -95 29 -10 36 17 -56 -25
111 -97 10 -61 60 7 -78 -34
127 -111 -2 4 3 -14 -68 -74
00000000: 6591 fff6 abec a40d 979f 0de9 4bdb 81dc
00000010: f081 01f6 5f00 db0a cc28 8108 7f7f 8804
00000020: bea4 f47f 1b7c a87f 369f 0aea 70d3 f6b6
00000030: cca1 1df6 2411 c8e7 6f9f 0ac3 3c07 b2de
00000040: 7f91 fe04 03f2 bcb6

model/conv_pw_1/Conv2D i1 [16, 1, 1, 8]
-106 -5 -4 -8 0 -7 0 127
-2 -4 10 13 0 -127 0 -7
127 -1 -2 -1 0 7 0 22
-13 -5 127 15 0 81 0 27
-15 21 -127 -22 0 -103 0 -66
6 -25 127 -3 0 29 0 9
-2 3 6 -127 0 -10 0 -6
-7 -16 127 20 0 -30 0 59
-3 3 -127 -17 0 -106 0 -26
0 0 0 0 0 0 0 0
2 54 127 22 0 107 0 27
86 0 127 114 0 108 0 -125
121 -11 -1 5 0 -3 0 -127
1 18 -110 -6 0 -127 0 -45
11 -5 -127 -15 0 -86 0 -3
3 -2 127 26 0 108 0 39
00000000: 96fb fcf8 00f9 007f fefc 0a0d 0081 00f9
00000010: 7fff feff 0007 0016 f3fb 7f0f 0051 001b
00000020: f115 81ea 0099 00be 06e7 7ffd 001d 0009
00000030: fe03 0681 00f6 00fa f9f0 7f14 00e2 003b
00000040: fd03 81ef 0096 00e6 0000 0000 0000 0000
00000050: 0236 7f16 006b 001b 5600 7f72 006c 0083
00000060: 79f5 ff05 00fd 0081 0112 92fa 0081 00d3
00000070: 0bfb 81f1 00aa 00fd 03fe 7f1a 006c 0027

model/conv_dw_2_bn/FusedBatchNormV3;model/conv_dw_2/depthwise i1 [1, 3, 3, 16]
34 9 -127 -90 32 26 61 30
0 -17 -6 -20 -127 21 21 127
72 100 -35 -10 -127 -94 70 82
-76 75 -3 3 -65 -10 32 -109
21 32 4 -39 96 -67 23 26
-88 54 21 -67 8 28 10 -86
21 -12 -29 -14 27 -43 103 -52
-103 16 -26 -51 -105 -30 50 101
127 -127 35 -16 -44 -107 127 -127
115 18 127 -116 -98 -84 127 -78
80 -30 37 2 12 -127 35 -62
127 127 -114 -122 -21 -42 35 26
52 9 5 127 10 13 57 29
-47 37 -15 -127 21 -18 9 16
67 18 34 13 -22 -57 70 43
102 27 34 25 -56 127 37 8
65 3 -3 28 14 -120 18 27
-27 92 -19 26 -28 8 24 -12
00000000: 2209 81a6 201a 3d1e 00ef faec 8115 157f
00000010: 4864 ddf6 81a2 4652 b44b fd03 bff6 2093
00000020: 1520 04d9 60bd 171a a836 15bd 081c 0aaa
00000030: 15f4 e3f2 1bd5 67cc 9910 e6cd 97e2 3265
00000040: 7f81 23f0 d495 7f81 7312 7f8c 9eac 7fb2
00000050: 50e2 2502 0c81 23c2 7f7f 8e86 ebd6 231a
00000060: 3409 057f 0a0d 391d d125 f181 15ee 0910
00000070: 4312 220d eac7 462b 661b 2219 c87f 2508
00000080: 4103 fd1c 0e88 121b e55c ed1a e408 18f4

model/conv_pw_2/Conv2D i1 [32, 1, 1, 16]
-18 32 4 17 114 -8 -4 -27
-61 0 36 -3 20 2 37 127
-6 -29 11 125 -5 -12 -5 15
-98 0 9 5 -13 -71 -127 30
22 2 7 -7 -8 -35 -3 1
-33 0 -22 1 -4 -7 -127 -29
0 -6 8 -6 1 -1 127 9
-16 0 15 1 0 0 5 6
-9 -12 8 2 -72 -8 10 -3
64 0 -127 -3 3 10 6 95
-17 -127 10 16 23 -6 -20 -45
55 0 -18 1 3 -90 1 -9
0 0 0 0 0 0 0 0
0 0 0 0 0 0 0 0
-15 -86 -4 -4 11 16 30 127
64 0 -61 -4 5 29 -6 -60
5 5 -3 0 5 21 -4 -6
3 0 2 1 27 2 127 11
-48 12 48 5 9 78 -6 -10
17 0 27 2 1 -6 127 37
-3 11 1 -30 15 -33 1 0
-87 0 12 2 -10 -11 -26 -127
0 0 0 0 0 0 0 0
0 0 0 0 0 0 0 0
-3 36 -33 25 25 -2 16 127
19 0 4 -1 27 126 -4 -48
0 -1 -5 -1 -127 -1 -18 6
29 0 -107 2 4 14 -2 59
27 13 -21 127 -20 -12 2 -1
-55 0 27 -3 -28 -21 -1 65
17 2 -3 -15 -127 26 6 5
-16 0 12 -2 -5 -5 -7 47
00000000: ee20 0411 72f8 fce5 c300 24fd 1402 257f
00000010: fae3 0b7d fbf4 fb0f 9e00 0905 f3b9 811e
00000020: 1602 07f9 f8dd fd01 df00 ea01 fcf9 81e3
00000030: 00fa 08fa 01ff 7f09 f000 0f01 0000 0506
00000040: f7f4 0802 b8f8 0afd 4000 81fd 030a 065f
00000050: ef81 0a10 17fa ecd3 3700 ee01 03a6 01f7
00000060: 0000 0000 0000 0000 0000 0000 0000 0000
00000070: f1aa fcfc 0b10 1e7f 4000 c3fc 051d fac4
00000080: 0505 fd00 0515 fcfa 0300 0201 1b02 7f0b
00000090: d00c 3005 094e faf6 1100 1b02 01fa 7f25
000000a0: fd0b 01e2 0fdf 0100 a900 0c02 f6f5 e681
000000b0: 0000 0000 0000 0000 0000 0000 0000 0000
000000c0: fd24 df19 19fe 107f 1300 04ff 1b7e fcd0
000000d0: 00ff fbff 81ff ee06 1d00 9502 040e fe3b
000000e0: 1b0d eb7f ecf4 02ff c900 1bfd e4eb ff41
000000f0: 1102 fdf1 811a 0605 f000 0cfe fbfb f92f

model/conv_dw_3_bn/FusedBatchNormV3;model/conv_dw_3/depthwise;model/conv2d_6/Conv2D i1 [1, 3, 3, 32]
-3 12 15 -12 17 -5 -77 9
5 -6 9 -87 -1 -13 -6 10
-127 66 20 -5 -15 -9 0 -9
42 -5 4 -107 -5 20 -10 -13
8 119 -19 56 -97 -8 -127 -34
127 32 -17 -67 -5 20 -78 19
-103 -3 8 0 127 9 -2 -2
-69 6 -7 -72 18 26 18 127
-6 27 5 -24 9 -9 39 13
14 -26 12 -90 -4 -5 -25 10
-52 -38 15 -5 -8 4 0 -12
46 -3 2 -127 -2 13 3 6
-127 -7 127 3 0 -2 46 52
-25 127 5 -64 -43 13 3 2
-7 127 21 -5 20 127 -1 -2
-67 -14 -127 32 13 -33 25 -8
114 -127 -104 127 127 127 11 -74
-47 116 -126 -127 127 127 127 -127
-71 10 -127 127 -123 -114 127 127
-127 71 2 -84 -127 -127 120 -93
14 -35 -26 -17 -3 15 38 20
-21 -65 127 -54 -25 12 22 -9
-31 -26 19 2 12 -13 5 6
-44 22 126 22 3 -33 -127 -15
-26 -4 -11 -17 -21 -6 4 -84
19 8 6 -67 -1 0 -9 -7
-49 -59 10 -12 7 -2 -7 -7
43 30 -4 -23 -9 4 -2 18
25 10 2 5 -33 8 -22 127
-75 36 -21 -90 -9 -2 -24 96
-28 -19 19 -2 -20 -8 22 -16
-95 -127 -7 -68 87 117 -19 -29
00000000: fd0c 0ff4 11fb b309 05fa 09a9 fff3 fa0a
00000010: 8142 14fb f1f7 00f7 2afb 0495 fb14 f6f3
00000020: 0877 ed38 9ff8 81de 7f20 efbd fb14 b213
00000030: 99fd 0800 7f09 fefe bb06 f9b8 121a 127f
00000040: fa1b 05e8 09f7 270d 0ee6 0ca6 fcfb e70a
00000050: ccda 0ffb f804 00f4 2efd 0281 fe0d 0306
00000060: 81f9 7f03 00fe 2e34 e77f 05c0 d50d 0302
00000070: f97f 15fb 147f fffe bdf2 8120 0ddf 19f8
00000080: 7281 987f 7f7f 0bb6 d174 8281 7f7f 7f81
00000090: b90a 817f 858e 7f7f 8147 02ac 8181 78a3
000000a0: 0edd e6ef fd0f 2614 ebbf 7fca e70c 16f7
000000b0: e1e6 1302 0cf3 0506 d416 7e16 03df 81f1
000000c0: e6fc f5ef ebfa 04ac 1308 06bd ff00 f7f9
000000d0: cfc5 0af4 07fe f9f9 2b1e fce9 f704 fe12
000000e0: 190a 0205 df08 ea7f b524 eba6 f7fe e860
000000f0: e4ed 13fe ecf8 16f0 a181 f9bc 5775 ede3

model/conv_pw_3/Conv2D i1 [32, 1, 1, 32]
-7 -68 -2 -50 -13 -89 0 6
-42 -4 -12 -4 5 -11 -32 -48
0 54 -51 -127 -14 24 -20 -76
68 2 -4 0 4 -11 19 -68
-19 0 -22 -30 -14 -24 0 36
6 -6 -18 2 17 -56 -3 39
0 -4 -15 -14 -56 -105 -6 -20
-9 127 6 0 -13 31 90 -8
0 10 38 -34 62 -36 0 -13
-9 10 26 0 23 18 -16 63
0 -2 -33 -44 16 -36 -58 -7
7 -127 6 0 25 -21 -61 7
-85 -4 50 -28 12 -1 0 8
-11 0 34 -5 -1 87 -3 62
0 4 19 -26 -17 102 127 2
8 -7 7 0 3 -1 -9 10
2 3 1 -4 -2 13 0 1
127 4 -2 -1 4 0 19 -3
0 -5 6 13 4 2 6 6
10 -2 -1 0 3 -15 1 -18
-9 16 -5 3 3 -24 0 -13
-127 4 -1 6 -18 -14 4 -2
0 4 -2 -8 2 19 1 10
-2 -15 -1 0 -5 30 -9 52
-5 127 5 3 -51 22 0 -2
55 -26 17 -1 5 -1 46 -65
0 -11 22 20 -49 -11 -4 17
0 -55 1 0 -45 107 20 -107
1 -6 0 3 -4 1 0 -2
4 1 -1 2 -2 0 -2 -6
0 6 127 0 1 2 -10 -3
-2 1 0 0 -2 2 2 0
00000000: f9bc fece f3a7 0006 d6fc f4fc 05f5 e0d0
00000010: 0036 cd81 f218 ecb4 4402 fc00 04f5 13bc
00000020: ed00 eae2 f2e8 0024 06fa ee02 11c8 fd27
00000030: 00fc f1f2 c897 faec f77f 0600 f31f 5af8
00000040: 000a 26de 3edc 00f3 f70a 1a00 1712 f03f
00000050: 00fe dfd4 10dc c6f9 0781 0600 19eb c307
00000060: abfc 32e4 0cff 0008 f500 22fb ff57 fd3e
00000070: 0004 13e6 ef66 7f02 08f9 0700 03ff f70a
00000080: 0203 01fc fe0d 0001 7f04 feff 0400 13fd
00000090: 00fb 060d 0402 0606 0afe ff00 03f1 01ee
000000a0: f710 fb03 03e8 00f3 8104 ff06 eef2 04fe
000000b0: 0004 fef8 0213 010a fef1 ff00 fb1e f734
000000c0: fb7f 0503 cd16 00fe 37e6 11ff 05ff 2ebf
000000d0: 00f5 1614 cff5 fc11 00c9 0100 d36b 1495
000000e0: 01fa 0003 fc01 00fe 0401 ff02 fe00 fefa
000000f0: 0006 7f00 0102 f6fd fe01 0000 fe02 0200

model/conv_dw_4_bn/FusedBatchNormV3;model/conv_dw_4/depthwise;model/conv2d_6/Conv2D i1 [1, 3, 3, 32]
67 44 -61 -40 -50 -32 -52 -77
70 -62 81 51 53 64 62 -55
68 59 68 57 -62 77 56 -57
-127 68 -60 65 64 69 88 58
95 86 -99 -88 -78 -41 -81 -77
111 -90 102 74 99 95 97 -70
98 97 116 86 -94 127 86 -94
-85 86 -83 92 86 92 14 91
23 57 -60 -41 -32 -6 -50 -40
46 -43 49 41 57 53 45 -36
43 57 44 47 -44 67 50 -52
-22 23 -37 43 40 36 -99 57
-127 76 -81 -66 -91 24 -81 -72
54 -75 99 92 78 88 78 -64
81 69 53 83 -75 63 67 -80
-2 76 -87 80 84 84 106 78
-112 127 -127 -127 -127 44 -127 -127
127 -127 127 127 127 127 127 -127
127 127 127 127 -127 117 127 -127
86 127 -127 127 127 127 10 127
-25 71 -66 -73 -62 9 -83 -60
67 -73 78 68 71 64 66 -65
74 63 71 66 -62 56 72 -69
61 51 -62 69 67 60 -127 74
56 44 -43 -34 -33 98 -49 -36
-3 -31 57 46 32 41 27 -94
32 31 3 41 -31 5 30 -36
-10 26 -35 34 42 22 55 35
76 69 -56 -62 -55 127 -69 -73
33 -63 82 68 54 47 55 -96
61 51 22 61 -52 8 63 -49
57 52 -55 58 75 41 10 62
00000000: 432c c3d8 cee0 ccb3 46c2 5133 3540 3ec9
00000010: 443b 4439 c24d 38c7 8144 c441 4045 583a
00000020: 5f56 9da8 b2d7 afb3 6fa6 664a 635f 61ba
00000030: 6261 7456 a27f 56a2 ab56 ad5c 565c 0e5b
00000040: 1739 c4d7 e0fa ced8 2ed5 3129 3935 2ddc
00000050: 2b39 2c2f d443 32cc ea17 db2b 2824 9d39
00000060: 814c afbe a518 afb8 36b5 635c 4e58 4ec0
00000070: 5145 3553 b53f 43b0 fe4c a950 5454 6a4e
00000080: 907f 8181 812c 8181 7f81 7f7f 7f7f 7f81
00000090: 7f7f 7f7f 8175 7f81 567f 817f 7f7f 0a7f
000000a0: e747 beb7 c209 adc4 43b7 4e44 4740 42bf
000000b0: 4a3f 4742 c238 48bb 3d33 c245 433c 814a
000000c0: 382c d5de df62 cfdc fde1 392e 2029 1ba2
000000d0: 201f 0329 e105 1edc f61a dd22 2a16 3723
000000e0: 4c45 c8c2 c97f bbb7 21c1 5244 362f 37a0
000000f0: 3d33 163d cc08 3fcf 3934 c93a 4b29 0a3e

model/conv_pw_4/Conv2D i1 [64, 1, 1, 32]
27 9 3 6 3 3 -85 3
0 11 0 127 10 -16 -5 1
-8 -10 2 10 7 12 0 -1
-5 -4 -14 31 -4 -24 -20 -8
17 8 0 7 -5 34 -19 24
-36 3 8 -2 3 -4 -13 -1
-12 -9 -127 -3 -3 1 -43 -35
12 13 5 11 10 15 35 8
27 16 -8 22 -117 -127 -31 -10
27 -13 37 7 80 0 -20 -2
20 -22 6 -11 17 -18 -5 12
-23 7 1 -8 8 4 -29 72
0 -8 -9 8 -127 -47 14 4
0 24 8 -42 82 -11 6 3
9 8 -14 10 -12 10 -48 26
22 0 -3 -9 0 14 -2 100
1 3 -2 3 -4 9 -4 -10
-127 -2 -5 2 -2 5 1 2
-1 -5 44 0 1 2 -3 0
-1 -15 2 -2 3 -12 6 1
7 84 -80 2 2 4 29 -17
2 127 5 -44 83 3 -38 -8
9 -38 7 41 16 19 -34 -23
20 26 2 -41 -125 -5 -8 -112
22 -22 32 33 -28 -40 -14 73
48 43 44 21 -27 -11 -83 -5
-16 -93 -36 -28 91 -27 -23 -4
-18 -51 -9 -28 -60 -127 -22 -35
0 -115 96 -10 12 8 -28 10
-3 -118 -17 31 -105 6 33 5
5 11 6 -67 22 3 24 51
-9 -54 -5 58 107 2 -3 127
00000000: 1b09 0306 0303 ab03 000b 007f 0af0 fb01
00000010: f8f6 020a 070c 00ff fbfc f21f fce8 ecf8
00000020: 1108 0007 fb22 ed18 dc03 08fe 03fc f3ff
00000030: f4f7 81fd fd01 d5dd 0c0d 050b 0a0f 2308
00000040: 1b10 f816 8b81 e1f6 1bf3 2507 5000 ecfe
00000050: 14ea 06f5 11ee fb0c e907 01f8 0804 e348
00000060: 00f8 f708 81d1 0e04 0018 08d6 52f5 0603
00000070: 0908 f20a f40a d01a 1600 fdf7 000e fe64
00000080: 0103 fe03 fc09 fcf6 81fe fb02 fe05 0102
00000090: fffb 2c00 0102 fd00 fff1 02fe 03f4 0601
000000a0: 0754 b002 0204 1def 027f 05d4 5303 daf8
000000b0: 09da 0729 1013 dee9 141a 02d7 83fb f890
000000c0: 16ea 2021 e4d8 f249 302b 2c15 e5f5 adfb
000000d0: f0a3 dce4 5be5 e9fc eecd f7e4 c481 eadd
000000e0: 008d 60f6 0c08 e40a fd8a ef1f 9706 2105
000000f0: 050b 06bd 1603 1833 f7ca fb3a 6b02 fd7f

model/conv_dw_5_bn/FusedBatchNormV3;model/conv_dw_5/depthwise;model/conv_dw_6/depthwise i1 [1, 3, 3, 64]
4 -4 30 -5 19 -9 55 35
5 -50 -15 -27 -10 35 0 -11
103 1 -14 1 18 5 6 -75
-80 -4 -6 15 -1 -19 8 53
-2 0 12 127 1 127 31 21
4 -127 18 -6 1 -56 -19 3
8 -5 1 74 -22 -18 -6 -1
-19 17 -12 23 18 3 41 34
-26 33 127 15 108 3 80 -18
-1 120 -46 80 -19 -8 6 -27
40 -12 36 26 -38 24 -12 -28
-62 32 -69 -12 45 12 -7 63
-11 2 -38 -29 -6 -114 -127 127
-36 43 53 58 -56 36 82 -30
-21 -7 -73 -103 4 46 -4 -39
-42 -3 32 -18 -127 -24 -24 -69
1 26 16 -13 33 -2 37 -16
8 65 9 59 13 -49 -3 -11
-8 6 -10 -5 13 5 -1 47
13 -6 -4 14 -8 -14 6 -11
-1 0 15 -98 -5 -42 31 23
7 95 5 -14 8 10 46 5
10 1 -1 -6 -11 -23 -5 -3
-6 12 13 -20 -40 -2 -21 33
-1 76 -10 18 -23 -8 -106 1
-4 -97 -25 -51 -27 -60 -6 -1
39 -19 21 22 -66 41 -28 -43
-9 -7 -3 52 29 5 -64 -8
29 4 -29 -66 -27 -115 58 -32
-39 51 8 55 -51 37 -54 -51
-11 4 12 -45 0 31 1 -45
-90 19 47 121 83 -70 127 76
00000000: 04fc 1efb 13f7 3723 05ce f1e5 f623 00f5
00000010: 6701 f201 1205 06b5 b0fc fa0f ffed 0835
00000020: fe00 0c7f 017f 1f15 0481 12fa 01c8 ed03
00000030: 08fb 014a eaee faff ed11 f417 1203 2922
00000040: e621 7f0f 6c03 50ee ff78 d250 edf8 06e5
00000050: 28f4 241a da18 f4e4 c220 bbf4 2d0c f93f
00000060: f502 dae3 fa8e 817f dc2b 353a c824 52e2
00000070: ebf9 b799 042e fcd9 d6fd 20ee 81e8 e8bb
00000080: 011a 10f3 21fe 25f0 0841 093b 0dcf fdf5
00000090: f806 f6fb 0d05 ff2f 0dfa fc0e f8f2 06f5
000000a0: ff00 0f9e fbd6 1f17 075f 05f2 080a 2e05
000000b0: 0a01 fffa f5e9 fbfd fa0c 0dec d8fe eb21
000000c0: ff4c f612 e9f8 9601 fc9f e7cd e5c4 faff
000000d0: 27ed 1516 be29 e4d5 f7f9 fd34 1d05 c0f8
000000e0: 1d04 e3be e58d 3ae0 d933 0837 cd25 cacd
000000f0: f504 0cd3 001f 01d3 a613 2f79 53ba 7f4c

model/conv_pw_5/Conv2D i1 [64, 1, 1, 64]
7 -13 93 32 93 -9 40 35
15 53 4 -39 -8 0 -34 -37
11 80 -10 -43 -35 -34 37 58
79 -2 2 43 1 78 10 42
-127 -48 -54 28 -41 6 22 37
7 29 -92 -109 7 4 6 -8
-43 40 85 31 66 12 -79 -4
68 -11 -24 4 73 -5 42 -11
21 -28 28 -40 -27 -21 48 -35
9 0 30 -15 9 7 3 25
3 -6 -12 -9 -34 17 6 -4
-2 -23 15 -127 35 -6 31 -18
-14 15 -58 -113 -10 -8 61 -82
17 -76 -32 -41 -14 22 -20 -36
-10 18 29 -1 6 -23 -8 23
-15 32 -2 -8 -1 -14 -30 -1
-1 -2 -10 -8 -25 68 -3 127
-2 -32 -46 -3 -20 9 -90 33
28 -14 -4 -8 -26 -20 -7 -2
7 -4 -6 34 -3 16 0 -30
0 13 25 -3 -7 -22 -30 1
-1 -1 -13 4 8 -13 75 -11
13 -24 2 14 -7 -20 -14 17
-31 -101 -3 33 -9 5 14 9
1 -11 6 -2 -7 -8 -5 1
3 -19 5 -4 2 4 -3 1
6 -2 -3 1 -8 -6 127 -8
-5 -1 1 -3 -16 2 2 -4
-1 -8 0 1 1 -2 10 0
-8 0 -11 -4 -2 -3 -4 -6
-7 -4 1 -5 1 -4 -3 -5
-1 16 -4 5 0 9 4 9
00000000: 07f3 5d20 5df7 2823 0f35 04d9 f800 dedb
00000010: 0b50 f6d5 ddde 253a 4ffe 022b 014e 0a2a
00000020: 81d0 ca1c d706 1625 071d a493 0704 06f8
00000030: d528 551f 420c b1fc 44f5 e804 49fb 2af5
00000040: 15e4 1cd8 e5eb 30dd 0900 1ef1 0907 0319
00000050: 03fa f4f7 de11 06fc fee9 0f81 23fa 1fee
00000060: f20f c68f f6f8 3dae 11b4 e0d7 f216 ecdc
00000070: f612 1dff 06e9 f817 f120 fef8 fff2 e2ff
00000080: fffe f6f8 e744 fd7f fee0 d2fd ec09 a621
00000090: 1cf2 fcf8 e6ec f9fe 07fc fa22 fd10 00e2
000000a0: 000d 19fd f9ea e201 ffff f304 08f3 4bf5
000000b0: 0de8 020e f9ec f211 e19b fd21 f705 0e09
000000c0: 01f5 06fe f9f8 fb01 03ed 05fc 0204 fd01
000000d0: 06fe fd01 f8fa 7ff8 fbff 01fd f002 02fc
000000e0: fff8 0001 01fe 0a00 f800 f5fc fefd fcfa
000000f0: f9fc 01fb 01fc fdfb ff10 fc05 0009 0409

model/conv2d/Conv2D i1 [32, 1, 1, 64]
6 6 16 16 59 -21 23 -44
-19 22 92 5 -35 -14 -1 18
-9 28 -1 127 -15 24 -27 -33
-112 -27 8 -17 -1 82 -20 13
61 -26 2 38 64 -18 -6 -27
-10 -24 20 -5 38 -37 -36 59
-5 -28 45 9 -22 18 -6 9
47 83 0 -12 28 -18 -5 -22
76 7 -19 4 22 72 25 -16
120 68 7 -37 -22 22 -37 -127
-32 -11 23 100 -8 4 122 32
22 -11 -24 13 3 26 106 -3
16 77 12 55 34 -10 26 -116
10 63 -14 -48 40 -2 9 55
-46 76 86 -62 7 -50 -32 -4
-37 -12 24 -33 22 -12 5 1
-34 -29 36 -6 24 5 -32 16
-21 7 18 -11 4 20 28 -48
2 -10 30 -27 1 -18 -22 5
4 3 8 32 -7 -9 -69 -16
-37 -65 -1 12 -16 25 -25 127
8 -3 8 48 -8 6 31 -3
82 -18 -16 7 23 51 0 -1
6 -53 1 5 -2 -1 11 5
9 -8 -25 11 -7 -13 32 28
102 -4 -30 -11 -20 -9 -48 -37
-18 37 14 -33 1 23 -24 15
54 4 2 -10 40 12 80 17
-9 58 -24 4 3 -5 38 -127
-50 9 -9 -38 -7 31 -26 7
-68 8 -14 -65 16 -64 -1 7
-52 35 5 2 19 -16 -46 1
00000000: 0606 1010 3beb 17d4 ed16 5c05 ddf2 ff12
00000010: f71c ff7f f118 e5df 90e5 08ef ff52 ec0d
00000020: 3de6 0226 40ee fae5 f6e8 14fb 26db dc3b
00000030: fbe4 2d09 ea12 fa09 2f53 00f4 1cee fbea
00000040: 4c07 ed04 1648 19f0 7844 07db ea16 db81
00000050: e0f5 1764 f804 7a20 16f5 e80d 031a 6afd
00000060: 104d 0c37 22f6 1a8c 0a3f f2d0 28fe 0937
00000070: d24c 56c2 07ce e0fc dbf4 18df 16f4 0501
00000080: dee3 24fa 1805 e010 eb07 12f5 0414 1cd0
00000090: 02f6 1ee5 01ee ea05 0403 0820 f9f7 bbf0
000000a0: dbbf ff0c f019 e77f 08fd 0830 f806 1ffd
000000b0: 52ee f007 1733 00ff 06cb 0105 feff 0b05
000000c0: 09f8 e70b f9f3 201c 66fc e2f5 ecf7 d0db
000000d0: ee25 0edf 0117 e80f 3604 02f6 280c 5011
000000e0: f73a e804 03fb 2681 ce09 f7da f91f e607
000000f0: bc08 f2bf 10c0 ff07 cc23 0502 13f0 d201

model/conv_dw_6_bn/FusedBatchNormV3;model/conv_dw_6/depthwise i1 [1, 3, 3, 64]
-21 50 67 67 70 68 70 -64
100 25 64 54 -65 -123 55 -82
70 -77 -75 62 -53 74 -57 -63
-55 -60 63 73 -53 -68 63 61
-84 -106 -69 73 -62 73 67 -71
-61 -54 71 58 68 81 98 69
-43 -96 63 -75 -62 -83 -60 57
64 -106 57 -59 -63 71 -58 -53
-43 75 105 94 97 81 90 -80
127 -80 94 77 -88 5 96 52
91 91 -93 78 -84 100 -77 -96
-81 -84 97 105 43 -73 76 95
-89 61 -94 90 -84 100 93 -105
-79 -71 91 88 75 89 127 88
-94 -109 83 -84 -77 -127 -86 90
80 -127 81 -80 -94 102 -92 -80
-17 41 43 59 45 36 40 -36
64 66 59 37 -35 65 55 36
45 19 -35 38 -37 53 -32 -55
-52 -31 65 51 84 -33 35 48
-51 24 -27 48 -46 62 51 -66
-36 -25 44 36 22 42 68 41
-62 -48 49 -42 -37 -51 -45 47
48 -60 45 -29 -40 44 -36 -33
108 88 75 96 99 99 88 -94
-66 45 87 90 -99 -127 82 -127
92 -127 -88 103 -83 97 -91 -84
-13 -86 92 93 -71 -97 97 101
-108 -127 -97 100 -94 105 98 -93
-68 -86 98 84 90 106 -49 98
-77 -110 92 -112 -97 25 -97 84
94 22 84 -91 -102 83 -85 -86
00000000: eb32 4343 4644 46c0 6419 4036 bf85 37ae
00000010: 46b3 b53e cb4a c7c1 c9c4 3f49 cbbc 3f3d
00000020: ac96 bb49 c249 43b9 c3ca 473a 4451 6245
00000030: d5a0 3fb5 c2ad c439 4096 39c5 c147 c6cb
00000040: d54b 695e 6151 5ab0 7fb0 5e4d a805 6034
00000050: 5b5b a34e ac64 b3a0 afac 6169 2bb7 4c5f
00000060: a73d a25a ac64 5d97 b1b9 5b58 4b59 7f58
00000070: a293 53ac b381 aa5a 5081 51b0 a266 a4b0
00000080: ef29 2b3b 2d24 28dc 4042 3b25 dd41 3724
00000090: 2d13 dd26 db35 e0c9 cce1 4133 54df 2330
000000a0: cd18 e530 d23e 33be dce7 2c24 162a 4429
000000b0: c2d0 31d6 dbcd d32f 30c4 2de3 d82c dcdf
000000c0: 6c58 4b60 6363 58a2 be2d 575a 9d81 5281
000000d0: 5c81 a867 ad61 a5ac f3aa 5c5d b99f 6165
000000e0: 9481 9f64 a269 62a3 bcaa 6254 5a6a cf62
000000f0: b392 5c90 9f19 9f54 5e16 54a5 9a53 abaa

model/conv_pw_6/Conv2D i1 [128, 1, 1, 64]
-37 34 -2 -8 17 -15 -27 19
-3 3 4 -21 10 -8 2 1
-7 2 4 3 0 -11 6 -15
-4 -13 24 -17 37 -23 6 26
5 1 -1 0 -3 -8 6 23
-11 -5 -12 11 12 28 47 18
4 -3 -24 -23 -8 127 -9 -10
-34 -48 -11 -7 33 19 21 8
10 -3 -2 5 -41 -127 -17 -24
-6 13 -13 0 -37 -19 1 -17
-11 -20 -12 22 -6 20 -25 -18
0 -19 6 32 -1 6 15 25
-15 15 29 -11 6 29 -60 -7
-3 -26 64 -10 -18 55 -8 -56
-40 -10 -59 -9 -36 50 -1 32
11 19 -20 8 10 23 14 7
-31 -13 6 22 -89 -127 14 -54
28 -39 29 -29 12 -48 7 14
13 -9 -3 30 6 20 23 11
-13 14 3 9 -11 -127 10 -11
-91 4 25 -24 15 -4 -31 -12
-1 5 -12 25 10 8 -29 -14
21 50 -25 28 77 5 0 -23
24 -49 -40 -39 -16 -14 -33 -7
-6 31 8 22 -21 -2 19 -38
-16 19 14 -13 -8 2 21 18
-20 -9 -18 18 4 -26 6 -6
-18 -7 -3 -2 -19 -127 23 -18
32 11 -14 19 16 6 6 -16
-10 17 -26 6 -4 13 -20 -7
-21 8 0 -15 -10 8 4 5
10 7 -34 7 17 -3 5 4
00000000: db22 fef8 11f1 e513 fd03 04eb 0af8 0201
00000010: f902 0403 00f5 06f1 fcf3 18ef 25e9 061a
00000020: 0501 ff00 fdf8 0617 f5fb f40b 0c1c 2f12
00000030: 04fd e8e9 f87f f7f6 ded0 f5f9 2113 1508
00000040: 0afd fe05 d781 efe8 fa0d f300 dbed 01ef
00000050: f5ec f416 fa14 e7ee 00ed 0620 ff06 0f19
00000060: f10f 1df5 061d c4f9 fde6 40f6 ee37 f8c8
00000070: d8f6 c5f7 dc32 ff20 0b13 ec08 0a17 0e07
00000080: e1f3 0616 a781 0eca 1cd9 1de3 0cd0 070e
00000090: 0df7 fd1e 0614 170b f30e 0309 f581 0af5
000000a0: a504 19e8 0ffc e1f4 ff05 f419 0a08 e3f2
000000b0: 1532 e71c 4d05 00e9 18cf d8d9 f0f2 dff9
000000c0: fa1f 0816 ebfe 13da f013 0ef3 f802 1512
000000d0: ecf7 ee12 04e6 06fa eef9 fdfe ed81 17ee
000000e0: 200b f213 1006 06f0 f611 e606 fc0d ecf9
000000f0: eb08 00f1 f608 0405 0a07 de07 11fd 0504

model/conv_dw_7_bn/FusedBatchNormV3;model/conv_dw_7/depthwise;model/conv_dw_12/depthwise i1 [1, 3, 3, 128]
-12 -16 29 -29 7 60 8 -5
-3 8 3 -15 -7 -26 20 -10
14 7 -15 3 32 -14 3 11
-9 -8 8 50 0 15 -31 -13
13 23 24 24 -4 26 9 -17
4 50 -21 22 -12 6 10 -23
3 -6 -1 -8 24 127 2 29
17 0 -11 12 -36 22 22 29
-36 -21 13 32 -6 -28 8 -11
-12 67 10 0 3 3 -37 0
27 -1 -2 -3 2 8 -6 -5
-47 -22 -10 -2 -7 8 19 -12
10 6 -5 19 -1 22 -6 13
4 15 -32 7 22 0 -2 -14
17 -12 0 45 4 -9 -1 -24
-2 23 9 2 7 -11 -9 21
-44 -7 127 -28 -23 127 19 -22
-16 0 29 -23 48 -40 -74 -22
-26 25 -19 -6 0 -15 -12 -7
-9 -10 -24 127 -9 -7 -127 7
42 10 25 -15 -24 127 27 -7
-30 76 -68 127 27 14 12 -127
-23 -11 13 -12 -16 -21 -40 127
36 6 -10 35 -64 127 127 127
-13 17 28 -28 10 -114 19 -36
-22 127 -12 -20 -53 11 -11 -25
-9 2 -11 -13 7 5 -27 14
127 -62 -19 -4 10 5 -1 -16
7 4 1 127 36 52 -44 6
21 127 -125 -38 -8 -15 17 13
-18 -49 -43 121 16 -26 29 -127
-9 127 -12 -11 -19 -42 -2 29
00000000: f4f0 1de3 073c 08fb fd08 03f1 f9e6 14f6
00000010: 0e07 f103 20f2 030b f7f8 0832 000f e1f3
00000020: 0d17 1818 fc1a 09ef 0432 eb16 f406 0ae9
00000030: 03fa fff8 187f 021d 1100 f50c dc16 161d
00000040: dceb 0d20 fae4 08f5 f443 0a00 0303 db00
00000050: 1bff fefd 0208 fafb d1ea f6fe f908 13f4
00000060: 0a06 fb13 ff16 fa0d 040f e007 1600 fef2
00000070: 11f4 002d 04f7 ffe8 fe17 0902 07f5 f715
00000080: d4f9 7fe4 e97f 13ea f000 1de9 30d8 b6ea
00000090: e619 edfa 00f1 f4f9 f7f6 e87f f7f9 8107
000000a0: 2a0a 19f1 e87f 1bf9 e24c bc7f 1b0e 0c81
000000b0: e9f5 0df4 f0eb d87f 2406 f623 c07f 7f7f
000000c0: f311 1ce4 0a8e 13dc ea7f f4ec cb0b f5e7
000000d0: f702 f5f3 0705 e50e 7fc2 edfc 0a05 fff0
000000e0: 0704 017f 2434 d406 157f 83da f8f1 110d
000000f0: eecf d579 10e6 1d81 f77f f4f5 edd6 fe1d

model/conv_pw_7/Conv2D i1 [128, 1, 1, 128]
-77 31 -14 -22 56 -23 58 38
71 -25 -52 32 -24 8 17 -7
-13 -5 -10 -34 11 -51 -29 -25
-11 68 -40 -29 34 10 -36 36
86 33 80 -21 65 -39 -8 2
-1 -117 -35 -15 72 99 127 57
89 -4 -58 -16 -2 25 73 -2
59 -40 -17 79 -25 -31 -3 -14
26 -33 41 -15 7 -41 -13 -33
-32 20 9 -25 -41 -18 -57 39
-37 19 -21 -12 -44 -78 -13 0
19 -6 10 21 -10 59 -42 -56
54 23 26 4 25 -17 -23 -54
55 -1 15 56 13 45 -51 46
-38 19 58 16 96 39 0 -42
65 -3 -51 -18 -43 10 -4 84
7 3 6 11 -5 11 -18 4
-7 -3 -1 -11 -2 -2 -7 11
10 -1 10 10 -8 6 11 -9
-7 -3 -3 3 -8 2 8 7
4 -6 12 5 -12 -2 -20 8
4 -4 -2 1 -4 -2 3 8
-1 12 -5 22 20 -11 8 -3
-12 9 23 -4 -1 -6 -5 -4
13 13 3 2 5 3 17 -8
-15 -3 23 -10 5 -4 -2 3
0 17 -9 -28 -6 -17 -2 -5
0 7 9 1 20 12 -20 -9
15 -23 1 -2 -10 13 0 -2
-5 5 5 -21 -13 -1 -9 5
-127 5 7 9 26 -1 5 -9
-6 -7 -8 11 -4 -6 -23 -5
00000000: b31f f2ea 38e9 3a26 47e7 cc20 e808 11f9
00000010: f3fb f6de 0bcd e3e7 f544 d8e3 220a dc24
00000020: 5621 50eb 41d9 f802 ff8b ddf1 4863 7f39
00000030: 59fc c6f0 fe19 49fe 3bd8 ef4f e7e1 fdf2
00000040: 1adf 29f1 07d7 f3df e014 09e7 d7ee c727
00000050: db13 ebf4 d4b2 f300 13fa 0a15 f63b d6c8
00000060: 3617 1a04 19ef e9ca 37ff 0f38 0d2d cd2e
00000070: da13 3a10 6027 00d6 41fd cdee d50a fc54
00000080: 0703 060b fb0b ee04 f9fd fff5 fefe f90b
00000090: 0aff 0a0a f806 0bf7 f9fd fd03 f802 0807
000000a0: 04fa 0c05 f4fe ec08 04fc fe01 fcfe 0308
000000b0: ff0c fb16 14f5 08fd f409 17fc fffa fbfc
000000c0: 0d0d 0302 0503 11f8 f1fd 17f6 05fc fe03
000000d0: 0011 f7e4 faef fefb 0007 0901 140c ecf7
000000e0: 0fe9 01fe f60d 00fe fb05 05eb f3ff f705
000000f0: 8105 0709 1aff 05f7 faf9 f80b fcfa e9fb

model/conv_dw_8_bn/FusedBatchNormV3;model/conv_dw_8/depthwise;model/conv_dw_12/depthwise i1 [1, 3, 3, 128]
32 -6 16 27 24 -2 18 16
7 1 -24 -3 30 44 16 7
-30 -20 25 48 -4 -74 5 5
11 -29 0 12 -6 -55 16 11
-7 -7 -42 -7 -12 9 8 11
7 -2 -13 14 -13 -15 9 -1
24 19 -7 -16 41 10 -9 -29
5 31 -5 11 37 -4 -31 -72
21 -20 12 -16 39 0 33 20
11 -9 20 -7 -7 -8 7 -33
5 -47 -3 -58 16 32 6 45
-9 4 -14 66 -9 -28 8 -40
-7 4 -6 -48 2 -10 5 3
2 4 10 -2 -83 34 -11 7
19 25 3 18 -71 52 37 6
3 -4 12 4 5 -12 64 -22
116 -8 42 70 7 3 -2 24
-7 92 52 -82 127 127 13 26
-36 -56 96 -33 24 -91 -21 -14
29 -116 24 4 0 36 82 -2
-3 -48 -127 -8 -64 0 0 -13
61 9 -33 -1 -23 5 -21 -99
127 18 -21 26 33 -18 -10 -47
25 127 -12 127 120 -10 -39 -34
0 -127 6 -4 127 0 -51 54
-22 12 51 -10 -13 -36 6 -36
-12 -49 -23 5 -19 127 -31 72
-5 8 -9 10 -20 24 80 -127
-13 0 -14 -23 7 -49 -4 127
39 -28 21 -5 -90 11 -17 -1
39 28 -19 88 42 -34 -61 6
19 41 43 -47 50 -24 -12 -55
00000000: 20fa 101b 18fe 1210 0701 e8fd 1e2c 1007
00000010: e2ec 1930 fcb6 0505 0be3 000c fac9 100b
00000020: f9f9 d6f9 f409 080b 07fe f30e f3f1 09ff
00000030: 1813 f9f0 290a f7e3 051f fb0b 25fc e1b8
00000040: 15ec 0cf0 2700 2114 0bf7 14f9 f9f8 07df
00000050: 05d1 fdc6 1020 062d f704 f242 f7e4 08d8
00000060: f904 fad0 02f6 0503 0204 0afe ad22 f507
00000070: 1319 0312 b934 2506 03fc 0c04 05f4 40ea
00000080: 74f8 2a46 0703 fe18 f95c 34ae 7f7f 0d1a
00000090: dcc8 60df 18a5 ebf2 1d8c 1804 0024 52fe
000000a0: fdd0 81f8 c000 00f3 3d09 dfff e905 eb9d
000000b0: 7f12 eb1a 21ee f6d1 197f f47f 78f6 d9de
000000c0: 0081 06fc 7f00 cd36 ea0c 33f6 f3dc 06dc
000000d0: f4cf e905 ed7f e148 fb08 f70a ec18 5081
000000e0: f300 f2e9 07cf fc7f 27e4 15fb a60b efff
000000f0: 271c ed58 2ade c306 1329 2bd1 32e8 f4c9

model/conv_pw_8/Conv2D i1 [128, 1, 1, 128]
31 -5 26 -86 -107 -19 -3 -21
-45 24 -18 -21 -48 50 17 15
-20 9 -54 -1 51 41 -8 -38
15 49 41 3 3 9 -116 -25
-22 6 -49 80 11 51 -58 13
-25 -27 6 -22 57 -6 -36 14
-56 -84 -16 39 19 -42 -57 24
-28 46 62 0 7 -31 56 -19
-20 13 11 53 -9 -17 36 92
-6 -99 36 11 59 12 -30 27
32 -10 24 3 -61 -40 -42 -127
41 -74 -13 13 88 48 57 17
-36 24 -3 40 70 -7 -31 -71
21 26 28 -4 55 -72 -31 27
7 -13 -41 -48 11 26 19 -6
30 -26 -34 -37 -36 -9 -22 -12
35 127 24 -15 3 -12 26 2
33 -14 2 -13 -44 4 -13 22
33 -18 -8 4 -18 -22 6 27
-2 7 -6 2 -29 0 -13 -67
-13 -24 -2 -29 21 41 0 36
-35 -3 57 56 -23 5 -46 41
59 5 -23 -10 -11 14 39 -3
-13 -25 44 -19 30 4 -14 18
4 -12 -112 6 -29 -27 -3 68
30 5 7 10 -17 76 3 10
-14 33 39 -28 6 24 -23 -17
22 30 41 26 8 21 -28 -55
6 17 55 64 -47 -20 3 27
9 48 -21 -23 -1 1 32 20
26 -16 -15 -42 5 7 36 2
-16 -20 -30 10 -12 -33 -1 -20
00000000: 1ffb 1aaa 95ed fdeb d318 eeeb d032 110f
00000010: ec09 caff 3329 f8da 0f31 2903 0309 8ce7
00000020: ea06 cf50 0b33 c60d e7e5 06ea 39fa dc0e
00000030: c8ac f027 13d6 c718 e42e 3e00 07e1 38ed
00000040: ec0d 0b35 f7ef 245c fa9d 240b 3b0c e21b
00000050: 20f6 1803 c3d8 d681 29b6 f30d 5830 3911
00000060: dc18 fd28 46f9 e1b9 151a 1cfc 37b8 e11b
00000070: 07f3 d7d0 0b1a 13fa 1ee6 dedb dcf7 eaf4
00000080: 237f 18f1 03f4 1a02 21f2 02f3 d404 f316
00000090: 21ee f804 eeea 061b fe07 fa02 e300 f3bd
000000a0: f3e8 fee3 1529 0024 ddfd 3938 e905 d229
000000b0: 3b05 e9f6 f50e 27fd f3e7 2ced 1e04 f212
000000c0: 04f4 9006 e3e5 fd44 1e05 070a ef4c 030a
000000d0: f221 27e4 0618 e9ef 161e 291a 0815 e4c9
000000e0: 0611 3740 d1ec 031b 0930 ebe9 ff01 2014
000000f0: 1af0 f1d6 0507 2402 f0ec e20a f4df ffec

model/conv_dw_9_bn/FusedBatchNormV3;model/conv_dw_9/depthwise;model/conv_dw_12/depthwise i1 [1, 3, 3, 128]
21 -29 -7 48 2 17 -7 18
-127 -4 -8 41 4 3 59 -1
20 -66 -61 -38 -3 2 55 65
-34 -78 -41 42 55 43 -105 9
46 4 11 11 16 -3 -49 -6
2 -25 -10 111 3 -9 7 -13
48 -120 -11 11 -34 13 0 17
95 15 85 -38 -16 35 -44 -13
3 -4 13 28 -3 -69 -14 -15
9 -18 -32 -2 30 37 9 18
29 13 -5 5 18 39 -12 6
21 28 12 26 2 18 -9 -7
7 127 -127 -12 -23 -4 -10 -20
29 1 13 -11 18 108 11 -8
31 10 -22 -72 -13 127 -20 -6
-22 11 -43 4 5 13 5 -10
82 -35 3 127 -10 27 -28 -13
107 -2 -22 98 44 -3 -17 11
1 -73 -70 -22 -31 5 127 -3
22 -45 -98 127 72 63 -42 23
110 22 63 32 -19 -19 -4 7
-13 -23 -29 -42 -6 0 2 -33
-4 -118 -32 23 -74 25 -10 40
127 117 31 -24 -34 127 56 -17
-53 -19 25 103 -15 -96 -39 -13
9 -14 -127 -43 -34 127 29 121
85 -86 -8 -35 -17 80 -127 -45
-119 4 8 14 -31 -44 -22 -10
127 42 -127 14 11 -48 -18 1
-6 3 59 -49 0 -58 21 -8
26 -84 127 -125 -6 28 -15 -10
-83 63 -109 3 1 -6 8 -9
00000000: 15e3 f930 0211 f912 81fc f829 0403 3bff
00000010: 14be c3da fd02 3741 deb2 d72a 372b 9709
00000020: 2e04 0b0b 10fd cffa 02e7 f66f 03f7 07f3
00000030: 3088 f50b de0d 0011 5f0f 55da f023 d4f3
00000040: 03fc 0d1c fdbb f2f1 09ee e0fe 1e25 0912
00000050: 1d0d fb05 1227 f406 151c 0c1a 0212 f7f9
00000060: 077f 81f4 e9fc f6ec 1d01 0df5 126c 0bf8
00000070: 1f0a eab8 f37f ecfa ea0b d504 050d 05f6
00000080: 52dd 037f f61b e4f3 6bfe ea62 2cfd ef0b
00000090: 01b7 baea e105 7ffd 16d3 9e7f 483f d617
000000a0: 6e16 3f20 eded fc07 f3e9 e3d6 fa00 02df
000000b0: fc8a e017 b619 f628 7f75 1fe8 de7f 38ef
000000c0: cbed 1967 f1a0 d9f3 09f2 81d5 de7f 1d79
000000d0: 55aa f8dd ef50 81d3 8904 080e e1d4 eaf6
000000e0: 7f2a 810e 0bd0 ee01 fa03 3bcf 00c6 15f8
000000f0: 1aac 7f83 fa1c f1f6 ad3f 9303 01fa 08f7

model/conv_pw_9/Conv2D i1 [128, 1, 1, 128]
-31 3 15 10 -61 55 -51 -71
27 52 41 12 -78 -2 -7 -16
7 3 19 36 -86 69 9 -5
-6 -6 4 4 23 -18 12 39
-27 12 -6 7 -9 9 1 -2
-32 -20 43 1 55 50 8 -21
-5 -12 73 -36 8 -25 6 -9
-57 -18 33 -35 -77 12 28 18
-18 -19 -10 18 74 -17 41 65
-44 27 40 -1 -7 -19 42 37
-18 8 51 28 -58 74 46 46
-23 -19 -17 25 -9 -48 14 11
-96 -5 -17 17 -26 34 -36 -34
6 -45 -18 -15 57 -4 1 17
39 57 127 -7 53 13 -51 -26
38 -51 45 46 15 56 9 62
8 3 -86 -34 -29 32 -37 4
-41 -31 4 -57 -18 100 -23 45
-65 -49 1 65 43 34 44 -44
-23 -3 -53 -28 41 -15 -16 68
-17 -4 64 -42 -1 30 -33 16
51 -16 70 3 20 -48 -72 37
6 12 -36 -7 -3 13 -11 90
-66 -15 66 10 1 13 -15 26
-38 6 -19 -5 -67 -127 16 -72
-41 1 23 -22 -61 -30 -28 10
0 -38 -1 -63 -49 12 54 6
4 60 9 5 -30 45 78 32
16 -15 -18 4 -34 10 17 -45
22 -6 -45 40 15 12 38 13
63 0 -54 12 4 21 -82 17
-14 -36 -10 -44 -76 32 -54 64
00000000: e103 0f0a c337 cdb9 1b34 290c b2fe f9f0
00000010: 0703 1324 aa45 09fb fafa 0404 17ee 0c27
00000020: e50c fa07 f709 01fe e0ec 2b01 3732 08eb
00000030: fbf4 49dc 08e7 06f7 c7ee 21dd b30c 1c12
00000040: eeed f612 4aef 2941 d41b 28ff f9ed 2a25
00000050: ee08 331c c64a 2e2e e9ed ef19 f7d0 0e0b
00000060: a0fb ef11 e622 dcde 06d3 eef1 39fc 0111
00000070: 2739 7ff9 350d cde6 26cd 2d2e 0f38 093e
00000080: 0803 aade e320 db04 d7e1 04c7 ee64 e92d
00000090: bfcf 0141 2b22 2cd4 e9fd cbe4 29f1 f044
000000a0: effc 40d6 ff1e df10 33f0 4603 14d0 b825
000000b0: 060c dcf9 fd0d f55a bef1 420a 010d f11a
000000c0: da06 edfb bd81 10b8 d701 17ea c3e2 e40a
000000d0: 00da ffc1 cf0c 3606 043c 0905 e22d 4e20
000000e0: 10f1 ee04 de0a 11d3 16fa d328 0f0c 260d
000000f0: 3f00 ca0c 0415 ae11 f2dc f6d4 b420 ca40

model/conv_dw_10_bn/FusedBatchNormV3;model/conv_dw_10/depthwise;model/conv_dw_12/depthwise i1 [1, 3, 3, 128]
15 13 -12 12 3 47 -55 -31
19 -4 80 67 -7 -80 42 48
5 41 -19 42 -98 9 -37 -112
63 -3 -35 33 68 -5 -11 -7
-3 -46 3 -90 -11 84 17 51
8 12 23 3 -26 23 9 1
-1 32 -21 21 60 16 -3 -11
-4 -41 -7 -7 0 30 19 7
19 6 -19 -12 -6 5 -2 14
40 -3 2 0 -19 13 -23 -117
-17 -6 -100 -127 14 -22 18 6
4 53 -2 2 -6 120 22 19
-2 8 5 1 -74 -2 -10 -127
25 40 3 6 13 27 112 10
-43 1 7 0 37 0 16 20
1 55 -13 -80 -32 -6 46 -127
-17 32 -75 70 -21 127 -78 36
-47 -12 15 27 -4 -76 -44 127
0 52 -29 55 -42 1 -127 -92
110 -5 -115 93 107 -42 -25 13
-4 20 14 -87 -30 127 -12 57
-11 38 -9 -16 -127 45 32 -40
-1 127 -127 54 -127 63 -15 -28
127 16 -120 47 2 6 12 2
48 -57 -49 -13 -43 15 10 -29
32 54 -28 11 -21 -13 -127 -59
31 -127 -91 -36 -9 -65 33 2
-7 97 -25 -127 -19 42 33 -18
39 84 101 -65 -127 -51 -4 31
-41 -12 -10 33 127 72 89 -94
32 15 -11 -22 33 -12 65 68
0 18 -13 -127 -127 -24 101 -60
00000000: 0f0d f40c 032f c9e1 13fc 5043 f9b0 2a30
00000010: 0529 ed2a 9e09 db90 3ffd dd21 44fb f5f9
00000020: fdd2 03a6 f554 1133 080c 1703 e617 0901
00000030: ff20 eb15 3c10 fdf5 fcd7 f9f9 001e 1307
00000040: 1306 edf4 fa05 fe0e 28fd 0200 ed0d e98b
00000050: effa 9c81 0eea 1206 0435 fe02 fa78 1613
00000060: fe08 0501 b6fe f681 1928 0306 0d1b 700a
00000070: d501 0700 2500 1014 0137 f3b0 e0fa 2e81
00000080: ef20 b546 eb7f b224 d1f4 0f1b fcb4 d47f
00000090: 0034 e337 d601 81a4 6efb 8d5d 6bd6 e70d
000000a0: fc14 0ea9 e27f f439 f526 f7f0 812d 20d8
000000b0: ff7f 8136 813f f1e4 7f10 882f 0206 0c02
000000c0: 30c7 cff3 d50f 0ae3 2036 e40b ebf3 81c5
000000d0: 1f81 a5dc f7bf 2102 f961 e781 ed2a 21ee
000000e0: 2754 65bf 81cd fc1f d7f4 f621 7f48 59a2
000000f0: 200f f5ea 21f4 4144 0012 f381 81e8 65c4

model/conv_pw_10/Conv2D i1 [128, 1, 1, 128]
-13 14 -9 6 12 -15 -33 22
-32 19 27 -8 -7 7 127 51
-14 1 5 10 7 0 2 16
0 33 -4 16 -16 15 -11 3
-15 -36 14 -9 -41 -12 -11 5
-6 -11 5 9 -33 6 5 2
26 9 -17 40 39 24 6 30
13 41 -24 -2 2 -8 9 -32
41 2 29 6 -21 -28 16 1
9 -16 -23 -1 18 5 -19 -19
10 -8 15 -3 -9 -2 -3 14
-4 37 25 -8 7 27 -4 2
5 21 0 -1 -21 8 1 11
-15 4 7 -18 66 11 13 12
-8 -8 7 10 -20 6 3 -8
5 -7 -7 -4 2 25 8 -7
71 -18 3 -24 -42 0 100 27
-58 43 -33 -6 62 13 127 -3
33 -9 65 -9 -5 -14 22 -6
22 -53 4 0 -65 25 47 9
-84 -32 17 35 -22 13 52 -35
-71 -16 31 10 3 10 27 4
26 58 39 4 26 -8 -48 -3
-14 4 40 -12 37 8 -26 -36
-19 31 -67 -51 -27 8 34 -17
-13 3 -38 38 -48 72 16 43
-35 34 -1 24 -25 -15 19 56
-42 15 39 63 72 -64 -10 -34
27 -20 7 56 -44 4 1 -2
1 -6 -14 -15 3 -5 -14 17
10 -20 35 -25 -37 47 5 94
6 -48 75 1 21 -8 -37 31
00000000: f30e f706 0cf1 df16 e013 1bf8 f907 7f33
00000010: f201 050a 0700 0210 0021 fc10 f00f f503
00000020: f1dc 0ef7 d7f4 f505 faf5 0509 df06 0502
00000030: 1a09 ef28 2718 061e 0d29 e8fe 02f8 09e0
00000040: 2902 1d06 ebe4 1001 09f0 e9ff 1205 eded
00000050: 0af8 0ffd f7fe fd0e fc25 19f8 071b fc02
00000060: 0515 00ff eb08 010b f104 07ee 420b 0d0c
00000070: f8f8 070a ec06 03f8 05f9 f9fc 0219 08f9
00000080: 47ee 03e8 d600 641b c62b dffa 3e0d 7ffd
00000090: 21f7 41f7 fbf2 16fa 16cb 0400 bf19 2f09
000000a0: ace0 1123 ea0d 34dd b9f0 1f0a 030a 1b04
000000b0: 1a3a 2704 1af8 d0fd f204 28f4 2508 e6dc
000000c0: ed1f bdcd e508 22ef f303 da26 d048 102b
000000d0: dd22 ff18 e7f1 1338 d60f 273f 48c0 f6de
000000e0: 1bec 0738 d404 01fe 01fa f2f1 03fb f211
000000f0: 0aec 23e7 db2f 055e 06d0 4b01 15f8 db1f

model/conv_dw_11_bn/FusedBatchNormV3;model/conv_dw_11/depthwise;model/conv_dw_12/depthwise i1 [1, 3, 3, 128]
-17 -11 11 80 48 -102 72 37
31 32 30 118 -127 -42 -99 127
15 -23 25 -127 29 -66 69 127
-96 46 3 -1 75 72 -44 61
22 91 127 22 -115 36 28 -59
-31 -45 -13 -27 33 -19 60 -33
86 116 10 -90 16 -34 -19 70
-127 -30 -62 76 -22 98 42 97
-4 -43 -15 -47 9 -4 35 56
-25 87 -122 -5 98 -122 85 97
22 -31 48 -31 85 -20 -12 -1
-127 45 -16 -55 -47 127 -127 -12
-44 24 -127 -6 -127 60 -54 38
-5 60 55 94 -33 0 -21 -23
-49 -81 38 33 39 39 -9 12
10 -23 -19 52 25 127 -31 34
96 -65 31 73 60 -127 87 69
56 127 46 127 -117 -6 -79 -103
51 -69 82 -29 105 -16 24 67
-69 81 64 127 55 127 -61 127
-127 -18 66 68 -35 105 112 127
-95 -72 -44 -102 90 -35 112 -111
127 87 24 -93 -100 -57 -12 100
-113 -32 -93 33 -53 127 16 -31
-29 -83 -83 -31 75 28 68 108
-109 29 -99 73 7 -127 127 117
66 -77 54 -47 91 -52 -86 38
-116 96 -127 -127 -67 22 -123 -61
-122 89 18 75 -58 107 -50 81
-49 -22 75 20 11 19 -127 -119
-36 -58 75 64 86 126 -35 49
38 59 6 72 66 28 -112 103
00000000: eff5 0b50 309a 4825 1f20 1e76 81d6 9d7f
00000010: 0fe9 1981 1dbe 457f a02e 03ff 4b48 d43d
00000020: 165b 7f16 8d24 1cc5 e1d3 f3e5 21ed 3cdf
00000030: 5674 0aa6 10de ed46 81e2 c24c ea62 2a61
00000040: fcd5 f1d1 09fc 2338 e757 86fb 6286 5561
00000050: 16e1 30e1 55ec f4ff 812d f0c9 d17f 81f4
00000060: d418 81fa 813c ca26 fb3c 375e df00 ebe9
00000070: cfaf 2621 2727 f70c 0ae9 ed34 197f e122
00000080: 60bf 1f49 3c81 5745 387f 2e7f 8bfa b199
00000090: 33bb 52e3 69f0 1843 bb51 407f 377f c37f
000000a0: 81ee 4244 dd69 707f a1b8 d49a 5add 7091
000000b0: 7f57 18a3 9cc7 f464 8fe0 a321 cb7f 10e1
000000c0: e3ad ade1 4b1c 446c 931d 9d49 0781 7f75
000000d0: 42b3 36d1 5bcc aa26 8c60 8181 bd16 85c3
000000e0: 8659 124b c66b ce51 cfea 4b14 0b13 8189
000000f0: dcc6 4b40 567e dd31 263b 0648 421c 9067

model/conv_pw_11/Conv2D i1 [128, 1, 1, 128]
58 0 -21 -9 10 -19 36 36
-27 -19 -14 93 26 11 -15 31
-3 -5 12 -4 -44 -42 -17 -18
26 -17 -40 45 -49 -43 62 -16
-46 23 -49 -37 -34 -14 19 2
56 12 45 11 4 -10 14 31
55 47 20 10 -20 80 23 -20
-16 15 74 43 -34 83 26 63
35 -51 48 51 91 -5 32 -7
53 5 14 86 -36 -35 16 1
-26 4 -29 -127 -9 46 -35 -8
17 -78 -16 -36 12 33 35 -11
1 7 5 24 -20 -87 5 -12
18 13 -16 -25 78 0 13 -23
5 -2 -5 -51 1 -45 -10 46
24 42 31 17 -37 6 -97 91
-10 -7 23 6 28 -1 29 72
14 31 49 -60 -45 101 42 10
-19 103 8 -31 25 5 -3 -7
35 -47 102 -105 53 63 -64 20
127 16 27 59 -8 36 5 49
16 48 26 27 -38 64 25 -49
-25 -119 -18 -12 -34 -18 -11 -40
-12 -79 8 28 13 -14 29 -30
-17 -9 -42 -20 -29 -15 -12 -20
-53 -20 -34 9 -27 72 40 45
28 -31 30 11 14 3 -47 24
-58 -21 21 30 51 -70 33 32
20 18 6 6 39 24 19 -60
21 -40 2 0 57 35 -18 29
42 -49 9 27 -8 18 29 -27
50 -42 -11 12 -13 121 -8 -65
00000000: 3a00 ebf7 0aed 2424 e5ed f25d 1a0b f11f
00000010: fdfb 0cfc d4d6 efee 1aef d82d cfd5 3ef0
00000020: d217 cfdb def2 1302 380c 2d0b 04f6 0e1f
00000030: 372f 140a ec50 17ec f00f 4a2b de53 1a3f
00000040: 23cd 3033 5bfb 20f9 3505 0e56 dcdd 1001
00000050: e604 e381 f72e ddf8 11b2 f0dc 0c21 23f5
00000060: 0107 0518 eca9 05f4 120d f0e7 4e00 0de9
00000070: 05fe fbcd 01d3 f62e 182a 1f11 db06 9f5b
00000080: f6f9 1706 1cff 1d48 0e1f 31c4 d365 2a0a
00000090: ed67 08e1 1905 fdf9 23d1 6697 353f c014
000000a0: 7f10 1b3b f824 0531 1030 1a1b da40 19cf
000000b0: e789 eef4 deee f5d8 f4b1 081c 0df2 1de2
000000c0: eff7 d6ec e3f1 f4ec cbec de09 e548 282d
000000d0: 1ce1 1e0b 0e03 d118 c6eb 151e 33ba 2120
000000e0: 1412 0606 2718 13c4 15d8 0200 3923 ee1d
000000f0: 2acf 091b f812 1de5 32d6 f50c f379 f8bf

model/conv2d_1/Conv2D i1 [32, 1, 1, 128]
26 -31 -53 -26 10 -33 -32 -12
-43 23 59 8 19 9 -7 -5
121 28 -15 58 3 -65 -27 -22
19 -50 -39 -42 -4 -29 13 47
-21 -16 51 17 -25 -36 -6 -33
-38 -48 -25 8 -4 -24 -64 -17
24 -33 10 -10 15 -22 -18 -37
3 46 40 -10 -7 6 -22 71
-52 -2 4 127 -28 20 -41 6
36 5 -16 63 55 -3 3 -84
29 41 -66 -29 43 -12 -113 27
-35 7 23 80 -5 -6 5 -32
43 -33 -3 -39 -2 -34 6 2
-52 -40 34 31 44 63 33 13
32 -20 -28 -47 -15 -34 29 33
31 36 -32 8 12 57 -7 4
-20 19 -104 -41 13 -48 -13 -37
9 -64 23 -37 -74 19 -28 -35
32 3 26 10 -15 41 29 -7
22 19 -27 -37 59 -13 -8 20
25 61 -25 -48 8 -38 4 36
11 53 35 -40 -25 -60 68 5
10 -40 -10 20 11 61 6 3
-11 -14 -20 10 7 -57 -49 -43
-42 -11 17 -17 -59 -8 6 17
-7 -70 -3 1 -127 7 -6 -34
22 18 -33 -63 -2 5 -44 -7
-35 -17 26 -125 -5 -51 3 22
28 9 -39 -11 -65 -44 19 34
-38 -1 58 -3 -33 28 -51 -10
18 21 -10 -2 10 14 -12 11
34 5 -12 -31 3 124 4 -21
00000000: 1ae1 cbe6 0adf e0f4 d517 3b08 1309 f9fb
00000010: 791c f13a 03bf e5ea 13ce d9d6 fce3 0d2f
00000020: ebf0 3311 e7dc fadf dad0 e708 fce8 c0ef
00000030: 18df 0af6 0fea eedb 032e 28f6 f906 ea47
00000040: ccfe 047f e414 d706 2405 f03f 37fd 03ac
00000050: 1d29 bee3 2bf4 8f1b dd07 1750 fbfa 05e0
00000060: 2bdf fdd9 fede 0602 ccd8 221f 2c3f 210d
00000070: 20ec e4d1 f1de 1d21 1f24 e008 0c39 f904
00000080: ec13 98d7 0dd0 f3db 09c0 17db b613 e4dd
00000090: 2003 1a0a f129 1df9 1613 e5db 3bf3 f814
000000a0: 193d e7d0 08da 0424 0b35 23d8 e7c4 4405
000000b0: 0ad8 f614 0b3d 0603 f5f2 ec0a 07c7 cfd5
000000c0: d6f5 11ef c5f8 0611 f9ba fd01 8107 fade
000000d0: 1612 dfc1 fe05 d4f9 ddef 1a83 fbcd 0316
000000e0: 1c09 d9f5 bfd4 1322 daff 3afd df1c cdf6
000000f0: 1215 f6fe 0a0e f40b 2205 f4e1 037c 04eb

model/conv_dw_12_bn/FusedBatchNormV3;model/conv_dw_12/depthwise i1 [1, 3, 3, 128]
-86 93 62 -50 -109 -82 -66 -68
-78 65 73 68 83 93 71 103
94 -85 -95 82 -96 76 -111 -80
109 -91 83 -117 53 -18 -104 -124
89 -70 -81 -64 93 112 -72 -61
-82 -92 -58 -77 82 95 55 -84
-121 -58 -83 98 -75 77 -112 -127
-70 73 21 -79 72 -77 105 -111
102 -100 89 88 -99 115 -127 -105
78 -107 -77 24 76 94 -61 -127
57 -52 112 89 97 74 127 -99
102 68 -75 99 61 127 -86 -92
60 100 76 -115 -124 78 -104 68
-105 -92 72 44 -45 -57 127 -29
63 51 57 81 2 -81 104 76
89 65 -98 -96 45 86 -74 60
-95 97 104 -74 -101 -92 -82 -94
-115 106 97 90 127 113 101 127
114 -117 -110 93 -119 117 -127 -92
103 -127 88 -105 73 -30 -111 -121
127 -64 -95 -89 111 5 -87 -98
-100 -125 -85 -85 114 115 66 -92
-114 20 -98 127 -113 111 -127 -123
-81 88 20 -101 86 -94 127 -83
88 -127 127 94 -124 102 -125 -127
84 -124 -100 24 99 118 -88 37
76 -79 78 115 114 86 97 -110
127 111 -111 127 86 -24 -127 -99
104 107 94 -88 8 63 -127 78
-102 -127 94 81 -69 -76 72 -19
84 60 79 92 -2 -111 71 100
108 97 -127 -92 71 42 -84 87
00000000: aa5d 3ece 93ae bebc b241 4944 535d 4767
00000010: 5eab a152 a04c 91b0 6da5 538b 35ee 9884
00000020: 59ba afc0 5d70 b8c3 aea4 c6b3 525f 37ac
00000030: 87c6 ad62 b54d 9081 ba49 15b1 48b3 6991
00000040: 669c 5958 9d73 8197 4e95 b318 4c5e c381
00000050: 39cc 7059 614a 7f9d 6644 b563 3d7f aaa4
00000060: 3c64 4c8d 844e 9844 97a4 482c d3c7 7fe3
00000070: 3f33 3951 02af 684c 5941 9ea0 2d56 b63c
00000080: a161 68b6 9ba4 aea2 8d6a 615a 7f71 657f
00000090: 728b 925d 8975 81a4 6781 5897 49e2 9187
000000a0: 7fc0 a1a7 6f05 a99e 9c83 abab 7273 42a4
000000b0: 8e14 9e7f 8f6f 8185 af58 149b 56a2 7fad
000000c0: 5881 7f5e 8466 8381 5484 9c18 6376 a825
000000d0: 4cb1 4e73 7256 6192 7f6f 917f 56e8 819d
000000e0: 686b 5ea8 083f 814e 9a81 5e51 bbb4 48ed
000000f0: 543c 4f5c fe91 4764 6c61 81a4 472a ac57

model/conv_pw_12/Conv2D i1 [256, 1, 1, 128]
-1 31 15 -55 9 67 -107 -13
-35 70 86 -55 -48 -56 40 -70
4 34 -29 -62 -10 12 47 22
28 98 8 -4 -27 29 -5 24
-29 -32 -25 -46 0 28 9 -29
-19 -39 3 -20 100 34 0 -78
-93 50 -41 15 35 -5 -27 -48
20 20 -55 48 16 -38 -3 21
55 37 8 27 39 21 -40 -72
13 55 11 -14 42 -97 39 29
-53 -64 -59 76 -47 24 -48 27
-48 -68 11 -10 69 61 12 -82
-49 -21 76 -2 19 -14 -37 33
-23 3 66 -1 -49 -19 59 -75
-32 -127 -25 37 -47 45 67 -94
18 48 -10 13 72 49 114 -5
11 -42 -31 -2 5 28 37 -63
22 19 -67 -4 -14 -32 -3 -19
30 -26 2 -21 10 -11 7 41
18 43 -14 -5 33 -13 -56 58
-20 31 46 95 24 -4 -21 -6
79 -18 27 40 -34 -75 -11 -9
39 36 -75 52 39 36 -13 -10
-30 41 1 -8 -19 -36 -9 56
8 32 -25 -47 23 -10 4 -44
33 5 -24 -24 -82 -19 -5 45
-27 -29 32 -20 28 -54 -12 -127
16 -30 -44 -40 6 -4 31 -50
2 -27 29 -56 44 39 15 62
2 -23 -47 -29 80 -28 39 -11
-25 -2 46 -17 -8 36 -58 4
2 -58 34 3 -48 -32 89 -8
00000000: ff1f 0fc9 0943 95f3 dd46 56c9 d0c8 28ba
00000010: 0422 e3c2 f60c 2f16 1c62 08fc e51d fb18
00000020: e3e0 e7d2 001c 09e3 edd9 03ec 6422 00b2
00000030: a332 d70f 23fb e5d0 1414 c930 10da fd15
00000040: 3725 081b 2715 d8b8 0d37 0bf2 2a9f 271d
00000050: cbc0 c54c d118 d01b d0bc 0bf6 453d 0cae
00000060: cfeb 4cfe 13f2 db21 e903 42ff cfed 3bb5
00000070: e081 e725 d12d 43a2 1230 f60d 4831 72fb
00000080: 0bd6 e1fe 051c 25c1 1613 bdfc f2e0 fded
00000090: 1ee6 02eb 0af5 0729 122b f2fb 21f3 c83a
000000a0: ec1f 2e5f 18fc ebfa 4fee 1b28 deb5 f5f7
000000b0: 2724 b534 2724 f3f6 e229 01f8 eddc f738
000000c0: 0820 e7d1 17f6 04d4 2105 e8e8 aeed fb2d
000000d0: e5e3 20ec 1cca f481 10e2 d4d8 06fc 1fce
000000e0: 02e5 1dc8 2c27 0f3e 02e9 d1e3 50e4 27f5
000000f0: e7fe 2eef f824 c604 02c6 2203 d0e0 59f8

model/conv_dw_13_bn/FusedBatchNormV3;model/conv_dw_13/depthwise;model/conv2d_4/Conv2D i1 [1, 3, 3, 256]
-127 -63 -70 127 -127 127 127 118
127 -77 127 -124 41 127 -126 -127
127 -67 -33 -121 96 -127 127 -100
-89 127 -124 127 -96 -10 127 114
96 127 -74 -31 -80 74 103 73
86 -127 14 -120 127 -127 122 -127
127 -106 127 -85 -96 117 77 41
-127 -127 119 55 -50 108 127 59
-105 -112 -127 127 41 -125 -57 127
-33 -92 110 -112 125 72 -42 -37
-127 -81 -3 127 127 -127 -118 -122
52 105 127 127 -36 -127 127 -127
3 -6 -45 -46 127 100 -32 127
92 127 -105 -61 -112 -117 106 -127
127 127 -105 86 127 -96 -27 127
127 -85 127 -127 127 -127 127 127
-127 -70 115 -98 -127 127 127 -127
-27 50 127 51 -127 127 -127 -127
23 127 -127 107 127 -127 68 127
-95 -7 -114 -127 127 127 57 17
127 -127 -115 -81 115 64 104 -127
-127 127 -31 -79 -113 126 -122 -101
-98 108 127 122 -45 90 -67 115
119 89 104 97 -127 127 -83 -90
117 -91 -119 -127 125 71 -127 76
-127 -104 42 -120 -100 36 -66 -96
-41 -116 -97 117 127 118 120 -64
124 94 -100 -74 -94 -106 127 127
-127 113 -111 -95 127 -119 99 -45
103 -127 127 -124 73 68 120 -98
127 -14 91 -127 -127 120 -123 -12
-84 -99 127 44 -75 51 -127 -104
00000000: 81c1 ba7f 817f 7f76 7fb3 7f84 297f 8281
00000010: 7fbd df87 6081 7f9c a77f 847f a0f6 7f72
00000020: 607f b6e1 b04a 6749 5681 0e88 7f81 7a81
00000030: 7f96 7fab a075 4d29 8181 7737 ce6c 7f3b
00000040: 9790 817f 2983 c77f dfa4 6e90 7d48 d6db
00000050: 81af fd7f 7f81 8a86 3469 7f7f dc81 7f81
00000060: 03fa d3d2 7f64 e07f 5c7f 97c3 908b 6a81
00000070: 7f7f 9756 7fa0 e57f 7fab 7f81 7f81 7f7f
00000080: 81ba 739e 817f 7f81 e532 7f33 817f 8181
00000090: 177f 816b 7f81 447f a1f9 8e81 7f7f 3911
000000a0: 7f81 8daf 7340 6881 817f e1b1 8f7e 869b
000000b0: 9e6c 7f7a d35a bd73 7759 6861 817f ada6
000000c0: 75a5 8981 7d47 814c 8198 2a88 9c24 bea0
000000d0: d78c 9f75 7f76 78c0 7c5e 9cb6 a296 7f7f
000000e0: 8171 91a1 7f89 63d3 6781 7f84 4944 789e
000000f0: 7ff2 5b81 8178 85f4 ac9d 7f2c b533 8198

model/conv_pw_13/Conv2D i1 [256, 1, 1, 256]
-11 -49 -10 -31 -74 19 -49 35
38 6 -42 28 4 -29 -15 0
-69 20 17 4 -47 16 31 3
49 -28 -35 1 8 41 38 21
-34 9 -29 -46 -51 53 -39 3
30 -19 -5 6 -14 33 119 8
-43 -11 -66 -40 77 -25 -16 29
18 -3 1 -29 81 -9 10 -18
-16 11 -7 50 -24 -46 -16 32
8 -15 47 5 -39 68 50 11
-72 -21 -32 19 31 -57 -66 -63
24 -25 -41 26 8 20 -16 -23
92 25 -29 -31 -2 -27 -3 50
4 -5 4 0 9 -45 -22 -16
-4 0 14 -32 -47 -127 -43 -56
3 11 -31 8 -11 -29 -16 -7
10 17 8 34 25 -17 14 -22
30 10 43 39 37 89 -41 43
16 1 -34 27 16 -14 25 26
2 45 -53 59 72 9 -7 5
1 -18 -16 -103 -70 5 -26 14
-37 86 13 -110 -30 29 12 1
21 -3 -76 -15 11 -35 -29 56
26 61 13 -79 36 4 -35 -42
-96 -10 -8 -4 -1 53 49 18
-34 16 -4 -10 -48 -27 27 5
-89 -37 -47 -42 -12 17 46 -6
-9 -20 36 11 34 -17 -1 4
2 -74 -22 -58 40 9 21 -23
0 -19 -51 29 29 39 48 -31
74 43 7 79 -2 58 -6 -27
32 20 25 58 13 7 28 -31
00000000: f5cf f6e1 b613 cf23 2606 d61c 04e3 f100
00000010: bb14 1104 d110 1f03 31e4 dd01 0829 2615
00000020: de09 e3d2 cd35 d903 1eed fb06 f221 7708
00000030: d5f5 bed8 4de7 f01d 12fd 01e3 51f7 0aee
00000040: f00b f932 e8d2 f020 08f1 2f05 d944 320b
00000050: b8eb e013 1fc7 bec1 18e7 d71a 0814 f0e9
00000060: 5c19 e3e1 fee5 fd32 04fb 0400 09d3 eaf0
00000070: fc00 0ee0 d181 d5c8 030b e108 f5e3 f0f9
00000080: 0a11 0822 19ef 0eea 1e0a 2b27 2559 d72b
00000090: 1001 de1b 10f2 191a 022d cb3b 4809 f905
000000a0: 01ee f099 ba05 e60e db56 0d92 e21d 0c01
000000b0: 15fd b4f1 0bdd e338 1a3d 0db1 2404 ddd6
000000c0: a0f6 f8fc ff35 3112 de10 fcf6 d0e5 1b05
000000d0: a7db d1d6 f411 2efa f7ec 240b 22ef ff04
000000e0: 02b6 eac6 2809 15e9 00ed cd1d 1d27 30e1
000000f0: 4a2b 074f fe3a fae5 2014 193a 0d07 1ce1

model/conv2d_2/Conv2D i1 [32, 1, 1, 256]
4 27 11 19 22 -16 43 23
25 -58 -15 36 -9 4 19 36
1 23 -12 -20 -12 -127 -44 -11
-1 38 -26 -28 5 20 26 17
-24 52 -36 11 -19 -50 -8 -12
-21 -23 100 -12 -36 -37 -6 -50
-3 19 1 28 14 10 13 28
36 10 -1 3 -24 -9 96 25
10 17 -8 -25 25 16 -28 -3
38 89 17 -3 44 1 -15 -21
18 -28 19 3 17 9 -10 -4
-1 -54 -15 -31 40 -39 -30 10
-12 -14 -24 34 79 -73 -38 -2
-18 -11 -50 -6 8 -13 15 -47
14 -53 -40 -8 2 17 8 -7
-32 27 -13 -29 50 17 23 -42
-50 -38 48 32 25 60 -1 9
41 29 14 -17 28 13 -54 -25
-39 -14 9 14 -16 5 0 11
-17 23 19 24 -22 6 3 -69
-10 2 -60 14 15 -42 3 -21
12 -25 -29 -39 1 2 -10 11
-4 21 1 7 -13 -88 59 -16
6 -4 -16 46 -59 -30 43 -55
22 -44 0 34 -109 63 7 20
-85 -15 10 4 6 -22 65 17
24 0 -8 19 -29 7 23 1
7 -69 1 17 -23 -17 -25 68
13 -38 18 -25 -9 -14 50 31
-4 -9 -43 -1 59 15 22 14
41 42 36 -40 13 -7 42 28
-20 -12 54 2 -18 -4 24 -7
00000000: 041b 0b13 16f0 2b17 19c6 f124 f704 1324
00000010: 0117 f4ec f481 d4f5 ff26 e6e4 0514 1a11
00000020: e834 dc0b edce f8f4 ebe9 64f4 dcdb face
00000030: fd13 011c 0e0a 0d1c 240a ff03 e8f7 6019
00000040: 0a11 f8e7 1910 e4fd 2659 11fd 2c01 f1eb
00000050: 12e4 1303 1109 f6fc ffca f1e1 28d9 e20a
00000060: f4f2 e822 4fb7 dafe eef5 cefa 08f3 0fd1
00000070: 0ecb d8f8 0211 08f9 e01b f3e3 3211 17d6
00000080: ceda 3020 193c ff09 291d 0eef 1c0d cae7
00000090: d9f2 090e f005 000b ef17 1318 ea06 03bb
000000a0: f602 c40e 0fd6 03eb 0ce7 e3d9 0102 f60b
000000b0: fc15 0107 f3a8 3bf0 06fc f02e c5e2 2bc9
000000c0: 16d4 0022 933f 0714 abf1 0a04 06ea 4111
000000d0: 1800 f813 e307 1701 07bb 0111 e9ef e744
000000e0: 0dda 12e7 f7f2 321f fcf7 d5ff 3b0f 160e
000000f0: 292a 24d8 0df9 2a1c ecf4 3602 eefc 18f9

model/batch_normalization_3/FusedBatchNormV3;model/depthwise_conv2d/depthwise;model/depthwise_conv2d/BiasAdd;model/conv2d_4/Conv2D;depthwise_conv2d/bias i1 [1, 3, 3, 256]
-17 -48 -1 0 127 47 0 -58
127 -1 -64 0 127 77 119 0
0 127 -6 0 0 0 43 57
-17 -39 0 -20 13 65 0 0
105 0 0 8 0 0 56 -24
-71 -13 0 82 42 0 5 127
-3 99 -46 23 124 7 -52 127
85 -64 0 -63 127 -1 -1 0
88 99 116 111 -57 106 -47 0
39 0 22 29 -23 69 -32 127
127 30 -4 0 0 0 113 0
127 -39 -39 0 -8 0 0 68
75 0 -10 -111 10 0 0 69
85 127 0 127 -7 0 0 -110
0 -9 0 127 -5 -46 -19 127
0 0 127 0 1 34 -127 0
72 3 1 0 89 0 51 53
23 74 97 127 -18 0 99 0
0 0 0 -90 56 -68 0 127
-45 -11 -127 0 0 0 84 0
12 0 0 -99 0 127 0 0
127 -84 -103 0 17 0 -100 27
-97 -5 44 -16 7 127 71 -42
0 -2 0 75 127 -81 63 -17
69 0 -8 0 0 39 -21 68
-1 11 127 15 0 0 -28 0
74 127 -15 33 0 0 0 -127
0 0 58 0 -1 0 0 0
62 16 0 0 127 0 0 -1
0 0 0 65 -5 0 -109 -44
31 0 -25 0 0 -26 0 115
58 0 127 -1 -100 75 91 71
00000000: efd0 ff00 7f2f 00c6 7fff c000 7f4d 7700
00000010: 007f fa00 0000 2b39 efd9 00ec 0d41 0000
00000020: 6900 0008 0000 38e8 b9f3 0052 2a00 057f
00000030: fd63 d217 7c07 cc7f 55c0 00c1 7fff ff00
00000040: 5863 746f c76a d100 2700 161d e945 e07f
00000050: 7f1e fc00 0000 7100 7fd9 d900 f800 0044
00000060: 4b00 f691 0a00 0045 557f 007f f900 0092
00000070: 00f7 007f fbd2 ed7f 0000 7f00 0122 8100
00000080: 4803 0100 5900 3335 174a 617f ee00 6300
00000090: 0000 00a6 38bc 007f d3f5 8100 0000 5400
000000a0: 0c00 009d 007f 0000 7fac 9900 1100 9c1b
000000b0: 9ffb 2cf0 077f 47d6 00fe 004b 7faf 3fef
000000c0: 4500 f800 0027 eb44 ff0b 7f0f 0000 e400
000000d0: 4a7f f121 0000 0081 0000 3a00 ff00 0000
000000e0: 3e10 0000 7f00 00ff 0000 0041 fb00 93d4
000000f0: 1f00 e700 00e6 0073 3a00 7fff 9c4b 5b47

model/conv2d_3/Conv2D i1 [256, 1, 1, 256]
0 0 0 0 0 0 0 0
0 0 0 0 0 0 0 0
0 0 0 0 0 0 0 0
0 0 0 0 0 0 0 0
0 0 0 0 0 0 0 0
0 0 0 0 0 0 0 0
0 0 0 0 0 0 0 0
0 0 0 0 0 0 0 0
0 0 0 0 0 0 0 0
0 0 0 0 0 0 0 0
0 0 0 0 0 0 0 0
0 0 0 0 0 0 0 0
0 0 0 0 0 0 0 0
0 0 0 0 0 0 0 0
0 0 0 0 0 0 0 0
0 0 0 0 0 0 0 0
0 0 0 0 0 0 0 0
0 0 0 0 0 0 0 0
0 0 0 0 0 0 0 0
0 0 0 0 0 0 0 0
0 0 0 0 0 0 0 0
0 0 0 0 0 0 0 0
0 0 0 0 0 0 0 0
0 0 0 0 0 0 0 0
0 0 0 0 0 0 0 0
0 0 0 0 0 0 0 0
0 0 0 0 0 0 0 0
0 0 0 0 0 0 0 0
0 0 0 0 0 0 0 0
0 0 0 0 0 0 0 0
0 0 0 0 0 0 0 0
0 0 0 0 0 0 0 0
00000000: 0000 0000 0000 0000 0000 0000 0000 0000
00000010: 0000 0000 0000 0000 0000 0000 0000 0000
00000020: 0000 0000 0000 0000 0000 0000 0000 0000
00000030: 0000 0000 0000 0000 0000 0000 0000 0000
00000040: 0000 0000 0000 0000 0000 0000 0000 0000
00000050: 0000 0000 0000 0000 0000 0000 0000 0000
00000060: 0000 0000 0000 0000 0000 0000 0000 0000
00000070: 0000 0000 0000 0000 0000 0000 0000 0000
00000080: 0000 0000 0000 0000 0000 0000 0000 0000
00000090: 0000 0000 0000 0000 0000 0000 0000 0000
000000a0: 0000 0000 0000 0000 0000 0000 0000 0000
000000b0: 0000 0000 0000 0000 0000 0000 0000 0000
000000c0: 0000 0000 0000 0000 0000 0000 0000 0000
000000d0: 0000 0000 0000 0000 0000 0000 0000 0000
000000e0: 0000 0000 0000 0000 0000 0000 0000 0000
000000f0: 0000 0000 0000 0000 0000 0000 0000 0000
