face_detection.tflite (tflite, 57040 bytes, 21 tensors)

model_1/Conv1/Conv2D i1 [16, 3, 3, 3]
00000000: 0000 0000 0000 0000 0000 0000 0000 0000
00000010: 0000 0000 0000 0000 0000 0030 ff20 fded
00000020: 1281 8bbb 03fd 00ec 06fe 04e7 09fe 13ff
00000030: fe0b 012c f511 2207 fe43 7602 2de4 070a
00000040: 1700 3b7f e31c 03f9 2dca 1346 deeb 27d4
00000050: 0d01 1afb 1c58 0dfe 0a00 111f fe43 7f19
00000060: f0f1 06ff fdfb 1a1f 0afa fe05 2048 fa0a
00000070: 57fb e40a f921 512d 177f 240e 35f2 254c
00000080: 231f 7714 da18 1609 0788 ff08 9afa 1fe4
00000090: 07e0 8102 da8e fe0c e0fd 0eec 0200 ebfd
000000a0: 09ea 14c1 282a a92d 06eb 0d1f a043 3a81
000000b0: 4d04 e415 10df 120a d51f f208 04da 0afe
000000c0: 95d2 fce9 16ff eef4 fb81 9cf3 fbf9 04e8
000000d0: 1ef0 f209 f8e8 18fa 7b7f 737a 7f72 797d
000000e0: 717b 7e72 787c 7079 7c70 797c 7278 7d71
000000f0: 797c 70eb f504 f7f6 ff07 04f8 666e ed4e
0 0 0 0 0 0 0 0
0 0 0 0 0 0 0 0
0 0 0 0 0 0 0 0
0 0 0 48 -1 32 -3 -19
18 -127 -117 -69 3 -3 0 -20
6 -2 4 -25 9 -2 19 -1
-2 11 1 44 -11 17 34 7
-2 67 118 2 45 -28 7 10
23 0 59 127 -29 28 3 -7
45 -54 19 70 -34 -21 39 -44
13 1 26 -5 28 88 13 -2
10 0 17 31 -2 67 127 25
-16 -15 6 -1 -3 -5 26 31
10 -6 -2 5 32 72 -6 10
87 -5 -28 10 -7 33 81 45
23 127 36 14 53 -14 37 76
35 31 119 20 -38 24 22 9
7 -120 -1 8 -102 -6 31 -28
7 -32 -127 2 -38 -114 -2 12
-32 -3 14 -20 2 0 -21 -3
9 -22 20 -63 40 42 -87 45
6 -21 13 31 -96 67 58 -127
77 4 -28 21 16 -33 18 10
-43 31 -14 8 4 -38 10 -2
-107 -46 -4 -23 22 -1 -18 -12
-5 -127 -100 -13 -5 -7 4 -24
30 -16 -14 9 -8 -24 24 -6
123 127 115 122 127 114 121 125
113 123 126 114 120 124 112 121
124 112 121 124 114 120 125 113
121 124 112 -21 -11 4 -9 -10
-1 7 4 -8 102 110 -19 78

model_1/expanded_conv_depthwise_BN/FusedBatchNormV3;model_1/expanded_conv_depthwise/depthwise;model_1/block_5_project/Conv2D i1 [1, 3, 3, 16]
00000000: 9412 ad81 27bd 50b4 a6fd f81d 8105 36b7
00000010: 3319 817f 7f81 7f81 ab7f 8132 9705 7fe7
00000020: 18e8 5afe b844 a24d a1e5 04f1 3d01 9be3
00000030: 817f e90d d410 e40d e400 0394 cf08 e2f2
00000040: b2d6 c6f1 f8e7 08e4 94a7 15f3 9881 0117
00000050: 0e01 4002 0322 e720 8106 fe02 eb0c fc2b
00000060: 8db7 4402 fa28 d933 b400 0004 2802 e517
00000070: 17fc 1ffe e529 de13 83f3 0053 c600 e491
00000080: 15f9 1300 040f 0915 8d04 ff81 6b03 1181
-108 18 -83 -127 39 -67 80 -76
-90 -3 -8 29 -127 5 54 -73
51 25 -127 127 127 -127 127 -127
-85 127 -127 50 -105 5 127 -25
24 -24 90 -2 -72 68 -94 77
-95 -27 4 -15 61 1 -101 -29
-127 127 -23 13 -44 16 -28 13
-28 0 3 -108 -49 8 -30 -14
-78 -42 -58 -15 -8 -25 8 -28
-108 -89 21 -13 -104 -127 1 23
14 1 64 2 3 34 -25 32
-127 6 -2 2 -21 12 -4 43
-115 -73 68 2 -6 40 -39 51
-76 0 0 4 40 2 -27 23
23 -4 31 -2 -27 41 -34 19
-125 -13 0 83 -58 0 -28 -111
21 -7 19 0 4 15 9 21
-115 4 -1 -127 107 3 17 -127

model_1/expanded_conv_project/Conv2D i1 [8, 1, 1, 16]
00000000: 00f1 fffc 7fff fcfc 0183 a8fb 007c fa00
00000010: 00e8 045c 450b 1901 01f6 7fd1 001d f100
00000020: 0000 fef2 c301 0dfc 0102 edfe 007f f700
00000030: 00fd e981 5114 4509 013d ff23 0000 0900
00000040: 002d e021 c51c 7f07 ffbe 13f1 00f5 0200
00000050: 00ed f1ff ece8 f90b 000b fbd4 00fc 7f00
00000060: 0014 0608 30eb ecf7 0095 7340 007f 3b00
00000070: 0013 f47f 0a01 160e 0148 cf4c 00f9 2f00
0 -15 -1 -4 127 -1 -4 -4
1 -125 -88 -5 0 124 -6 0
0 -24 4 92 69 11 25 1
1 -10 127 -47 0 29 -15 0
0 0 -2 -14 -61 1 13 -4
1 2 -19 -2 0 127 -9 0
0 -3 -23 -127 81 20 69 9
1 61 -1 35 0 0 9 0
0 45 -32 33 -59 28 127 7
-1 -66 19 -15 0 -11 2 0
0 -19 -15 -1 -20 -24 -7 11
0 11 -5 -44 0 -4 127 0
0 20 6 8 48 -21 -20 -9
0 -107 115 64 0 127 59 0
0 19 -12 127 10 1 22 14
1 72 -49 76 0 -7 47 0

model_1/block_1_expand/Conv2D i1 [48, 1, 1, 8]
00000000: 0b81 29db 15eb d517 3e43 e2a8 0deb b67f
00000010: 1f10 db7f 396f 245c 453e b07f a2f9 0113
00000020: dd9b 480d fd17 d981 0e06 df2f ffe4 267f
00000030: 2af5 81a7 5510 32e0 7f13 16e7 1af7 52c0
00000040: 1b8f 046f f90c 0281 6381 07f8 f50b 8456
00000050: 81db 8c16 ee10 a236 e5da ffa0 81e6 34f2
00000060: 0e08 e045 ade6 3b7f 0000 0000 0000 0000
00000070: fae7 fb11 327f 2b2a 2f00 0e81 4231 c350
00000080: 0000 0000 0000 0000 111e 7f13 eaf8 131d
00000090: 5181 1323 f310 93fd 81f4 2148 c7c2 914a
000000a0: 1a1b da64 e781 0030 370d 7f12 f2ec 5111
000000b0: b8ee 8104 0107 9d08 937f e5e2 0cf2 7da9
000000c0: 06ca cd51 f6bc 657f 0b30 2728 7f72 b4c4
000000d0: abdf 8102 0613 a0fd fef3 e60d d47f 4338
000000e0: 01ee e625 1a7f 3a44 4f1e 7ffc ebf7 4ef3
000000f0: b37f e7dc 09f6 6bd4 d5a0 e409 24b7 7f78
11 -127 41 -37 21 -21 -43 23
62 67 -30 -88 13 -21 -74 127
31 16 -37 127 57 111 36 92
69 62 -80 127 -94 -7 1 19
-35 -101 72 13 -3 23 -39 -127
14 6 -33 47 -1 -28 38 127
42 -11 -127 -89 85 16 50 -32
127 19 22 -25 26 -9 82 -64
27 -113 4 111 -7 12 2 -127
99 -127 7 -8 -11 11 -124 86
-127 -37 -116 22 -18 16 -94 54
-27 -38 -1 -96 -127 -26 52 -14
14 8 -32 69 -83 -26 59 127
0 0 0 0 0 0 0 0
-6 -25 -5 17 50 127 43 42
47 0 14 -127 66 49 -61 80
0 0 0 0 0 0 0 0
17 30 127 19 -22 -8 19 29
81 -127 19 35 -13 16 -109 -3
-127 -12 33 72 -57 -62 -111 74
26 27 -38 100 -25 -127 0 48
55 13 127 18 -14 -20 81 17
-72 -18 -127 4 1 7 -99 8
-109 127 -27 -30 12 -14 125 -87
6 -54 -51 81 -10 -68 101 127
11 48 39 40 127 114 -76 -60
-85 -33 -127 2 6 19 -96 -3
-2 -13 -26 13 -44 127 67 56
1 -18 -26 37 26 127 58 68
79 30 127 -4 -21 -9 78 -13
-77 127 -25 -36 9 -10 107 -44
-43 -96 -28 9 36 -73 127 120

model_1/block_1_depthwise_BN/FusedBatchNormV3;model_1/block_1_depthwise/depthwise;model_1/block_3_depthwise/depthwise i1 [1, 3, 3, 48]
00000000: d6eb f8f0 07d9 b1be e6ce 0943 22b9 72d5
00000010: 8faa 24fa feb8 91b2 de81 bfe9 4710 611a
00000020: 81aa f734 132f 814e b4f2 6993 fddd a96c
00000030: 4c0e e4e3 3a81 81b0 3cb2 8e6e 25ae 003e
00000040: cc8e 3b06 098f 81bc fc81 87d9 ca16 c736
00000050: 1c81 3f51 0d47 a57f 8107 7c81 02e9 815e
00000060: e02c 06fc bf95 c5ef 56f8 8127 08b9 9cf5
00000070: 81e6 1c0b f1b2 dce9 f6df c5f4 f512 e808
00000080: 6baa 461e 0f22 fa10 b103 07b2 ef05 c90f
00000090: aa81 d4d4 f536 6497 e795 eb70 5bc0 1b9f
000000a0: 87a2 58b4 2ba7 9a81 2a86 b2d8 7fc4 7f54
000000b0: d5af f055 ddb3 9559 2a3a 6991 a48a 5178
000000c0: 7fad 8181 7f28 5e81 6481 8e7f 7ff2 fa7f
000000d0: c481 7f81 7f81 8a8a 7f9a 8181 8981 b97f
000000e0: 1d91 7f7f bc81 a05a 3d7f 7f8d 8f81 7b7f
000000f0: cb20 c3ab 87ea 1fda 7feb b323 39ba e7d4
-42 -21 -8 -16 7 -39 -79 -66
-26 -50 9 67 34 -71 114 -43
-113 -86 36 -6 -2 -72 -111 -78
-34 -127 -65 -23 71 16 97 26
-127 -86 -9 52 19 47 -127 78
-76 -14 105 -109 -3 -35 -87 108
76 14 -28 -29 58 -127 -127 -80
60 -78 -114 110 37 -82 0 62
-52 -114 59 6 9 -113 -127 -68
-4 -127 -121 -39 -54 22 -57 54
28 -127 63 81 13 71 -91 127
-127 7 124 -127 2 -23 -127 94
-32 44 6 -4 -65 -107 -59 -17
86 -8 -127 39 8 -71 -100 -11
-127 -26 28 11 -15 -78 -36 -23
-10 -33 -59 -12 -11 18 -24 8
107 -86 70 30 15 34 -6 16
-79 3 7 -78 -17 5 -55 15
-86 -127 -44 -44 -11 54 100 -105
-25 -107 -21 112 91 -64 27 -97
-121 -94 88 -76 43 -89 -102 -127
42 -122 -78 -40 127 -60 127 84
-43 -81 -16 85 -35 -77 -107 89
42 58 105 -111 -92 -118 81 120
127 -83 -127 -127 127 40 94 -127
100 -127 -114 127 127 -14 -6 127
-60 -127 127 -127 127 -127 -118 -118
127 -102 -127 -127 -119 -127 -71 127
29 -111 127 127 -68 -127 -96 90
61 127 127 -115 -113 -127 123 127
-53 32 -61 -85 -121 -22 31 -38
127 -21 -77 35 57 -70 -25 -44

model_1/block_1_project/Conv2D i1 [8, 1, 1, 48]
00000000: f203 0caa 091c 0309 010a fef9 5e00 0101
00000010: 00fb f6fe 4dff 0208 1e26 100c 0302 0081
00000020: 0908 fe00 e700 ed21 07e5 f608 0101 0302
00000030: dbfa f8fb 2b1b e34c 1307 e2ea 0b00 131f
00000040: 0030 10c9 ff1b 7f15 e7fa 38fd 16fe 0ff4
00000050: 10f9 f6ed 07cd 0b05 f7fc b1f8 df0a d5a3
00000060: c40c 010b 2efa 1e17 f437 0cff 0700 0a35
00000070: 000e 8115 0312 06f1 e203 2606 091e 1807
00000080: 03f4 faf4 0904 0606 25f7 e006 19c6 1b11
00000090: 01ff 0409 f718 fff9 400f 0000 1b00 e6fa
000000a0: 0000 f803 ff01 04f1 f300 f7fd f7fd fdf9
000000b0: d02b c4ff 0402 0781 0200 02cc 0003 0308
000000c0: 00ff 5124 06ec fffd 01fd f9fe b000 f501
000000d0: 000f 0600 3f08 fefb ee22 f827 faff 0461
000000e0: 0401 ffff 15f9 fcf0 0081 0206 fffd fffe
000000f0: f72b 01f8 012e 170b eb1d 0831 1a00 81fe
-14 3 12 -86 9 28 3 9
1 10 -2 -7 94 0 1 1
0 -5 -10 -2 77 -1 2 8
30 38 16 12 3 2 0 -127
9 8 -2 0 -25 0 -19 33
7 -27 -10 8 1 1 3 2
-37 -6 -8 -5 43 27 -29 76
19 7 -30 -22 11 0 19 31
0 48 16 -55 -1 27 127 21
-25 -6 56 -3 22 -2 15 -12
16 -7 -10 -19 7 -51 11 5
-9 -4 -79 -8 -33 10 -43 -93
-60 12 1 11 46 -6 30 23
-12 55 12 -1 7 0 10 53
0 14 -127 21 3 18 6 -15
-30 3 38 6 9 30 24 7
3 -12 -6 -12 9 4 6 6
37 -9 -32 6 25 -58 27 17
1 -1 4 9 -9 24 -1 -7
64 15 0 0 27 0 -26 -6
0 0 -8 3 -1 1 4 -15
-13 0 -9 -3 -9 -3 -3 -7
-48 43 -60 -1 4 2 7 -127
2 0 2 -52 0 3 3 8
0 -1 81 36 6 -20 -1 -3
1 -3 -7 -2 -80 0 -11 1
0 15 6 0 63 8 -2 -5
-18 34 -8 39 -6 -1 4 97
4 1 -1 -1 21 -7 -4 -16
0 -127 2 6 -1 -3 -1 -2
-9 43 1 -8 1 46 23 11
-21 29 8 49 26 0 -127 -2

model_1/block_2_expand/Conv2D i1 [48, 1, 1, 8]
00000000: 7133 f6f2 7f20 c7c9 fdfb 007f 0df1 fe1c
00000010: 1a81 ee29 f7c2 4e0e 7fe2 010b ffd9 1508
00000020: 0dc8 7ff3 f1cd 06a6 46f7 fd07 7f04 ee07
00000030: f551 ec7f 0c37 c9c9 f77f fc01 f8f9 03fa
00000040: 7f28 f404 cbe5 00e9 8115 0f12 4506 03fd
00000050: baf8 0d7f 3922 e7fa 8103 14c1 3611 e1bc
00000060: 7f20 0a05 ddfb 01d3 f450 81f5 0363 bd47
00000070: c4e1 e97f 2104 ebe2 f67f 04fb fdf0 07c8
00000080: f18f ecff 0b97 7fda 097f 00ee 0045 b2f5
00000090: fa23 81ff 0a35 e33d c415 080c 810a 0f18
000000a0: 81ea f8fe 72d2 43f6 c1fb f803 8101 0efc
000000b0: 87d6 f2ff 7ff4 3631 ede4 f7f5 f752 81ad
000000c0: f82c 8100 0d35 ea4f 6fe3 f87f bbf1 07bf
000000d0: 08ef fdff f96d 7fe3 4202 f50d 7f1b 2ce1
000000e0: 057f c708 0d62 d66e f306 fcfa fa4d 81b8
000000f0: 0400 0281 f8fe fdf0 c10c 0308 8108 15f8
113 51 -10 -14 127 32 -57 -55
-3 -5 0 127 13 -15 -2 28
26 -127 -18 41 -9 -62 78 14
127 -30 1 11 -1 -39 21 8
13 -56 127 -13 -15 -51 6 -90
70 -9 -3 7 127 4 -18 7
-11 81 -20 127 12 55 -55 -55
-9 127 -4 1 -8 -7 3 -6
127 40 -12 4 -53 -27 0 -23
-127 21 15 18 69 6 3 -3
-70 -8 13 127 57 34 -25 -6
-127 3 20 -63 54 17 -31 -68
127 32 10 5 -35 -5 1 -45
-12 80 -127 -11 3 99 -67 71
-60 -31 -23 127 33 4 -21 -30
-10 127 4 -5 -3 -16 7 -56
-15 -113 -20 -1 11 -105 127 -38
9 127 0 -18 0 69 -78 -11
-6 35 -127 -1 10 53 -29 61
-60 21 8 12 -127 10 15 24
-127 -22 -8 -2 114 -46 67 -10
-63 -5 -8 3 -127 1 14 -4
-121 -42 -14 -1 127 -12 54 49
-19 -28 -9 -11 -9 82 -127 -83
-8 44 -127 0 13 53 -22 79
111 -29 -8 127 -69 -15 7 -65
8 -17 -3 -1 -7 109 127 -29
66 2 -11 13 127 27 44 -31
5 127 -57 8 13 98 -42 110
-13 6 -4 -6 -6 77 -127 -72
4 0 2 -127 -8 -2 -3 -16
-63 12 3 8 -127 8 21 -8

model_1/block_2_depthwise_BN/FusedBatchNormV3;model_1/block_2_depthwise/depthwise;model_1/block_3_depthwise/depthwise i1 [1, 3, 3, 48]
00000000: 05fe 156e 0452 ff1c 1008 0908 f8f7 d308
00000010: fe08 e98e f9ea 7ff7 fd06 fb0a fb05 1164
00000020: 141d 27e5 0123 ff03 12be f7f7 1103 faf6
00000030: 7f09 1081 1c5a 0b0b 7c7f 082c cee8 0607
00000040: 7fc7 c5c8 9a19 930e 1047 e1ac 1716 0988
00000050: 05c4 7f0a d8d2 fc76 b19f e203 def9 8118
00000060: e0fd 080f 0042 0511 1d09 f220 f2fd 1003
00000070: 9a1c fe4f dff3 eef9 fcc5 fd1e f006 04ec
00000080: 08e9 11ee ff30 28f5 3225 f00c d604 00fa
00000090: 7d07 019e 0ee4 23ef 0909 f336 f9ff 10df
000000a0: 00ce c4aa 09b6 84ee 0562 f281 f721 0d97
000000b0: 11cc fe7f fd3b d82b c281 26a6 d4f2 f4fa
000000c0: 1981 8173 8181 8181 81a1 7f81 7f7f 2281
000000d0: ae7f 7f96 7f7f 707f 7f81 811d 8181 5c7f
000000e0: 817f e3d7 7f81 7f7f 7faf 7f7f 7f88 666b
000000f0: 3506 31f2 06c1 2c12 e90f 96f9 00d8 7f03
5 -2 21 110 4 82 -1 28
16 8 9 8 -8 -9 -45 8
-2 8 -23 -114 -7 -22 127 -9
-3 6 -5 10 -5 5 17 100
20 29 39 -27 1 35 -1 3
18 -66 -9 -9 17 3 -6 -10
127 9 16 -127 28 90 11 11
124 127 8 44 -50 -24 6 7
127 -57 -59 -56 -102 25 -109 14
16 71 -31 -84 23 22 9 -120
5 -60 127 10 -40 -46 -4 118
-79 -97 -30 3 -34 -7 -127 24
-32 -3 8 15 0 66 5 17
29 9 -14 32 -14 -3 16 3
-102 28 -2 79 -33 -13 -18 -7
-4 -59 -3 30 -16 6 4 -20
8 -23 17 -18 -1 48 40 -11
50 37 -16 12 -42 4 0 -6
125 7 1 -98 14 -28 35 -17
9 9 -13 54 -7 -1 16 -33
0 -50 -60 -86 9 -74 -124 -18
5 98 -14 -127 -9 33 13 -105
17 -52 -2 127 -3 59 -40 43
-62 -127 38 -90 -44 -14 -12 -6
25 -127 -127 115 -127 -127 -127 -127
-127 -95 127 -127 127 127 34 -127
-82 127 127 -106 127 127 112 127
127 -127 -127 29 -127 -127 92 127
-127 127 -29 -41 127 -127 127 127
127 -81 127 127 127 -120 102 107
53 6 49 -14 6 -63 44 18
-23 15 -106 -7 0 -40 127 3

model_1/block_2_project/Conv2D i1 [8, 1, 1, 48]
00000000: d6f0 d905 fce7 03ff 947f d36a 5b07 40e9
00000010: 03e1 0d08 f5f5 e7ea 10af 0d33 f111 08d7
00000020: ffb5 6f11 07f9 fbeb 6501 29e2 eb0a e7ec
00000030: 0728 7f03 fdef 00b7 1f00 1409 ee0a fe87
00000040: 08c6 0309 e72c 18da f2f0 11fb 06f5 0b01
00000050: fa0f 1418 f9e0 42c3 0728 f910 f50a 1403
00000060: 08ce 11d5 201e f5e2 0300 f910 f439 08fd
00000070: dc7f e8e4 f118 d8f8 7702 02f5 e3f7 05da
00000080: f6fe 060e faff f306 0aec ee02 0318 e7d6
00000090: ffa5 f905 03f9 f4ff f5fa 1817 0ff6 2efb
000000a0: f3e6 0415 f014 e906 0433 000a f5fe 7fff
000000b0: 0f05 fbff e8eb f705 f807 f71e f904 ff20
000000c0: 9c01 f7f8 01d7 040c 29d2 16eb d601 f1f1
000000d0: 0303 011f 0fe3 0e07 fb35 0a6f 00fc f9dd
000000e0: fa81 e607 08fd 08fb d1fd ef12 cef9 04fe
000000f0: ee1c 1002 d409 fd2d 0efc 0607 f1d5 ff1e
-42 -16 -39 5 -4 -25 3 -1
-108 127 -45 106 91 7 64 -23
3 -31 13 8 -11 -11 -25 -22
16 -81 13 51 -15 17 8 -41
-1 -75 111 17 7 -7 -5 -21
101 1 41 -30 -21 10 -25 -20
7 40 127 3 -3 -17 0 -73
31 0 20 9 -18 10 -2 -121
8 -58 3 9 -25 44 24 -38
-14 -16 17 -5 6 -11 11 1
-6 15 20 24 -7 -32 66 -61
7 40 -7 16 -11 10 20 3
8 -50 17 -43 32 30 -11 -30
3 0 -7 16 -12 57 8 -3
-36 127 -24 -28 -15 24 -40 -8
119 2 2 -11 -29 -9 5 -38
-10 -2 6 14 -6 -1 -13 6
10 -20 -18 2 3 24 -25 -42
-1 -91 -7 5 3 -7 -12 -1
-11 -6 24 23 15 -10 46 -5
-13 -26 4 21 -16 20 -23 6
4 51 0 10 -11 -2 127 -1
15 5 -5 -1 -24 -21 -9 5
-8 7 -9 30 -7 4 -1 32
-100 1 -9 -8 1 -41 4 12
41 -46 22 -21 -42 1 -15 -15
3 3 1 31 15 -29 14 7
-5 53 10 111 0 -4 -7 -35
-6 -127 -26 7 8 -3 8 -5
-47 -3 -17 18 -50 -7 4 -2
-18 28 16 2 -44 9 -3 45
14 -4 6 7 -15 -43 -1 30

model_1/block_3_expand/Conv2D i1 [48, 1, 1, 8]
00000000: 8102 fc46 da2a 16e9 264f 4802 fae3 6e7f
00000010: e7ff 03f4 81f4 09f5 5efa ec81 8e10 1dec
00000020: 8131 f7f7 5af2 2816 98e3 16f3 810c 0554
00000030: e981 20e9 11ff f322 c3fa 1263 7fe4 e10e
00000040: 3a01 0581 09f7 d4df f481 fd0a 0450 c856
00000050: 9dfd ff23 8152 33f4 7010 2705 c8d5 dd81
00000060: fc0e 2bf1 09b9 7f3c 40eb f9fb 6c7f 67da
00000070: 7636 030a 81ec daef f181 0ef6 0406 f518
00000080: cfee fefc 81fd 0f03 e359 89fd 0481 55a8
00000090: 7fe6 d00c c91e 0b60 7fd6 faf3 3209 25fb
000000a0: 741d fb7f 0124 02bd 0b31 d008 e556 819b
000000b0: 8106 1cfc d904 c8ec d9c7 fa1c 813b 4eef
000000c0: 7f06 fffc 96f4 fd0f 14f2 feea 7f2e 31e2
000000d0: 03a5 fddf 0c81 57d6 ee81 17f3 ffca 1df7
000000e0: 8d31 da06 e6d4 7f5f f630 1004 f72f 8f81
000000f0: 7fea fc06 a8f8 ede7 eed6 59f1 1081 7860
-127 2 -4 70 -38 42 22 -23
38 79 72 2 -6 -29 110 127
-25 -1 3 -12 -127 -12 9 -11
94 -6 -20 -127 -114 16 29 -20
-127 49 -9 -9 90 -14 40 22
-104 -29 22 -13 -127 12 5 84
-23 -127 32 -23 17 -1 -13 34
-61 -6 18 99 127 -28 -31 14
58 1 5 -127 9 -9 -44 -33
-12 -127 -3 10 4 80 -56 86
-99 -3 -1 35 -127 82 51 -12
112 16 39 5 -56 -43 -35 -127
-4 14 43 -15 9 -71 127 60
64 -21 -7 -5 108 127 103 -38
118 54 3 10 -127 -20 -38 -17
-15 -127 14 -10 4 6 -11 24
-49 -18 -2 -4 -127 -3 15 3
-29 89 -119 -3 4 -127 85 -88
127 -26 -48 12 -55 30 11 96
127 -42 -6 -13 50 9 37 -5
116 29 -5 127 1 36 2 -67
11 49 -48 8 -27 86 -127 -101
-127 6 28 -4 -39 4 -56 -20
-39 -57 -6 28 -127 59 78 -17
127 6 -1 -4 -106 -12 -3 15
20 -14 -2 -22 127 46 49 -30
3 -91 -3 -33 12 -127 87 -42
-18 -127 23 -13 -1 -54 29 -9
-115 49 -38 6 -26 -44 127 95
-10 48 16 4 -9 47 -113 -127
127 -22 -4 6 -88 -8 -19 -25
-18 -42 89 -15 16 -127 120 96

model_1/block_3_depthwise_BN/FusedBatchNormV3;model_1/block_3_depthwise/depthwise i1 [1, 3, 3, 48]
00000000: 43a1 6246 36dd 6abf 3da8 ae2f 35d5 b9a7
00000010: 664f 314d 44b7 ab32 dfd7 c2c1 be3e c18f
00000020: f22b 4540 be34 cfe8 33b7 393e a30c 4cdc
00000030: 509e 7f55 b3bc c9ab 629d bf49 5196 a15d
00000040: da60 527f 578f 3647 ccb3 beb0 3950 e181
00000050: a850 5153 ac51 aeee 4ca2 5258 b681 5e9d
00000060: 22d1 4727 12d7 d1d8 2be0 0323 20b2 c9ff
00000070: c627 2246 21ca 1f19 e4d1 d7e8 201e 59a5
00000080: aa2e 2422 e226 dbf4 28d7 222a fbf6 23b8
00000090: 5d90 d95f 39ad 7fa7 5a91 b653 5393 f381
000000a0: 7f6d 4ada 546b 8148 4ab5 a39c 8158 b9f7
000000b0: aa47 6a60 aa4f af58 539b 5759 a66b 5ea4
000000c0: 7f81 bf7f 8181 a681 7f81 817f 7f81 eb62
000000d0: bf7f 7fce 7f7f 467f 7f81 8181 357f e411
000000e0: 817f 7f7f 817f 817f 7f81 7f7f 81f5 7f81
000000f0: 3eb4 df45 26c2 d0c0 39d6 c23a 31cb f00b
67 -95 98 70 54 -35 106 -65
61 -88 -82 47 53 -43 -71 -89
102 79 49 77 68 -73 -85 50
-33 -41 -62 -63 -66 62 -63 -113
-14 43 69 64 -66 52 -49 -24
51 -73 57 62 -93 12 76 -36
80 -98 127 85 -77 -68 -55 -85
98 -99 -65 73 81 -106 -95 93
-38 96 82 127 87 -113 54 71
-52 -77 -66 -80 57 80 -31 -127
-88 80 81 83 -84 81 -82 -18
76 -94 82 88 -74 -127 94 -99
34 -47 71 39 18 -41 -47 -40
43 -32 3 35 32 -78 -55 -1
-58 39 34 70 33 -54 31 25
-28 -47 -41 -24 32 30 89 -91
-86 46 36 34 -30 38 -37 -12
40 -41 34 42 -5 -10 35 -72
93 -112 -39 95 57 -83 127 -89
90 -111 -74 83 83 -109 -13 -127
127 109 74 -38 84 107 -127 72
74 -75 -93 -100 -127 88 -71 -9
-86 71 106 96 -86 79 -81 88
83 -101 87 89 -90 107 94 -92
127 -127 -65 127 -127 -127 -90 -127
127 -127 -127 127 127 -127 -21 98
-65 127 127 -50 127 127 70 127
127 -127 -127 -127 53 127 -28 17
-127 127 127 127 -127 127 -127 127
127 -127 127 127 -127 -11 127 -127
62 -76 -33 69 38 -62 -48 -64
57 -42 -62 58 49 -53 -16 11

model_1/block_3_project/Conv2D i1 [16, 1, 1, 48]
00000000: f6fd e502 15fd 0163 c112 26f7 14f2 f115
00000010: 10fc f4fc 4001 137f ec53 f7f1 17ec 16dc
00000020: ee30 11da 122e 0df4 98e2 122a 250e 89c5
00000030: e2fe 1109 e10a fe3a c7e0 06d6 e5f4 02fe
00000040: e072 f113 040a e9f6 1cdc 0b16 e3b2 d517
00000050: f0fb 2201 ffda 0a12 efe3 7f05 0ef8 0ff3
00000060: eaf6 f5d9 fac0 01ee 000e 0c14 1107 f401
00000070: faeb e4ee f7fe 0181 f047 f506 ffef 01fc
00000080: fb2f 0afa 130c 1afe d707 ecf9 fcf9 0e0b
00000090: fa21 02e2 0000 07fd effe fb28 8108 f4ff
000000a0: 0108 ee00 e501 0811 f4f7 0019 fb14 0517
000000b0: 0100 0f17 f71a 2808 0b05 18e2 0800 030f
000000c0: 1ce0 080a 141d 15ef e604 f4f2 ff10 fd0e
000000d0: 13f3 b20a fa06 0f44 fde6 022f 06ba 1806
000000e0: 0ddf 1f81 0923 050c eb17 04e6 f2f0 0b08
000000f0: 1fff e83d 00f9 091b 06fe 3009 0537 01fe
-10 -3 -27 2 21 -3 1 99
-63 18 38 -9 20 -14 -15 21
16 -4 -12 -4 64 1 19 127
-20 83 -9 -15 23 -20 22 -36
-18 48 17 -38 18 46 13 -12
-104 -30 18 42 37 14 -119 -59
-30 -2 17 9 -31 10 -2 58
-57 -32 6 -42 -27 -12 2 -2
-32 114 -15 19 4 10 -23 -10
28 -36 11 22 -29 -78 -43 23
-16 -5 34 1 -1 -38 10 18
-17 -29 127 5 14 -8 15 -13
-22 -10 -11 -39 -6 -64 1 -18
0 14 12 20 17 7 -12 1
-6 -21 -28 -18 -9 -2 1 -127
-16 71 -11 6 -1 -17 1 -4
-5 47 10 -6 19 12 26 -2
-41 7 -20 -7 -4 -7 14 11
-6 33 2 -30 0 0 7 -3
-17 -2 -5 40 -127 8 -12 -1
1 8 -18 0 -27 1 8 17
-12 -9 0 25 -5 20 5 23
1 0 15 23 -9 26 40 8
11 5 24 -30 8 0 3 15
28 -32 8 10 20 29 21 -17
-26 4 -12 -14 -1 16 -3 14
19 -13 -78 10 -6 6 15 68
-3 -26 2 47 6 -70 24 6
13 -33 31 -127 9 35 5 12
-21 23 4 -26 -14 -16 11 8
31 -1 -24 61 0 -7 9 27
6 -2 48 9 5 55 1 -2

model_1/block_4_expand/Conv2D i1 [96, 1, 1, 16]
00000000: 12d7 5e7f 56f4 24d6 5ffd c8bb 253b faa9
00000010: 162f 0d10 4d02 0a1d 3538 f07f f7f2 41c0
00000020: 06dc f5e3 aa33 da67 bf81 1547 e3af 48a6
00000030: 7f78 ff14 8dec c5f1 eff5 6ab8 d458 e2e4
00000040: eff4 2114 eb37 f23a bfe4 f30c 1881 1d1c
00000050: 59b9 e108 f6a1 e403 e102 81f8 24f3 0224
00000060: 82cd f77f d3fc cb15 81a6 9ce1 1332 0155
00000070: f408 cd31 2281 e623 0be2 13f4 f117 d401
00000080: 20d3 f1fe 080f b8b1 ed11 aa05 8103 010f
00000090: 19d8 317d f831 e6b2 7f93 10fa f34b 931b
000000a0: c3c0 eecf 7f4a 0c3a 5fae d411 6a95 b558
000000b0: 30f4 8111 2604 e310 dde1 f7ef 0118 df07
000000c0: 61e3 00f9 f7d0 c9d6 27f0 81e0 d8e1 013a
000000d0: 0dd3 15b7 3804 a881 f8cd 26fc 05c2 0505
000000e0: be1e 90de 4381 2fc2 2e24 ec8b 1e6b 120f
000000f0: 32e4 482c 2dba d2f8 13b9 ba02 81c2 f235
18 -41 94 127 86 -12 36 -42
95 -3 -56 -69 37 59 -6 -87
22 47 13 16 77 2 10 29
53 56 -16 127 -9 -14 65 -64
6 -36 -11 -29 -86 51 -38 103
-65 -127 21 71 -29 -81 72 -90
127 120 -1 20 -115 -20 -59 -15
-17 -11 106 -72 -44 88 -30 -28
-17 -12 33 20 -21 55 -14 58
-65 -28 -13 12 24 -127 29 28
89 -71 -31 8 -10 -95 -28 3
-31 2 -127 -8 36 -13 2 36
-126 -51 -9 127 -45 -4 -53 21
-127 -90 -100 -31 19 50 1 85
-12 8 -51 49 34 -127 -26 35
11 -30 19 -12 -15 23 -44 1
32 -45 -15 -2 8 15 -72 -79
-19 17 -86 5 -127 3 1 15
25 -40 49 125 -8 49 -26 -78
127 -109 16 -6 -13 75 -109 27
-61 -64 -18 -49 127 74 12 58
95 -82 -44 17 106 -107 -75 88
48 -12 -127 17 38 4 -29 16
-35 -31 -9 -17 1 24 -33 7
97 -29 0 -7 -9 -48 -55 -42
39 -16 -127 -32 -40 -31 1 58
13 -45 21 -73 56 4 -88 -127
-8 -51 38 -4 5 -62 5 5
-66 30 -112 -34 67 -127 47 -62
46 36 -20 -117 30 107 18 15
50 -28 72 44 45 -70 -46 -8
19 -71 -70 2 -127 -62 -14 53

model_1/block_4_depthwise_BN/FusedBatchNormV3;model_1/block_4_depthwise/depthwise;model_1/block_6_expand/Conv2D i1 [1, 3, 3, 96]
00000000: ef06 ec6b f115 c4cb 11fa 61f9 03f7 fe36
00000010: 0411 df05 4b01 1fdf 0212 2b32 140d 1733
00000020: f71c 06f1 0430 c7e5 1508 1b10 acc9 19fc
00000030: f6ed fafa 3206 f802 fede 1ce1 1cfb 7f1b
00000040: f2f5 0acd 4424 00fa 4edf 4303 1181 1e3f
00000050: 0210 7ff2 271c e6ed 24f9 f152 0015 fe0c
00000060: cf0b f80b 34f8 f781 270d 81fb f0f3 0660
00000070: 10e1 f6f1 4d9d 7f19 c3e0 96f1 1b24 cf13
00000080: 760c f5fe e77f c181 0aee e40f 3081 7fd5
00000090: b434 3207 28c2 2037 262a 9a53 7f22 02ec
000000a0: 2bda 9e01 26e2 ef31 d4d1 69fb e2c8 e03b
000000b0: c03f ed09 f52f 39d7 e534 f348 81e3 1981
000000c0: 00fc e9b6 0616 2713 fcfe 053f 00f3 f605
000000d0: f110 f411 0918 19e0 01e0 0a0c fb04 2eb2
000000e0: 2911 0aea 0b05 e0ea 0802 f109 19e2 1402
000000f0: 08fa 07fa 0406 fa08 f92d 07ff 0bec 02ef
-17 6 -20 107 -15 21 -60 -53
17 -6 97 -7 3 -9 -2 54
4 17 -33 5 75 1 31 -33
2 18 43 50 20 13 23 51
-9 28 6 -15 4 48 -57 -27
21 8 27 16 -84 -55 25 -4
-10 -19 -6 -6 50 6 -8 2
-2 -34 28 -31 28 -5 127 27
-14 -11 10 -51 68 36 0 -6
78 -33 67 3 17 -127 30 63
2 16 127 -14 39 28 -26 -19
36 -7 -15 82 0 21 -2 12
-49 11 -8 11 52 -8 -9 -127
39 13 -127 -5 -16 -13 6 96
16 -31 -10 -15 77 -99 127 25
-61 -32 -106 -15 27 36 -49 19
118 12 -11 -2 -25 127 -63 -127
10 -18 -28 15 48 -127 127 -43
-76 52 50 7 40 -62 32 55
38 42 -102 83 127 34 2 -20
43 -38 -98 1 38 -30 -17 49
-44 -47 105 -5 -30 -56 -32 59
-64 63 -19 9 -11 47 57 -41
-27 52 -13 72 -127 -29 25 -127
0 -4 -23 -74 6 22 39 19
-4 -2 5 63 0 -13 -10 5
-15 16 -12 17 9 24 25 -32
1 -32 10 12 -5 4 46 -78
41 17 10 -22 11 5 -32 -22
8 2 -15 9 25 -30 20 2
8 -6 7 -6 4 6 -6 8
-7 45 7 -1 11 -20 2 -17

model_1/block_4_project/Conv2D i1 [16, 1, 1, 96]
00000000: f413 f821 2f4d e9ec 2d0c 07ff f605 154a
00000010: 0afc f407 60cd 02f5 ecda d8a7 00fe 2c2d
00000020: 76f7 03fb 08f6 e5f5 e5fc 1ce5 06e2 fb23
00000030: e913 00f9 db00 03f9 2a1d f2d9 c41b ecf7
00000040: 020c 3603 1403 ffe2 c1ef ec00 f3a1 09fb
00000050: 31f6 cecd 0ff3 020f f7fa 0ce3 201e f57f
00000060: 3995 3051 faaa 02c6 dfaa f509 11ae dec0
00000070: 940a 1720 de8a e123 7fd1 c51f e95f fc42
00000080: 1afc c90e ede7 46e5 efb2 51e8 c2fd 2efa
00000090: 210b 13c5 4faa 29e1 0106 dca4 24cd 09cd
000000a0: e6a1 323a 2a30 d712 8119 f036 1350 130a
000000b0: 1e0b b82c a23c f443 d11e 0c0e f6cd 1eec
000000c0: 17fd 0df1 0dfe f737 3cf7 0541 fbff 2d06
000000d0: eff1 1806 ebd1 fdbf fdf0 ea19 e30e 76c8
000000e0: 18b9 e732 137f c5e0 07e8 ff19 dbd5 bb0e
000000f0: 1213 dee7 04f7 feda eb03 fe17 030f 4760
-12 19 -8 33 47 77 -23 -20
45 12 7 -1 -10 5 21 74
10 -4 -12 7 96 -51 2 -11
-20 -38 -40 -89 0 -2 44 45
118 -9 3 -5 8 -10 -27 -11
-27 -4 28 -27 6 -30 -5 35
-23 19 0 -7 -37 0 3 -7
42 29 -14 -39 -60 27 -20 -9
2 12 54 3 20 3 -1 -30
-63 -17 -20 0 -13 -95 9 -5
49 -10 -50 -51 15 -13 2 15
-9 -6 12 -29 32 30 -11 127
57 -107 48 81 -6 -86 2 -58
-33 -86 -11 9 17 -82 -34 -64
-108 10 23 32 -34 -118 -31 35
127 -47 -59 31 -23 95 -4 66
26 -4 -55 14 -19 -25 70 -27
-17 -78 81 -24 -62 -3 46 -6
33 11 19 -59 79 -86 41 -31
1 6 -36 -92 36 -51 9 -51
-26 -95 50 58 42 48 -41 18
-127 25 -16 54 19 80 19 10
30 11 -72 44 -94 60 -12 67
-47 30 12 14 -10 -51 30 -20
23 -3 13 -15 13 -2 -9 55
60 -9 5 65 -5 -1 45 6
-17 -15 24 6 -21 -47 -3 -65
-3 -16 -22 25 -29 14 118 -56
24 -71 -25 50 19 127 -59 -32
7 -24 -1 25 -37 -43 -69 14
18 19 -34 -25 4 -9 -2 -38
-21 3 -2 23 3 15 71 96

model_1/block_5_expand/Conv2D i1 [96, 1, 1, 16]
00000000: f43e e17b f856 00f3 3322 b063 1a81 2187
00000010: 0924 08f2 1fec 7f9b 0148 f9e0 04cd 1b0f
00000020: 9228 db16 0bf5 327f 0545 6e0f c424 0cca
00000030: be49 2a2b cc0f 317f 122e 9d2e 20c8 bdc7
00000040: 0afd 293a d467 fe47 19db 121c 0e08 81ce
00000050: ece7 4703 19c8 ee16 b368 e081 ed26 c1d7
00000060: 04fc 2202 2647 b8bf fe01 31fb 7fed fecd
00000070: 2216 7fe2 e0ca fb02 9c12 b7d0 14f1 23f7
00000080: 0815 3c15 e844 0a3f 14fd 0ea8 e4f2 81c7
00000090: 1281 522f 0d04 f615 5ef7 58f4 d418 99d7
000000a0: e4a0 fde2 810f f255 4c7b 20d3 d160 5ef0
000000b0: 2af2 06a6 02e2 9281 d522 0ef3 15f5 36c0
000000c0: fe0f fdd7 ee03 81ff bd9c 011b 397a 6c20
000000d0: e8be c424 fcc9 08e3 3a2c 120d 0a1a 7f2a
000000e0: f0bb 2526 0c36 ff7f 132e 1aeb 1a27 bf6d
000000f0: 03ec f333 1003 5b01 0281 15e0 05e8 fdda
-12 62 -31 123 -8 86 0 -13
51 34 -80 99 26 -127 33 -121
9 36 8 -14 31 -20 127 -101
1 72 -7 -32 4 -51 27 15
-110 40 -37 22 11 -11 50 127
5 69 110 15 -60 36 12 -54
-66 73 42 43 -52 15 49 127
18 46 -99 46 32 -56 -67 -57
10 -3 41 58 -44 103 -2 71
25 -37 18 28 14 8 -127 -50
-20 -25 71 3 25 -56 -18 22
-77 104 -32 -127 -19 38 -63 -41
4 -4 34 2 38 71 -72 -65
-2 1 49 -5 127 -19 -2 -51
34 22 127 -30 -32 -54 -5 2
-100 18 -73 -48 20 -15 35 -9
8 21 60 21 -24 68 10 63
20 -3 14 -88 -28 -14 -127 -57
18 -127 82 47 13 4 -10 21
94 -9 88 -12 -44 24 -103 -41
-28 -96 -3 -30 -127 15 -14 85
76 123 32 -45 -47 96 94 -16
42 -14 6 -90 2 -30 -110 -127
-43 34 14 -13 21 -11 54 -64
-2 15 -3 -41 -18 3 -127 -1
-67 -100 1 27 57 122 108 32
-24 -66 -60 36 -4 -55 8 -29
58 44 18 13 10 26 127 42
-16 -69 37 38 12 54 -1 127
19 46 26 -21 26 39 -65 109
3 -20 -13 51 16 3 91 1
2 -127 21 -32 5 -24 -3 -38

model_1/block_5_depthwise_BN/FusedBatchNormV3;model_1/block_5_depthwise/depthwise;model_1/block_6_expand/Conv2D i1 [1, 3, 3, 96]
00000000: ceb9 f57f 164b 51c7 f0ee f1fb e203 2501
00000010: f9d5 1b15 1281 7f08 ad0c 33e3 8581 2618
00000020: 0b1f 3cee e4f4 1ffa f11b 9349 18bb 262e
00000030: ee32 e813 03fa 0e30 a8cf bfee f400 0a26
00000040: 44e6 480c f813 137f 1916 1afd f612 7ffc
00000050: f00d e513 7e16 b6f0 ffe0 f0d6 01e5 f018
00000060: 7f81 4d68 d67f 268d 4203 ef7f 7f9d f20e
00000070: 0a7f 7f8f 7fb4 5043 818b c0de ca2f c3eb
00000080: a533 81ac d6ef ca40 ff7f 7f53 cc8d 8fcd
00000090: f181 2a52 43e0 2a52 d32b ab90 d3d9 c243
000000a0: 48c1 1b1e af20 ee5c 767f 0d17 033b df34
000000b0: 407f 7fea f94a 947f 8c9e 0481 a681 d967
000000c0: b4f3 20af 0ee8 43f9 4ddf e512 ecfa f8f4
000000d0: f9f1 08fa ec9a 1f00 876a 07ca 7632 f008
000000e0: 000d 0de3 f920 140f 1a0c 8842 12ee 240d
000000f0: f10a ef04 f501 fc14 bc06 d934 012a 2300
-50 -71 -11 127 22 75 81 -57
-16 -18 -15 -5 -30 3 37 1
-7 -43 27 21 18 -127 127 8
-83 12 51 -29 -123 -127 38 24
11 31 60 -18 -28 -12 31 -6
-15 27 -109 73 24 -69 38 46
-18 50 -24 19 3 -6 14 48
-88 -49 -65 -18 -12 0 10 38
68 -26 72 12 -8 19 19 127
25 22 26 -3 -10 18 127 -4
-16 13 -27 19 126 22 -74 -16
-1 -32 -16 -42 1 -27 -16 24
127 -127 77 104 -42 127 38 -115
66 3 -17 127 127 -99 -14 14
10 127 127 -113 127 -76 80 67
-127 -117 -64 -34 -54 47 -61 -21
-91 51 -127 -84 -42 -17 -54 64
-1 127 127 83 -52 -115 -113 -51
-15 -127 42 82 67 -32 42 82
-45 43 -85 -112 -45 -39 -62 67
72 -63 27 30 -81 32 -18 92
118 127 13 23 3 59 -33 52
64 127 127 -22 -7 74 -108 127
-116 -98 4 -127 -90 -127 -39 103
-76 -13 32 -81 14 -24 67 -7
77 -33 -27 18 -20 -6 -8 -12
-7 -15 8 -6 -20 -102 31 0
-121 106 7 -54 118 50 -16 8
0 13 13 -29 -7 32 20 15
26 12 -120 66 18 -18 36 13
-15 10 -17 4 -11 1 -4 20
-68 6 -39 52 1 42 35 0

model_1/block_5_project/Conv2D i1 [16, 1, 1, 96]
00000000: ebf4 ffe6 12f6 d9fb 1607 f605 f7fa ef07
00000010: 0009 00fb 0ddf 04fe 070b 017f 25dc 2cf4
00000020: fb05 03fe f110 d302 f70b 0223 010a 1103
00000030: 1a05 f80a 07e9 f551 f906 e3d8 fc1b fee4
00000040: d4bf ee2d 0704 13ef f7de 00eb e315 ff09
00000050: fae8 1c16 00f7 f3a2 06f1 06fb 30db e0f6
00000060: 23be b7ca 7ffa 4b15 e9aa c9ee 0cfc c92e
00000070: c20c 3234 0b22 f2d5 0af6 ecc8 2af4 ba24
00000080: e734 f3f6 0cf4 1e20 e51f dee2 da59 fafc
00000090: 14ab 04dc ee2b 3415 bbe6 e2de 0bfa f5e1
000000a0: bd5c ece2 f8f2 f011 3291 e1fe 1fcc 1d02
000000b0: 06ef 1cfa d017 f022 2ada 0205 320e 1b74
000000c0: fb38 a5e7 4252 1344 0281 e2f5 0bf6 1915
000000d0: 10ed e543 1eea 6622 262f fcb7 21f1 3fb4
000000e0: 1526 e828 87b0 1f3b fcc0 fdee fce7 0e57
000000f0: d223 dbf6 6ced f63d 191e 23f8 0323 2be7
-21 -12 -1 -26 18 -10 -39 -5
22 7 -10 5 -9 -6 -17 7
0 9 0 -5 13 -33 4 -2
7 11 1 127 37 -36 44 -12
-5 5 3 -2 -15 16 -45 2
-9 11 2 35 1 10 17 3
26 5 -8 10 7 -23 -11 81
-7 6 -29 -40 -4 27 -2 -28
-44 -65 -18 45 7 4 19 -17
-9 -34 0 -21 -29 21 -1 9
-6 -24 28 22 0 -9 -13 -94
6 -15 6 -5 48 -37 -32 -10
35 -66 -73 -54 127 -6 75 21
-23 -86 -55 -18 12 -4 -55 46
-62 12 50 52 11 34 -14 -43
10 -10 -20 -56 42 -12 -70 36
-25 52 -13 -10 12 -12 30 32
-27 31 -34 -30 -38 89 -6 -4
20 -85 4 -36 -18 43 52 21
-69 -26 -30 -34 11 -6 -11 -31
-67 92 -20 -30 -8 -14 -16 17
50 -111 -31 -2 31 -52 29 2
6 -17 28 -6 -48 23 -16 34
42 -38 2 5 50 14 27 116
-5 56 -91 -25 66 82 19 68
2 -127 -30 -11 11 -10 25 21
16 -19 -27 67 30 -22 102 34
38 47 -4 -73 33 -15 63 -76
21 38 -24 40 -121 -80 31 59
-4 -64 -3 -18 -4 -25 14 87
-46 35 -37 -10 108 -19 -10 61
25 30 35 -8 3 35 43 -25

model_1/block_6_expand/Conv2D i1 [96, 1, 1, 16]
00000000: d752 f581 c6e3 d5a8 f209 0b63 18c3 fe39
00000010: e321 cdf3 e7d6 29a4 3544 b809 07ff 2481
00000020: f80f c82b 1722 d0d0 7fbe 0d2a fd55 c90e
00000030: 39b2 148a 06e3 ebec 70f1 5a40 f029 1c7f
00000040: b434 1a2a 14ee 062c 0813 16e5 81f4 ec1a
00000050: 1b39 7fff 1548 b34d c253 e1d8 34d6 8426
00000060: 19b1 7381 1f0c cb6b b987 46e7 fb6b f350
00000070: 2d7c f0ac 6c04 04c3 7f6f d909 1edb 3a36
00000080: 0fb5 12a7 1ec6 0dbd 0f44 42e9 127f 5240
00000090: 06df f77f 2800 31c7 ce61 21f5 f9ce f0f1
000000a0: f713 cc81 0808 f425 2cd4 1aeb eadb fe21
000000b0: 0610 27e2 55db 5cc2 9f2b fc19 007f bce7
000000c0: 6cf7 8ce4 33c5 1e16 0943 abc4 d87f f43b
000000d0: f309 ea05 0781 fd0d 02fa 04fa 0df3 060e
000000e0: 26d1 6cd6 4705 819b f4c0 2924 0ac1 e5df
000000f0: bc16 ebdf fe05 7f3d e219 45f6 183f 3201
-41 82 -11 -127 -58 -29 -43 -88
-14 9 11 99 24 -61 -2 57
-29 33 -51 -13 -25 -42 41 -92
53 68 -72 9 7 -1 36 -127
-8 15 -56 43 23 34 -48 -48
127 -66 13 42 -3 85 -55 14
57 -78 20 -118 6 -29 -21 -20
112 -15 90 64 -16 41 28 127
-76 52 26 42 20 -18 6 44
8 19 22 -27 -127 -12 -20 26
27 57 127 -1 21 72 -77 77
-62 83 -31 -40 52 -42 -124 38
25 -79 115 -127 31 12 -53 107
-71 -121 70 -25 -5 107 -13 80
45 124 -16 -84 108 4 4 -61
127 111 -39 9 30 -37 58 54
15 -75 18 -89 30 -58 13 -67
15 68 66 -23 18 127 82 64
6 -33 -9 127 40 0 49 -57
-50 97 33 -11 -7 -50 -16 -15
-9 19 -52 -127 8 8 -12 37
44 -44 26 -21 -22 -37 -2 33
6 16 39 -30 85 -37 92 -62
-97 43 -4 25 0 127 -68 -25
108 -9 -116 -28 51 -59 30 22
9 67 -85 -60 -40 127 -12 59
-13 9 -22 5 7 -127 -3 13
2 -6 4 -6 13 -13 6 14
38 -47 108 -42 71 5 -127 -101
-12 -64 41 36 10 -63 -27 -33
-68 22 -21 -33 -2 5 127 61
-30 25 69 -10 24 63 50 1

model_1/head/Conv2D i1 [32, 1, 1, 96]
00000000: 0830 17a7 b30a f839 e5d3 8cab 9165 c53a
00000010: 204f 06fc d49a d514 5193 fb61 33aa 3bf9
00000020: ac4a 1cbb e203 9ae8 99ce 5db7 38e7 a65d
00000030: 9657 a810 e343 fc29 b8a5 f11c ea4f 1e81
00000040: 3d8d 9927 28a7 f368 c416 cd64 cbc3 dde4
00000050: 912c 3714 cfba c5c9 141f 1b33 a09f c625
00000060: 3afa 3f1e 0cb6 fa69 1532 ac3c 8192 11ae
00000070: c4d7 06e0 5d4c a5b3 15ed dab9 5428 e2b9
00000080: 98a2 9ea9 1fb7 c806 fe64 ef18 1cfa d11f
00000090: 0992 f1d3 f386 c792 2721 4e03 30ab d5d1
000000a0: 72ec f74f 464d 2c6b f60b 2e1b 40b3 6fe2
000000b0: ab5e b647 190d 8c1a c5bb 36d9 d30f 1d02
000000c0: ffba a881 d805 42fc 12cb bbc8 3147 b58a
000000d0: 9b1f d11b 9fc7 1813 b33d d0cd e2da a91c
000000e0: 36b8 2d00 ad10 af3f 35da 6b47 bde9 2d15
000000f0: ecbb 1254 a3b1 fdac cc12 546b 5e4e bc66
8 48 23 -89 -77 10 -8 57
-27 -45 -116 -85 -111 101 -59 58
32 79 6 -4 -44 -102 -43 20
81 -109 -5 97 51 -86 59 -7
-84 74 28 -69 -30 3 -102 -24
-103 -50 93 -73 56 -25 -90 93
-106 87 -88 16 -29 67 -4 41
-72 -91 -15 28 -22 79 30 -127
61 -115 -103 39 40 -89 -13 104
-60 22 -51 100 -53 -61 -35 -28
-111 44 55 20 -49 -70 -59 -55
20 31 27 51 -96 -97 -58 37
58 -6 63 30 12 -74 -6 105
21 50 -84 60 -127 -110 17 -82
-60 -41 6 -32 93 76 -91 -77
21 -19 -38 -71 84 40 -30 -71
-104 -94 -98 -87 31 -73 -56 6
-2 100 -17 24 28 -6 -47 31
9 -110 -15 -45 -13 -122 -57 -110
39 33 78 3 48 -85 -43 -47
114 -20 -9 79 70 77 44 107
-10 11 46 27 64 -77 111 -30
-85 94 -74 71 25 13 -116 26
-59 -69 54 -39 -45 15 29 2
-1 -70 -88 -127 -40 5 66 -4
18 -53 -69 -56 49 71 -75 -118
-101 31 -47 27 -97 -57 24 19
-77 61 -48 -51 -30 -38 -87 28
54 -72 45 0 -83 16 -81 63
53 -38 107 71 -67 -23 45 21
-20 -69 18 84 -93 -79 -3 -84
-52 18 84 107 94 78 -68 102

model_1/logits/Conv2D i1 [2, 1, 1, 32]
00000000: d902 d8d8 44f9 7ff8 0fba adbd 7ae0 4ef7
00000010: b2fd 2d0a 49e4 55da d26d 09ae bdb7 0514
00000020: 5f7f a3ad 136e f1cb 4c97 a239 9c06 2657
00000030: a36a 6d4f b7fe f02f 6de8 aba1 4357 7d89
-39 2 -40 -40 68 -7 127 -8
15 -70 -83 -67 122 -32 78 -9
-78 -3 45 10 73 -28 85 -38
-46 109 9 -82 -67 -73 5 20
95 127 -93 -83 19 110 -15 -53
76 -105 -94 57 -100 6 38 87
-93 106 109 79 -73 -2 -16 47
109 -24 -85 -95 67 87 125 -119
