quantized_model_113it_from_tf.tflite (tflite, 595768 bytes, 51 tensors)

model/lambda_4/Const i1 [1, 24, 24, 5, 4] scale=0.009443352 zero_point=-29
0	0xd7	-0.113320224
1	0xd7	-0.113320224
2	0xf3	0.15109363
3	0xf3	0.15109363
4	0xd2	-0.16053699
5	0xdb	-0.075546816
6	0xf9	0.20775375
7	0xef	0.113320224
8	0xdb	-0.075546816
9	0xd2	-0.16053699
10	0xef	0.113320224
11	0xf9	0.20775375
12	0xdd	-0.056660112
13	0xcd	-0.20775375
14	0xed	0.094433516
15	0xfd	0.24552715
16	0xd4	-0.14165027
17	0xd4	-0.14165027
18	0xf7	0.18886703
19	0xf7	0.18886703
20	0xdc	-0.066103466
21	0xd7	-0.113320224
22	0xf7	0.18886703
23	0xf3	0.15109363
24	0xd6	-0.122763574
25	0xdb	-0.075546816
26	0xfd	0.24552715
27	0xef	0.113320224
28	0xe0	-0.028330056
29	0xd2	-0.16053699
30	0xf3	0.15109363
31	0xf9	0.20775375
32	0xe2	-0.009443352
33	0xcd	-0.20775375
34	0xf2	0.14165027
35	0xfd	0.24552715
36	0xd8	-0.103876874
37	0xd4	-0.14165027
38	0xfb	0.22664045
39	0xf7	0.18886703
40	0xe0	-0.028330056
41	0xd7	-0.113320224
42	0xfc	0.2360838
43	0xf3	0.15109363
44	0xdb	-0.075546816
45	0xdb	-0.075546816
46	0x01	0.28330055
47	0xef	0.113320224
48	0xe4	0.009443352
49	0xd2	-0.16053699
50	0xf8	0.19831039
51	0xf9	0.20775375
52	0xe6	0.028330056
53	0xcd	-0.20775375
54	0xf6	0.17942369
55	0xfd	0.24552715
56	0xdd	-0.056660112
57	0xd4	-0.14165027
58	0x00	0.2738572
59	0xf7	0.18886703
60	0xe5	0.018886704
61	0xd7	-0.113320224
62	0x00	0.2738572
63	0xf3	0.15109363
64	0xdf	-0.037773408
65	0xdb	-0.075546816
66	0x06	0.33051732
67	0xef	0.113320224
68	0xe9	0.056660112
69	0xd2	-0.16053699
70	0xfc	0.2360838
71	0xf9	0.20775375
72	0xea	0.066103466
73	0xcd	-0.20775375
74	0xfa	0.21719709
75	0xfd	0.24552715
76	0xe1	-0.018886704
77	0xd4	-0.14165027
78	0x04	0.3116306
79	0xf7	0.18886703
80	0xe9	0.056660112
81	0xd7	-0.113320224
82	0x05	0.32107398
83	0xf3	0.15109363
84	0xe3	0.0
85	0xdb	-0.075546816
86	0x0a	0.36829072
87	0xef	0.113320224
88	0xed	0.094433516
89	0xd2	-0.16053699
90	0x01	0.28330055
91	0xf9	0.20775375
92	0xef	0.113320224
93	0xcd	-0.20775375
94	0xff	0.26441386
95	0xfd	0.24552715
96	0xe5	0.018886704
97	0xd4	-0.14165027
98	0x08	0.34940404
99	0xf7	0.18886703
100	0xee	0.103876874
101	0xd7	-0.113320224
102	0x09	0.35884738
103	0xf3	0.15109363
104	0xe8	0.047216758
105	0xdb	-0.075546816
106	0x0f	0.4155075
107	0xef	0.113320224
108	0xf2	0.14165027
109	0xd2	-0.16053699
110	0x05	0.32107398
111	0xf9	0.20775375
112	0xf3	0.15109363
113	0xcd	-0.20775375
114	0x03	0.30218726
115	0xfd	0.24552715
116	0xea	0.066103466
117	0xd4	-0.14165027
118	0x0d	0.39662078
119	0xf7	0.18886703
120	0xf2	0.14165027
121	0xd7	-0.113320224
122	0x0d	0.39662078
123	0xf3	0.15109363
124	0xec	0.084990166
125	0xdb	-0.075546816
126	0x13	0.4532809
127	0xef	0.113320224
128	0xf6	0.17942369
129	0xd2	-0.16053699
130	0x09	0.35884738
131	0xf9	0.20775375
132	0xf8	0.19831039
133	0xcd	-0.20775375
134	0x08	0.34940404
135	0xfd	0.24552715
136	0xee	0.103876874
137	0xd4	-0.14165027
138	0x11	0.43439418
139	0xf7	0.18886703
140	0xf6	0.17942369
141	0xd7	-0.113320224
142	0x12	0.44383755
143	0xf3	0.15109363
144	0xf1	0.13220693
145	0xdb	-0.075546816
146	0x18	0.50049764
147	0xef	0.113320224
148	0xfa	0.21719709
149	0xd2	-0.16053699
150	0x0e	0.40606412
151	0xf9	0.20775375
152	0xfc	0.2360838
153	0xcd	-0.20775375
154	0x0c	0.38717744
155	0xfd	0.24552715
156	0xf3	0.15109363
157	0xd4	-0.14165027
158	0x16	0.48161095
159	0xf7	0.18886703
160	0xfb	0.22664045
161	0xd7	-0.113320224
162	0x16	0.48161095
163	0xf3	0.15109363
164	0xf5	0.16998033
165	0xdb	-0.075546816
166	0x1c	0.53827107
167	0xef	0.113320224
168	0xff	0.26441386
169	0xd2	-0.16053699
170	0x12	0.44383755
171	0xf9	0.20775375
172	0x01	0.28330055
173	0xcd	-0.20775375
174	0x10	0.42495084
175	0xfd	0.24552715
176	0xf7	0.18886703
177	0xd4	-0.14165027
178	0x1a	0.5193844
179	0xf7	0.18886703
180	0xff	0.26441386
181	0xd7	-0.113320224
182	0x1b	0.5288277
183	0xf3	0.15109363
184	0xf9	0.20775375
185	0xdb	-0.075546816
186	0x20	0.5760445
187	0xef	0.113320224
188	0x03	0.30218726
189	0xd2	-0.16053699
190	0x17	0.4910543
191	0xf9	0.20775375
192	0x05	0.32107398
193	0xcd	-0.20775375
194	0x15	0.4721676
195	0xfd	0.24552715
196	0xfb	0.22664045
197	0xd4	-0.14165027
198	0x1e	0.55715775
199	0xf7	0.18886703
200	0x04	0.3116306
201	0xd7	-0.113320224
202	0x1f	0.5666011
203	0xf3	0.15109363
204	0xfe	0.2549705
205	0xdb	-0.075546816
206	0x25	0.6232612
207	0xef	0.113320224
208	0x08	0.34940404
209	0xd2	-0.16053699
210	0x1b	0.5288277
211	0xf9	0.20775375
212	0x09	0.35884738
213	0xcd	-0.20775375
214	0x19	0.509941
215	0xfd	0.24552715
216	0x00	0.2738572
217	0xd4	-0.14165027
218	0x23	0.6043745
219	0xf7	0.18886703
220	0x08	0.34940404
221	0xd7	-0.113320224
222	0x24	0.6138179
223	0xf3	0.15109363
224	0x02	0.29274392
225	0xdb	-0.075546816
226	0x29	0.66103464
227	0xef	0.113320224
228	0x0c	0.38717744
229	0xd2	-0.16053699
230	0x1f	0.5666011
231	0xf9	0.20775375
232	0x0e	0.40606412
233	0xcd	-0.20775375
234	0x1e	0.55715775
235	0xfd	0.24552715
236	0x04	0.3116306
237	0xd4	-0.14165027
238	0x27	0.64214796
239	0xf7	0.18886703
240	0x0c	0.38717744
241	0xd7	-0.113320224
242	0x28	0.6515913
243	0xf3	0.15109363
244	0x07	0.33996066
245	0xdb	-0.075546816
246	0x2e	0.7082514
247	0xef	0.113320224
248	0x10	0.42495084
249	0xd2	-0.16053699
250	0x24	0.6138179
251	0xf9	0.20775375
252	0x12	0.44383755
253	0xcd	-0.20775375
254	0x22	0.5949312
255	0xfd	0.24552715

model/conv2d_16/Conv2D i1 [20, 3, 3, 32]
0	0x2a	42
1	0xe4	-28
2	0x43	67
3	0x1d	29
4	0x05	5
5	0x08	8
6	0x1e	30
7	0x1f	31
8	0xd7	-41
9	0xe2	-30
10	0xfb	-5
11	0x15	21
12	0xe6	-26
13	0x31	49
14	0xc2	-62
15	0x19	25
16	0x22	34
17	0xe7	-25
18	0xfe	-2
19	0x1b	27
20	0x02	2
21	0x12	18
22	0x19	25
23	0x14	20
24	0x07	7
25	0xd4	-44
26	0xdb	-37
27	0x02	2
28	0xe7	-25
29	0xdb	-37
30	0x29	41
31	0xfc	-4
32	0x06	6
33	0xb3	-77
34	0xe6	-26
35	0xed	-19
36	0x15	21
37	0x12	18
38	0x1c	28
39	0xfd	-3
40	0xdb	-37
41	0x06	6
42	0x1b	27
43	0x25	37
44	0x02	2
45	0x25	37
46	0xe4	-28
47	0xfd	-3
48	0x2c	44
49	0x09	9
50	0x14	20
51	0x0e	14
52	0xfe	-2
53	0xed	-19
54	0x0c	12
55	0x0d	13
56	0x24	36
57	0x00	0
58	0x02	2
59	0x16	22
60	0xf7	-9
61	0xe0	-32
62	0xde	-34
63	0xf0	-16
64	0xe5	-27
65	0xdb	-37
66	0x00	0
67	0x09	9
68	0x10	16
69	0x01	1
70	0xfe	-2
71	0x0b	11
72	0x07	7
73	0x25	37
74	0x18	24
75	0x23	35
76	0x10	16
77	0x2b	43
78	0xec	-20
79	0x17	23
80	0x06	6
81	0x18	24
82	0xef	-17
83	0xfb	-5
84	0x16	22
85	0x00	0
86	0xf2	-14
87	0xe2	-30
88	0x19	25
89	0x20	32
90	0x39	57
91	0x01	1
92	0xda	-38
93	0xba	-70
94	0xe7	-25
95	0x03	3
96	0x23	35
97	0xd2	-46
98	0x29	41
99	0x1f	31
100	0xf7	-9
101	0x0c	12
102	0x14	20
103	0x27	39
104	0xde	-34
105	0xe3	-29
106	0xff	-1
107	0x01	1
108	0xe1	-31
109	0x2d	45
110	0xa8	-88
111	0x18	24
112	0x17	23
113	0xe3	-29
114	0x13	19
115	0x55	85
116	0x05	5
117	0x0d	13
118	0x02	2
119	0x08	8
120	0x27	39
121	0xd6	-42
122	0xbb	-69
123	0x15	21
124	0xcd	-51
125	0xcd	-51
126	0x2c	44
127	0xea	-22
128	0x7a	122
129	0xee	-18
130	0xe2	-30
131	0x03	3
132	0xe8	-24
133	0x0e	14
134	0x16	22
135	0x28	40
136	0x1d	29
137	0xdc	-36
138	0xec	-20
139	0x03	3
140	0xf0	-16
141	0x21	33
142	0x12	18
143	0xf6	-10
144	0xf3	-13
145	0xea	-22
146	0x0a	10
147	0x08	8
148	0x09	9
149	0xc2	-62
150	0x21	33
151	0x0e	14
152	0x17	23
153	0x07	7
154	0xe6	-26
155	0x25	37
156	0xf1	-15
157	0xad	-83
158	0x40	64
159	0x1b	27
160	0x34	52
161	0x10	16
162	0x00	0
163	0x2e	46
164	0xe2	-30
165	0x02	2
166	0x00	0
167	0x10	16
168	0x37	55
169	0x11	17
170	0xfb	-5
171	0xfd	-3
172	0xf8	-8
173	0x2c	44
174	0x1f	31
175	0x09	9
176	0xde	-34
177	0xf8	-8
178	0xf1	-15
179	0x12	18
180	0x2a	42
181	0xe8	-24
182	0x00	0
183	0xe7	-25
184	0x11	17
185	0x30	48
186	0x24	36
187	0x0f	15
188	0xd1	-47
189	0x81	-127
190	0x23	35
191	0x23	35
192	0x09	9
193	0xc5	-59
194	0x32	50
195	0x13	19
196	0x00	0
197	0x12	18
198	0x0f	15
199	0x31	49
200	0xe7	-25
201	0xea	-22
202	0x03	3
203	0xfd	-3
204	0xd2	-46
205	0x22	34
206	0xb4	-76
207	0x15	21
208	0x13	19
209	0xe0	-32
210	0x14	20
211	0x52	82
212	0x03	3
213	0x16	22
214	0x07	7
215	0x0a	10
216	0x0f	15
217	0xec	-20
218	0xcd	-51
219	0x1b	27
220	0xc4	-60
221	0xc8	-56
222	0x18	24
223	0xe2	-30
224	0x43	67
225	0xc9	-55
226	0x03	3
227	0xff	-1
228	0xff	-1
229	0x14	20
230	0x32	50
231	0x11	17
232	0x01	1
233	0xe7	-25
234	0xef	-17
235	0x01	1
236	0xfa	-6
237	0x14	20
238	0xed	-19
239	0xf2	-14
240	0xf9	-7
241	0xf5	-11
242	0x16	22
243	0x27	39
244	0xe3	-29
245	0xde	-34
246	0x34	52
247	0x0e	14
248	0xf9	-7
249	0x15	21
250	0xfc	-4
251	0x14	20
252	0xe8	-24
253	0xbc	-68
254	0x09	9
255	0x18	24

model/conv2d_15/Conv2D i1 [10, 3, 3, 32]
0	0x0b	11
1	0xe4	-28
2	0x13	19
3	0x10	16
4	0xe5	-27
5	0xe4	-28
6	0x24	36
7	0xfb	-5
8	0x4e	78
9	0xf9	-7
10	0xe0	-32
11	0x04	4
12	0x17	23
13	0xf7	-9
14	0xe9	-23
15	0xeb	-21
16	0xdd	-35
17	0xcc	-52
18	0x09	9
19	0x1e	30
20	0x00	0
21	0xfd	-3
22	0xf2	-14
23	0xf2	-14
24	0x12	18
25	0x0b	11
26	0x09	9
27	0x05	5
28	0xfe	-2
29	0x08	8
30	0x1d	29
31	0x1b	27
32	0xf9	-7
33	0x16	22
34	0xf8	-8
35	0x1f	31
36	0xe6	-26
37	0xc6	-58
38	0xe3	-29
39	0x35	53
40	0xea	-22
41	0xf2	-14
42	0xd3	-45
43	0x00	0
44	0x03	3
45	0x0e	14
46	0xe5	-27
47	0xe8	-24
48	0x04	4
49	0xfe	-2
50	0xed	-19
51	0x45	69
52	0xf4	-12
53	0x1e	30
54	0x37	55
55	0x03	3
56	0xec	-20
57	0xf3	-13
58	0xdb	-37
59	0xe1	-31
60	0xfb	-5
61	0x18	24
62	0x39	57
63	0x2c	44
64	0x0a	10
65	0xe4	-28
66	0xfa	-6
67	0xf7	-9
68	0xea	-22
69	0xdc	-36
70	0x14	20
71	0xeb	-21
72	0x1d	29
73	0xe0	-32
74	0xd7	-41
75	0x11	17
76	0x29	41
77	0x05	5
78	0x0f	15
79	0xf8	-8
80	0x01	1
81	0xee	-18
82	0x20	32
83	0x1a	26
84	0x0f	15
85	0x08	8
86	0x26	38
87	0x20	32
88	0x0d	13
89	0xe7	-25
90	0x0b	11
91	0xff	-1
92	0x22	34
93	0x24	36
94	0x1b	27
95	0xe2	-30
96	0x08	8
97	0xfa	-6
98	0x13	19
99	0x16	22
100	0xe9	-23
101	0x30	48
102	0x07	7
103	0x02	2
104	0x3f	63
105	0xd2	-46
106	0xf3	-13
107	0xf7	-9
108	0x24	36
109	0x17	23
110	0x27	39
111	0x15	21
112	0xe5	-27
113	0xd2	-46
114	0xfb	-5
115	0x28	40
116	0xe7	-25
117	0xe5	-27
118	0xd3	-45
119	0x02	2
120	0xfb	-5
121	0xf9	-7
122	0xec	-20
123	0x0e	14
124	0xf9	-7
125	0x4b	75
126	0x09	9
127	0x06	6
128	0xff	-1
129	0x31	49
130	0x02	2
131	0x2a	42
132	0x0f	15
133	0xfe	-2
134	0xcd	-51
135	0x1d	29
136	0xc3	-61
137	0xee	-18
138	0xf7	-9
139	0xf1	-15
140	0xf9	-7
141	0x1d	29
142	0xdc	-36
143	0x06	6
144	0x0e	14
145	0x1e	30
146	0xf4	-12
147	0x77	119
148	0xeb	-21
149	0x18	24
150	0x04	4
151	0xec	-20
152	0xe1	-31
153	0xf2	-14
154	0xbd	-67
155	0xd4	-44
156	0xe0	-32
157	0x7f	127
158	0x04	4
159	0x0c	12
160	0x1c	28
161	0xf9	-7
162	0xf2	-14
163	0xdf	-33
164	0x15	21
165	0x09	9
166	0xf8	-8
167	0xfc	-4
168	0xe8	-24
169	0xdf	-33
170	0xef	-17
171	0xff	-1
172	0x1f	31
173	0x2e	46
174	0xeb	-21
175	0x13	19
176	0x0e	14
177	0x0b	11
178	0x2f	47
179	0x27	39
180	0xce	-50
181	0x18	24
182	0x02	2
183	0x0a	10
184	0x12	18
185	0xe2	-30
186	0xe9	-23
187	0x13	19
188	0x1a	26
189	0x3a	58
190	0xf0	-16
191	0xce	-50
192	0x25	37
193	0xfd	-3
194	0xf7	-9
195	0xfe	-2
196	0xe1	-31
197	0x44	68
198	0x12	18
199	0xfd	-3
200	0x2a	42
201	0xde	-34
202	0x12	18
203	0xf8	-8
204	0xfa	-6
205	0x13	19
206	0x01	1
207	0x0f	15
208	0xe7	-25
209	0xec	-20
210	0xef	-17
211	0x25	37
212	0x18	24
213	0xe2	-30
214	0xc7	-57
215	0xee	-18
216	0x06	6
217	0x0c	12
218	0xe6	-26
219	0x12	18
220	0xf8	-8
221	0x1e	30
222	0xf5	-11
223	0x10	16
224	0xfb	-5
225	0x3b	59
226	0xf8	-8
227	0x10	16
228	0x01	1
229	0x0e	14
230	0xc7	-57
231	0x28	40
232	0xc5	-59
233	0x13	19
234	0x12	18
235	0xee	-18
236	0xe4	-28
237	0x13	19
238	0xd7	-41
239	0xfd	-3
240	0x1b	27
241	0x3c	60
242	0xdf	-33
243	0x64	100
244	0xeb	-21
245	0x21	33
246	0xfb	-5
247	0xd5	-43
248	0xfa	-6
249	0x06	6
250	0xcb	-53
251	0xe2	-30
252	0xe8	-24
253	0x32	50
254	0xf5	-11
255	0x16	22

model/lambda_3/Const i1 [1, 12, 12, 5, 4] scale=0.009443352 zero_point=-29
0	0xd1	-0.16998033
1	0xd1	-0.16998033
2	0xfe	0.2549705
3	0xfe	0.2549705
4	0xc8	-0.2549705
5	0xd8	-0.103876874
6	0x07	0.33996066
7	0xf7	0.18886703
8	0xd8	-0.103876874
9	0xc8	-0.2549705
10	0xf7	0.18886703
11	0x07	0.33996066
12	0xdb	-0.075546816
13	0xc1	-0.32107398
14	0xf4	0.16053699
15	0x0e	0.40606412
16	0xcd	-0.20775375
17	0xcd	-0.20775375
18	0x01	0.28330055
19	0x01	0.28330055
20	0xda	-0.084990166
21	0xd1	-0.16998033
22	0x06	0.33051732
23	0xfe	0.2549705
24	0xd1	-0.16998033
25	0xd8	-0.103876874
26	0x10	0.42495084
27	0xf7	0.18886703
28	0xe1	-0.018886704
29	0xc8	-0.2549705
30	0x00	0.2738572
31	0x07	0.33996066
32	0xe3	0.0
33	0xc1	-0.32107398
34	0xfd	0.24552715
35	0x0e	0.40606412
36	0xd6	-0.122763574
37	0xcd	-0.20775375
38	0x0a	0.36829072
39	0x01	0.28330055
40	0xe3	0.0
41	0xd1	-0.16998033
42	0x0f	0.4155075
43	0xfe	0.2549705
44	0xda	-0.084990166
45	0xd8	-0.103876874
46	0x19	0.509941
47	0xf7	0.18886703
48	0xe9	0.056660112
49	0xc8	-0.2549705
50	0x09	0.35884738
51	0x07	0.33996066
52	0xec	0.084990166
53	0xc1	-0.32107398
54	0x06	0.33051732
55	0x0e	0.40606412
56	0xdf	-0.037773408
57	0xcd	-0.20775375
58	0x13	0.4532809
59	0x01	0.28330055
60	0xec	0.084990166
61	0xd1	-0.16998033
62	0x18	0.50049764
63	0xfe	0.2549705
64	0xe2	-0.009443352
65	0xd8	-0.103876874
66	0x21	0.58548784
67	0xf7	0.18886703
68	0xf2	0.14165027
69	0xc8	-0.2549705
70	0x12	0.44383755
71	0x07	0.33996066
72	0xf5	0.16998033
73	0xc1	-0.32107398
74	0x0f	0.4155075
75	0x0e	0.40606412
76	0xe8	0.047216758
77	0xcd	-0.20775375
78	0x1c	0.53827107
79	0x01	0.28330055
80	0xf4	0.16053699
81	0xd1	-0.16998033
82	0x21	0.58548784
83	0xfe	0.2549705
84	0xeb	0.075546816
85	0xd8	-0.103876874
86	0x2a	0.670478
87	0xf7	0.18886703
88	0xfb	0.22664045
89	0xc8	-0.2549705
90	0x1a	0.5193844
91	0x07	0.33996066
92	0xfe	0.2549705
93	0xc1	-0.32107398
94	0x18	0.50049764
95	0x0e	0.40606412
96	0xf1	0.13220693
97	0xcd	-0.20775375
98	0x25	0.6232612
99	0x01	0.28330055
100	0xfd	0.24552715
101	0xd1	-0.16998033
102	0x2a	0.670478
103	0xfe	0.2549705
104	0xf4	0.16053699
105	0xd8	-0.103876874
106	0x33	0.75546813
107	0xf7	0.18886703
108	0x04	0.3116306
109	0xc8	-0.2549705
110	0x23	0.6043745
111	0x07	0.33996066
112	0x07	0.33996066
113	0xc1	-0.32107398
114	0x20	0.5760445
115	0x0e	0.40606412
116	0xfa	0.21719709
117	0xcd	-0.20775375
118	0x2d	0.6988081
119	0x01	0.28330055
120	0x06	0.33051732
121	0xd1	-0.16998033
122	0x33	0.75546813
123	0xfe	0.2549705
124	0xfd	0.24552715
125	0xd8	-0.103876874
126	0x3c	0.84045833
127	0xf7	0.18886703
128	0x0d	0.39662078
129	0xc8	-0.2549705
130	0x2c	0.6893647
131	0x07	0.33996066
132	0x10	0.42495084
133	0xc1	-0.32107398
134	0x29	0.66103464
135	0x0e	0.40606412
136	0x02	0.29274392
137	0xcd	-0.20775375
138	0x36	0.7837982
139	0x01	0.28330055
140	0x0f	0.4155075
141	0xd1	-0.16998033
142	0x3b	0.831015
143	0xfe	0.2549705
144	0x06	0.33051732
145	0xd8	-0.103876874
146	0x45	0.9254485
147	0xf7	0.18886703
148	0x15	0.4721676
149	0xc8	-0.2549705
150	0x35	0.7743549
151	0x07	0.33996066
152	0x18	0.50049764
153	0xc1	-0.32107398
154	0x32	0.7460248
155	0x0e	0.40606412
156	0x0b	0.37773407
157	0xcd	-0.20775375
158	0x3f	0.86878836
159	0x01	0.28330055
160	0x18	0.50049764
161	0xd1	-0.16998033
162	0x44	0.91600513
163	0xfe	0.2549705
164	0x0f	0.4155075
165	0xd8	-0.103876874
166	0x4d	1.0009953
167	0xf7	0.18886703
168	0x1e	0.55715775
169	0xc8	-0.2549705
170	0x3e	0.859345
171	0x07	0.33996066
172	0x21	0.58548784
173	0xc1	-0.32107398
174	0x3b	0.831015
175	0x0e	0.40606412
176	0x14	0.46272424
177	0xcd	-0.20775375
178	0x48	0.95377856
179	0x01	0.28330055
180	0x21	0.58548784
181	0xd1	-0.16998033
182	0x4d	1.0009953
183	0xfe	0.2549705
184	0x17	0.4910543
185	0xd8	-0.103876874
186	0x56	1.0859854
187	0xf7	0.18886703
188	0x27	0.64214796
189	0xc8	-0.2549705
190	0x47	0.9443352
191	0x07	0.33996066
192	0x2a	0.670478
193	0xc1	-0.32107398
194	0x44	0.91600513
195	0x0e	0.40606412
196	0x1d	0.5477144
197	0xcd	-0.20775375
198	0x51	1.0387688
199	0x01	0.28330055
200	0x29	0.66103464
201	0xd1	-0.16998033
202	0x56	1.0859854
203	0xfe	0.2549705
204	0x20	0.5760445
205	0xd8	-0.103876874
206	0x5f	1.1709757
207	0xf7	0.18886703
208	0x30	0.7271381
209	0xc8	-0.2549705
210	0x4f	1.019882
211	0x07	0.33996066
212	0x33	0.75546813
213	0xc1	-0.32107398
214	0x4c	0.99155194
215	0x0e	0.40606412
216	0x26	0.63270456
217	0xcd	-0.20775375
218	0x5a	1.1237589
219	0x01	0.28330055
220	0x32	0.7460248
221	0xd1	-0.16998033
222	0x5f	1.1709757
223	0xfe	0.2549705
224	0x29	0.66103464
225	0xd8	-0.103876874
226	0x68	1.2559658
227	0xf7	0.18886703
228	0x39	0.81212825
229	0xc8	-0.2549705
230	0x58	1.1048722
231	0x07	0.33996066
232	0x3c	0.84045833
233	0xc1	-0.32107398
234	0x55	1.0765421
235	0x0e	0.40606412
236	0x2f	0.71769476
237	0xcd	-0.20775375
238	0x62	1.1993057
239	0x01	0.28330055
240	0xd1	-0.16998033
241	0xda	-0.084990166
242	0xfe	0.2549705
243	0x06	0.33051732
244	0xc8	-0.2549705
245	0xe1	-0.018886704
246	0x07	0.33996066
247	0x00	0.2738572
248	0xd8	-0.103876874
249	0xd1	-0.16998033
250	0xf7	0.18886703
251	0x10	0.42495084
252	0xdb	-0.075546816
253	0xca	-0.2360838
254	0xf4	0.16053699
255	0x17	0.4910543

model/conv2d_14/Conv2D i1 [20, 3, 3, 32]
0	0x14	20
1	0xe4	-28
2	0x0e	14
3	0xf6	-10
4	0xf9	-7
5	0x35	53
6	0x2d	45
7	0x32	50
8	0xad	-83
9	0xee	-18
10	0xfd	-3
11	0x0e	14
12	0x3d	61
13	0x0b	11
14	0xfd	-3
15	0x0c	12
16	0x3b	59
17	0x91	-111
18	0x04	4
19	0x43	67
20	0xbe	-66
21	0x29	41
22	0x0e	14
23	0x08	8
24	0x08	8
25	0xec	-20
26	0xe9	-23
27	0x3b	59
28	0x21	33
29	0x14	20
30	0x31	49
31	0xd9	-39
32	0xed	-19
33	0xe0	-32
34	0xe9	-23
35	0x12	18
36	0xf8	-8
37	0x19	25
38	0x0b	11
39	0xee	-18
40	0xe1	-31
41	0x0b	11
42	0x09	9
43	0xe3	-29
44	0x0a	10
45	0x25	37
46	0x24	36
47	0x02	2
48	0x21	33
49	0xb1	-79
50	0x00	0
51	0x0a	10
52	0xcb	-53
53	0xe6	-26
54	0x09	9
55	0xfe	-2
56	0xfc	-4
57	0xfe	-2
58	0x27	39
59	0x1b	27
60	0xe3	-29
61	0xec	-20
62	0xdf	-33
63	0xfd	-3
64	0xc2	-62
65	0xe8	-24
66	0x08	8
67	0xf6	-10
68	0x0b	11
69	0xd0	-48
70	0xf2	-14
71	0xd3	-45
72	0xfb	-5
73	0xf3	-13
74	0xfa	-6
75	0x1b	27
76	0xf5	-11
77	0x2c	44
78	0x28	40
79	0x20	32
80	0xf0	-16
81	0x17	23
82	0xec	-20
83	0x02	2
84	0x15	21
85	0xe2	-30
86	0x10	16
87	0xd2	-46
88	0xfe	-2
89	0x1d	29
90	0x25	37
91	0x17	23
92	0xe5	-27
93	0xd7	-41
94	0xe6	-26
95	0x0c	12
96	0x39	57
97	0xef	-17
98	0x09	9
99	0xdc	-36
100	0x0d	13
101	0x2c	44
102	0x17	23
103	0x1a	26
104	0x81	-127
105	0xe8	-24
106	0x0c	12
107	0x21	33
108	0x1c	28
109	0xff	-1
110	0xf2	-14
111	0x1b	27
112	0x2c	44
113	0xa2	-94
114	0x3f	63
115	0x72	114
116	0xbe	-66
117	0x46	70
118	0xee	-18
119	0x2c	44
120	0x06	6
121	0xf8	-8
122	0xea	-22
123	0x24	36
124	0x19	25
125	0xf6	-10
126	0x35	53
127	0x09	9
128	0xf4	-12
129	0xed	-19
130	0xeb	-21
131	0x19	25
132	0x01	1
133	0xdb	-37
134	0x06	6
135	0xe7	-25
136	0xec	-20
137	0x13	19
138	0xfe	-2
139	0xf1	-15
140	0x25	37
141	0x26	38
142	0x11	17
143	0xfe	-2
144	0x34	52
145	0xc1	-63
146	0xf3	-13
147	0x03	3
148	0xc7	-57
149	0xcb	-53
150	0x13	19
151	0x08	8
152	0xfb	-5
153	0x0f	15
154	0x34	52
155	0x1f	31
156	0xeb	-21
157	0xcc	-52
158	0xe6	-26
159	0x16	22
160	0x9e	-98
161	0xd1	-47
162	0xf9	-7
163	0x00	0
164	0x20	32
165	0xbe	-66
166	0xec	-20
167	0xd1	-47
168	0xfa	-6
169	0xdb	-37
170	0xcd	-51
171	0x29	41
172	0x09	9
173	0x23	35
174	0x23	35
175	0x1d	29
176	0x05	5
177	0x32	50
178	0xcc	-52
179	0xe7	-25
180	0x1e	30
181	0xc2	-62
182	0x28	40
183	0xce	-50
184	0xf5	-11
185	0x16	22
186	0x67	103
187	0x1e	30
188	0xd0	-48
189	0xa7	-89
190	0xeb	-21
191	0xed	-19
192	0x34	52
193	0xf7	-9
194	0x0d	13
195	0xd7	-41
196	0x0a	10
197	0x28	40
198	0x10	16
199	0xf7	-9
200	0x98	-104
201	0xe1	-31
202	0x15	21
203	0x0d	13
204	0x27	39
205	0x12	18
206	0x05	5
207	0x4b	75
208	0x31	49
209	0xb3	-77
210	0x15	21
211	0x61	97
212	0xce	-50
213	0x4d	77
214	0xcb	-53
215	0x36	54
216	0x18	24
217	0xff	-1
218	0xf5	-11
219	0x24	36
220	0xfd	-3
221	0xe9	-23
222	0x0f	15
223	0x22	34
224	0xf2	-14
225	0xe8	-24
226	0xea	-22
227	0x1b	27
228	0x02	2
229	0xeb	-21
230	0x10	16
231	0xde	-34
232	0xf8	-8
233	0xfe	-2
234	0xf3	-13
235	0xed	-19
236	0x32	50
237	0x2c	44
238	0x13	19
239	0x09	9
240	0x29	41
241	0xc2	-62
242	0xfa	-6
243	0xff	-1
244	0xd5	-43
245	0xdf	-33
246	0x20	32
247	0x0e	14
248	0x0d	13
249	0x04	4
250	0x33	51
251	0x27	39
252	0xf8	-8
253	0xcf	-49
254	0xe9	-23
255	0x1c	28

model/conv2d_13/Conv2D i1 [10, 3, 3, 32]
0	0x05	5
1	0xf8	-8
2	0x03	3
3	0x13	19
4	0xe8	-24
5	0x2a	42
6	0xe3	-29
7	0x27	39
8	0xff	-1
9	0x1d	29
10	0xea	-22
11	0xe3	-29
12	0xfc	-4
13	0xe1	-31
14	0xbb	-69
15	0xec	-20
16	0x00	0
17	0xeb	-21
18	0xf5	-11
19	0x03	3
20	0xec	-20
21	0x0c	12
22	0xf8	-8
23	0x10	16
24	0xe3	-29
25	0x0d	13
26	0xc9	-55
27	0x1b	27
28	0x0c	12
29	0xe8	-24
30	0x10	16
31	0x0c	12
32	0x14	20
33	0x0f	15
34	0x05	5
35	0x28	40
36	0xdf	-33
37	0xf7	-9
38	0xec	-20
39	0x13	19
40	0xe5	-27
41	0x19	25
42	0xfa	-6
43	0x07	7
44	0x05	5
45	0xbc	-68
46	0x86	-122
47	0xfe	-2
48	0x17	23
49	0xdb	-37
50	0xc0	-64
51	0xfc	-4
52	0xaf	-81
53	0xed	-19
54	0x3e	62
55	0xf5	-11
56	0xe0	-32
57	0xf2	-14
58	0xb8	-72
59	0x16	22
60	0x12	18
61	0x06	6
62	0x2d	45
63	0xbe	-66
64	0xfc	-4
65	0x06	6
66	0xfd	-3
67	0x05	5
68	0x0d	13
69	0x10	16
70	0xea	-22
71	0xf9	-7
72	0x04	4
73	0x04	4
74	0xef	-17
75	0xf3	-13
76	0x00	0
77	0xe6	-26
78	0x9b	-101
79	0x00	0
80	0x15	21
81	0xe0	-32
82	0x15	21
83	0x01	1
84	0xc9	-55
85	0xed	-19
86	0x2c	44
87	0x10	16
88	0xeb	-21
89	0xf8	-8
90	0xd0	-48
91	0x26	38
92	0xff	-1
93	0xff	-1
94	0x16	22
95	0xff	-1
96	0x1a	26
97	0xf8	-8
98	0xfe	-2
99	0xdb	-37
100	0xcf	-49
101	0xf4	-12
102	0xe3	-29
103	0x0e	14
104	0xe0	-32
105	0x55	85
106	0x13	19
107	0xfd	-3
108	0x0c	12
109	0xcc	-52
110	0xba	-70
111	0x1b	27
112	0xfb	-5
113	0x27	39
114	0xac	-84
115	0xf8	-8
116	0xdb	-37
117	0x03	3
118	0xf4	-12
119	0x03	3
120	0x03	3
121	0x1c	28
122	0xa9	-87
123	0x00	0
124	0x01	1
125	0xef	-17
126	0x11	17
127	0x23	35
128	0x1e	30
129	0xfc	-4
130	0xd7	-41
131	0x04	4
132	0xe6	-26
133	0x2d	45
134	0xf0	-16
135	0x04	4
136	0xa1	-95
137	0x37	55
138	0x09	9
139	0x02	2
140	0xc9	-55
141	0xd0	-48
142	0x8c	-116
143	0xed	-19
144	0xc3	-61
145	0xeb	-21
146	0x56	86
147	0x3d	61
148	0xbc	-68
149	0x0a	10
150	0xd9	-39
151	0xe2	-30
152	0xe4	-28
153	0x17	23
154	0x94	-108
155	0xee	-18
156	0x0b	11
157	0x13	19
158	0x42	66
159	0xdf	-33
160	0x23	35
161	0x1d	29
162	0xdc	-36
163	0xd6	-42
164	0xf6	-10
165	0xea	-22
166	0xed	-19
167	0xe2	-30
168	0xe9	-23
169	0x47	71
170	0x24	36
171	0x00	0
172	0x06	6
173	0xcf	-49
174	0x98	-104
175	0x25	37
176	0x1f	31
177	0x08	8
178	0xc9	-55
179	0xf2	-14
180	0xbc	-68
181	0xed	-19
182	0x24	36
183	0x06	6
184	0x18	24
185	0x08	8
186	0xab	-85
187	0x0f	15
188	0xf7	-9
189	0x0c	12
190	0x17	23
191	0x14	20
192	0x01	1
193	0xeb	-21
194	0xdd	-35
195	0xf6	-10
196	0xf4	-12
197	0xfe	-2
198	0xe9	-23
199	0xf2	-14
200	0x04	4
201	0x3a	58
202	0xf2	-14
203	0xeb	-21
204	0xf5	-11
205	0xea	-22
206	0xb1	-79
207	0x0e	14
208	0x0e	14
209	0x13	19
210	0x12	18
211	0x0c	12
212	0xe6	-26
213	0x04	4
214	0xc9	-55
215	0x23	35
216	0x0a	10
217	0x05	5
218	0xbb	-69
219	0xf5	-11
220	0x07	7
221	0xef	-17
222	0xf6	-10
223	0x11	17
224	0x2f	47
225	0x0c	12
226	0xc4	-60
227	0x0a	10
228	0xf9	-7
229	0x15	21
230	0xe1	-31
231	0xcf	-49
232	0xd4	-44
233	0x25	37
234	0x05	5
235	0x0e	14
236	0xce	-50
237	0xd4	-44
238	0x81	-127
239	0x0c	12
240	0xfa	-6
241	0x04	4
242	0xf9	-7
243	0x31	49
244	0xad	-83
245	0xef	-17
246	0xd9	-39
247	0xfb	-5
248	0xf0	-16
249	0x0e	14
250	0xa8	-88
251	0x05	5
252	0xee	-18
253	0x04	4
254	0xfb	-5
255	0xe7	-25

model/lambda_2/Const i1 [1, 6, 6, 5, 4] scale=0.009443352 zero_point=-29
0	0xcd	-0.20775375
1	0xcd	-0.20775375
2	0x0b	0.37773407
3	0x0b	0.37773407
4	0xc0	-0.33051732
5	0xd6	-0.122763574
6	0x17	0.4910543
7	0x02	0.29274392
8	0xd6	-0.122763574
9	0xc0	-0.33051732
10	0x02	0.29274392
11	0x17	0.4910543
12	0xda	-0.084990166
13	0xb7	-0.4155075
14	0xfe	0.2549705
15	0x21	0.58548784
16	0xc9	-0.24552715
17	0xc9	-0.24552715
18	0x0f	0.4155075
19	0x0f	0.4155075
20	0xdf	-0.037773408
21	0xcd	-0.20775375
22	0x1c	0.53827107
23	0x0b	0.37773407
24	0xd2	-0.16053699
25	0xd6	-0.122763574
26	0x29	0.66103464
27	0x02	0.29274392
28	0xe8	0.047216758
29	0xc0	-0.33051732
30	0x13	0.4532809
31	0x17	0.4910543
32	0xec	0.084990166
33	0xb7	-0.4155075
34	0x0f	0.4155075
35	0x21	0.58548784
36	0xdb	-0.075546816
37	0xc9	-0.24552715
38	0x20	0.5760445
39	0x0f	0.4155075
40	0xf0	0.122763574
41	0xcd	-0.20775375
42	0x2e	0.7082514
43	0x0b	0.37773407
44	0xe4	0.009443352
45	0xd6	-0.122763574
46	0x3b	0.831015
47	0x02	0.29274392
48	0xf9	0.20775375
49	0xc0	-0.33051732
50	0x25	0.6232612
51	0x17	0.4910543
52	0xfd	0.24552715
53	0xb7	-0.4155075
54	0x21	0.58548784
55	0x21	0.58548784
56	0xec	0.084990166
57	0xc9	-0.24552715
58	0x32	0.7460248
59	0x0f	0.4155075
60	0x02	0.29274392
61	0xcd	-0.20775375
62	0x3f	0.86878836
63	0x0b	0.37773407
64	0xf5	0.16998033
65	0xd6	-0.122763574
66	0x4c	0.99155194
67	0x02	0.29274392
68	0x0b	0.37773407
69	0xc0	-0.33051732
70	0x36	0.7837982
71	0x17	0.4910543
72	0x0f	0.4155075
73	0xb7	-0.4155075
74	0x33	0.75546813
75	0x21	0.58548784
76	0xfe	0.2549705
77	0xc9	-0.24552715
78	0x44	0.91600513
79	0x0f	0.4155075
80	0x14	0.46272424
81	0xcd	-0.20775375
82	0x51	1.0387688
83	0x0b	0.37773407
84	0x07	0.33996066
85	0xd6	-0.122763574
86	0x5e	1.1615323
87	0x02	0.29274392
88	0x1d	0.5477144
89	0xc0	-0.33051732
90	0x48	0.95377856
91	0x17	0.4910543
92	0x21	0.58548784
93	0xb7	-0.4155075
94	0x44	0.91600513
95	0x21	0.58548784
96	0x0f	0.4155075
97	0xc9	-0.24552715
98	0x55	1.0765421
99	0x0f	0.4155075
100	0x25	0.6232612
101	0xcd	-0.20775375
102	0x63	1.208749
103	0x0b	0.37773407
104	0x19	0.509941
105	0xd6	-0.122763574
106	0x6f	1.3220693
107	0x02	0.29274392
108	0x2e	0.7082514
109	0xc0	-0.33051732
110	0x5a	1.1237589
111	0x17	0.4910543
112	0x32	0.7460248
113	0xb7	-0.4155075
114	0x56	1.0859854
115	0x21	0.58548784
116	0x21	0.58548784
117	0xc9	-0.24552715
118	0x67	1.2465224
119	0x0f	0.4155075
120	0xcd	-0.20775375
121	0xdf	-0.037773408
122	0x0b	0.37773407
123	0x1c	0.53827107
124	0xc0	-0.33051732
125	0xe8	0.047216758
126	0x17	0.4910543
127	0x13	0.4532809
128	0xd6	-0.122763574
129	0xd2	-0.16053699
130	0x02	0.29274392
131	0x29	0.66103464
132	0xda	-0.084990166
133	0xc8	-0.2549705
134	0xfe	0.2549705
135	0x33	0.75546813
136	0xc9	-0.24552715
137	0xdb	-0.075546816
138	0x0f	0.4155075
139	0x20	0.5760445
140	0xdf	-0.037773408
141	0xdf	-0.037773408
142	0x1c	0.53827107
143	0x1c	0.53827107
144	0xd2	-0.16053699
145	0xe8	0.047216758
146	0x29	0.66103464
147	0x13	0.4532809
148	0xe8	0.047216758
149	0xd2	-0.16053699
150	0x13	0.4532809
151	0x29	0.66103464
152	0xec	0.084990166
153	0xc8	-0.2549705
154	0x0f	0.4155075
155	0x33	0.75546813
156	0xdb	-0.075546816
157	0xdb	-0.075546816
158	0x20	0.5760445
159	0x20	0.5760445
160	0xf0	0.122763574
161	0xdf	-0.037773408
162	0x2e	0.7082514
163	0x1c	0.53827107
164	0xe4	0.009443352
165	0xe8	0.047216758
166	0x3b	0.831015
167	0x13	0.4532809
168	0xf9	0.20775375
169	0xd2	-0.16053699
170	0x25	0.6232612
171	0x29	0.66103464
172	0xfd	0.24552715
173	0xc8	-0.2549705
174	0x21	0.58548784
175	0x33	0.75546813
176	0xec	0.084990166
177	0xdb	-0.075546816
178	0x32	0.7460248
179	0x20	0.5760445
180	0x02	0.29274392
181	0xdf	-0.037773408
182	0x3f	0.86878836
183	0x1c	0.53827107
184	0xf5	0.16998033
185	0xe8	0.047216758
186	0x4c	0.99155194
187	0x13	0.4532809
188	0x0b	0.37773407
189	0xd2	-0.16053699
190	0x36	0.7837982
191	0x29	0.66103464
192	0x0f	0.4155075
193	0xc8	-0.2549705
194	0x33	0.75546813
195	0x33	0.75546813
196	0xfe	0.2549705
197	0xdb	-0.075546816
198	0x44	0.91600513
199	0x20	0.5760445
200	0x14	0.46272424
201	0xdf	-0.037773408
202	0x51	1.0387688
203	0x1c	0.53827107
204	0x07	0.33996066
205	0xe8	0.047216758
206	0x5e	1.1615323
207	0x13	0.4532809
208	0x1d	0.5477144
209	0xd2	-0.16053699
210	0x48	0.95377856
211	0x29	0.66103464
212	0x21	0.58548784
213	0xc8	-0.2549705
214	0x44	0.91600513
215	0x33	0.75546813
216	0x0f	0.4155075
217	0xdb	-0.075546816
218	0x55	1.0765421
219	0x20	0.5760445
220	0x25	0.6232612
221	0xdf	-0.037773408
222	0x63	1.208749
223	0x1c	0.53827107
224	0x19	0.509941
225	0xe8	0.047216758
226	0x6f	1.3220693
227	0x13	0.4532809
228	0x2e	0.7082514
229	0xd2	-0.16053699
230	0x5a	1.1237589
231	0x29	0.66103464
232	0x32	0.7460248
233	0xc8	-0.2549705
234	0x56	1.0859854
235	0x33	0.75546813
236	0x21	0.58548784
237	0xdb	-0.075546816
238	0x67	1.2465224
239	0x20	0.5760445
240	0xcd	-0.20775375
241	0xf0	0.122763574
242	0x0b	0.37773407
243	0x2e	0.7082514
244	0xc0	-0.33051732
245	0xf9	0.20775375
246	0x17	0.4910543
247	0x25	0.6232612
248	0xd6	-0.122763574
249	0xe4	0.009443352
250	0x02	0.29274392
251	0x3b	0.831015
252	0xda	-0.084990166
253	0xda	-0.084990166
254	0xfe	0.2549705
255	0x44	0.91600513

model/conv2d_12/Conv2D i1 [20, 3, 3, 32]
0	0xe6	-26
1	0x45	69
2	0xf3	-13
3	0x09	9
4	0xcf	-49
5	0x44	68
6	0x39	57
7	0x1e	30
8	0x91	-111
9	0xf9	-7
10	0xeb	-21
11	0xd8	-40
12	0x31	49
13	0xd9	-39
14	0xc7	-57
15	0x12	18
16	0x54	84
17	0x86	-122
18	0xb2	-78
19	0x32	50
20	0xd9	-39
21	0x26	38
22	0xf7	-9
23	0xec	-20
24	0x01	1
25	0x0b	11
26	0xe6	-26
27	0x59	89
28	0x06	6
29	0x25	37
30	0x2a	42
31	0xca	-54
32	0xa6	-90
33	0xeb	-21
34	0x0c	12
35	0xf2	-14
36	0xe0	-32
37	0xe8	-24
38	0x19	25
39	0xdd	-35
40	0xca	-54
41	0xd3	-45
42	0x09	9
43	0x13	19
44	0x14	20
45	0x0d	13
46	0x07	7
47	0x1b	27
48	0x12	18
49	0xdf	-33
50	0xf3	-13
51	0x10	16
52	0xe8	-24
53	0xd5	-43
54	0x0a	10
55	0x1c	28
56	0x4c	76
57	0xd3	-45
58	0x1b	27
59	0x29	41
60	0xf3	-13
61	0x1f	31
62	0xc4	-60
63	0xf9	-7
64	0xb6	-74
65	0xd8	-40
66	0x25	37
67	0xf5	-11
68	0x27	39
69	0xd4	-44
70	0x06	6
71	0xe0	-32
72	0x13	19
73	0xe7	-25
74	0x1f	31
75	0x11	17
76	0xf7	-9
77	0x1d	29
78	0x25	37
79	0x1e	30
80	0x01	1
81	0x13	19
82	0xf5	-11
83	0xfb	-5
84	0x1b	27
85	0x00	0
86	0xe9	-23
87	0x2f	47
88	0x0c	12
89	0xde	-34
90	0x18	24
91	0xf1	-15
92	0xf9	-7
93	0xfe	-2
94	0xb5	-75
95	0x34	52
96	0xe0	-32
97	0x24	36
98	0x10	16
99	0xe7	-25
100	0xd3	-45
101	0x1a	26
102	0x37	55
103	0x1a	26
104	0x93	-109
105	0xee	-18
106	0xeb	-21
107	0x06	6
108	0x4e	78
109	0xde	-34
110	0xdc	-36
111	0x46	70
112	0x7f	127
113	0x9e	-98
114	0xb7	-73
115	0x38	56
116	0xe7	-25
117	0x33	51
118	0xcf	-49
119	0x01	1
120	0xf1	-15
121	0xfd	-3
122	0x0e	14
123	0x59	89
124	0x05	5
125	0x0a	10
126	0x35	53
127	0x01	1
128	0x9c	-100
129	0xf2	-14
130	0x1e	30
131	0xe8	-24
132	0x0f	15
133	0xc6	-58
134	0xf9	-7
135	0xf6	-10
136	0xde	-34
137	0xd6	-42
138	0x1a	26
139	0x27	39
140	0x1a	26
141	0x2c	44
142	0x09	9
143	0x27	39
144	0x38	56
145	0xd0	-48
146	0xf5	-11
147	0x14	20
148	0xf1	-15
149	0xd7	-41
150	0x2b	43
151	0xf7	-9
152	0x45	69
153	0xd2	-46
154	0x2e	46
155	0x18	24
156	0xe2	-30
157	0x02	2
158	0xd3	-45
159	0xf0	-16
160	0xa7	-89
161	0xec	-20
162	0x36	54
163	0xff	-1
164	0x3b	59
165	0xdd	-35
166	0xc6	-58
167	0x04	4
168	0x24	36
169	0xdc	-36
170	0x0d	13
171	0x03	3
172	0xf7	-9
173	0x39	57
174	0x44	68
175	0x03	3
176	0x09	9
177	0xf0	-16
178	0xe9	-23
179	0xe2	-30
180	0x34	52
181	0xe9	-23
182	0x05	5
183	0x09	9
184	0x22	34
185	0xdb	-37
186	0x37	55
187	0xf4	-12
188	0xed	-19
189	0xd3	-45
190	0xa8	-88
191	0x1c	28
192	0xf7	-9
193	0x1b	27
194	0x16	22
195	0xed	-19
196	0xd9	-39
197	0x06	6
198	0x1b	27
199	0xf4	-12
200	0xd2	-46
201	0xe4	-28
202	0xce	-50
203	0x09	9
204	0x51	81
205	0xf1	-15
206	0xf0	-16
207	0x4c	76
208	0x5f	95
209	0xc0	-64
210	0xe9	-23
211	0x43	67
212	0xf9	-7
213	0x26	38
214	0xc2	-62
215	0x29	41
216	0x06	6
217	0xee	-18
218	0x20	32
219	0x50	80
220	0x0b	11
221	0x04	4
222	0x29	41
223	0x02	2
224	0xc0	-64
225	0x08	8
226	0x17	23
227	0xe9	-23
228	0x0b	11
229	0xf0	-16
230	0x05	5
231	0xf3	-13
232	0xe6	-26
233	0xdd	-35
234	0x06	6
235	0x0f	15
236	0x27	39
237	0x09	9
238	0x1f	31
239	0xfc	-4
240	0x46	70
241	0xbe	-66
242	0x0d	13
243	0x24	36
244	0x06	6
245	0xff	-1
246	0x25	37
247	0xee	-18
248	0x2e	46
249	0xe9	-23
250	0x39	57
251	0x37	55
252	0xe5	-27
253	0x02	2
254	0xf4	-12
255	0xe1	-31

model/conv2d_11/Conv2D i1 [10, 3, 3, 32]
0	0x35	53
1	0xfb	-5
2	0x06	6
3	0xf1	-15
4	0x14	20
5	0x24	36
6	0xe2	-30
7	0x29	41
8	0xf8	-8
9	0xf6	-10
10	0xe7	-25
11	0x00	0
12	0x1d	29
13	0xfa	-6
14	0x0b	11
15	0xe4	-28
16	0xfb	-5
17	0x05	5
18	0xfd	-3
19	0x0b	11
20	0x09	9
21	0x21	33
22	0x0d	13
23	0xf0	-16
24	0xf3	-13
25	0xfa	-6
26	0x08	8
27	0xf5	-11
28	0x1a	26
29	0x04	4
30	0x23	35
31	0x10	16
32	0x47	71
33	0x07	7
34	0xf5	-11
35	0x0b	11
36	0xf1	-15
37	0x4b	75
38	0xd8	-40
39	0x5a	90
40	0xf9	-7
41	0x0d	13
42	0x09	9
43	0xf6	-10
44	0x29	41
45	0xff	-1
46	0xe0	-32
47	0x01	1
48	0xff	-1
49	0xab	-85
50	0xd0	-48
51	0x28	40
52	0x04	4
53	0x1b	27
54	0x18	24
55	0xd6	-42
56	0xc1	-63
57	0xf8	-8
58	0xea	-22
59	0xfa	-6
60	0x1f	31
61	0x10	16
62	0x59	89
63	0xf8	-8
64	0x2a	42
65	0x0e	14
66	0xef	-17
67	0x21	33
68	0x11	17
69	0x0a	10
70	0xe9	-23
71	0xec	-20
72	0x00	0
73	0xe4	-28
74	0x0f	15
75	0x05	5
76	0x10	16
77	0x13	19
78	0xda	-38
79	0xf7	-9
80	0x24	36
81	0xcc	-52
82	0xda	-38
83	0x35	53
84	0xf5	-11
85	0xf2	-14
86	0x41	65
87	0xe1	-31
88	0x1c	28
89	0xe0	-32
90	0xfa	-6
91	0xf2	-14
92	0x17	23
93	0x16	22
94	0x23	35
95	0x08	8
96	0x50	80
97	0xcc	-52
98	0x02	2
99	0x01	1
100	0xee	-18
101	0x3e	62
102	0xe0	-32
103	0x55	85
104	0xca	-54
105	0xd5	-43
106	0xda	-38
107	0xf7	-9
108	0x19	25
109	0xdb	-37
110	0xe4	-28
111	0xfd	-3
112	0xb0	-80
113	0x22	34
114	0x09	9
115	0x26	38
116	0xfb	-5
117	0x41	65
118	0xea	-22
119	0x03	3
120	0xee	-18
121	0xfb	-5
122	0xe8	-24
123	0xe9	-23
124	0x18	24
125	0xf9	-7
126	0x2f	47
127	0xf3	-13
128	0x74	116
129	0x19	25
130	0xc9	-55
131	0xcc	-52
132	0xfe	-2
133	0x6c	108
134	0x4c	76
135	0x19	25
136	0xc1	-63
137	0xe3	-29
138	0xed	-19
139	0x00	0
140	0x49	73
141	0x98	-104
142	0xcd	-51
143	0xdf	-33
144	0x27	39
145	0xf5	-11
146	0x0f	15
147	0x31	49
148	0xde	-34
149	0x5b	91
150	0xcb	-53
151	0x03	3
152	0xe5	-27
153	0x26	38
154	0xed	-19
155	0x6e	110
156	0x3f	63
157	0x03	3
158	0x6b	107
159	0xcf	-49
160	0x2d	45
161	0x0e	14
162	0xcf	-49
163	0x06	6
164	0x18	24
165	0xe8	-24
166	0xf5	-11
167	0xda	-38
168	0xea	-22
169	0xd3	-45
170	0x04	4
171	0xea	-22
172	0x25	37
173	0xf9	-7
174	0xc5	-59
175	0xf3	-13
176	0x1c	28
177	0xc2	-62
178	0xe6	-26
179	0x38	56
180	0xf1	-15
181	0xfd	-3
182	0x38	56
183	0x0c	12
184	0x44	68
185	0xf1	-15
186	0xf1	-15
187	0x16	22
188	0x1e	30
189	0x0b	11
190	0x34	52
191	0xf6	-10
192	0x15	21
193	0xee	-18
194	0x12	18
195	0xff	-1
196	0xe5	-27
197	0xff	-1
198	0xf2	-14
199	0xf8	-8
200	0xd6	-42
201	0x26	38
202	0xff	-1
203	0xe4	-28
204	0xcd	-51
205	0xdc	-36
206	0xb2	-78
207	0x16	22
208	0xde	-34
209	0x41	65
210	0x0d	13
211	0xed	-19
212	0xd3	-45
213	0x0e	14
214	0xeb	-21
215	0x05	5
216	0x1a	26
217	0x19	25
218	0xb1	-79
219	0x1b	27
220	0x01	1
221	0xef	-17
222	0xf0	-16
223	0x20	32
224	0x11	17
225	0xeb	-21
226	0x0b	11
227	0xf6	-10
228	0xe0	-32
229	0xcd	-51
230	0x05	5
231	0x98	-104
232	0xce	-50
233	0x40	64
234	0xf4	-12
235	0xeb	-21
236	0xd7	-41
237	0xbb	-69
238	0x81	-127
239	0x19	25
240	0x1a	26
241	0x26	38
242	0x0f	15
243	0xfd	-3
244	0xbb	-69
245	0x23	35
246	0xb6	-74
247	0x57	87
248	0x0b	11
249	0x3d	61
250	0xa8	-88
251	0x3c	60
252	0x06	6
253	0xd2	-46
254	0x0d	13
255	0x51	81

model/lambda_1/Const i1 [1, 3, 3, 5, 4] scale=0.009443352 zero_point=-29
0	0xcd	-0.20775375
1	0xcd	-0.20775375
2	0x1c	0.53827107
3	0x1c	0.53827107
4	0xbd	-0.35884738
5	0xd9	-0.094433516
6	0x2c	0.6893647
7	0x10	0.42495084
8	0xd9	-0.094433516
9	0xbd	-0.35884738
10	0x10	0.42495084
11	0x2c	0.6893647
12	0xde	-0.047216758
13	0xb1	-0.4721676
14	0x0b	0.37773407
15	0x39	0.81212825
16	0xc9	-0.24552715
17	0xc9	-0.24552715
18	0x20	0.5760445
19	0x20	0.5760445
20	0xf1	0.13220693
21	0xcd	-0.20775375
22	0x3f	0.86878836
23	0x1c	0.53827107
24	0xe1	-0.018886704
25	0xd9	-0.094433516
26	0x4f	1.019882
27	0x10	0.42495084
28	0xfc	0.2360838
29	0xbd	-0.35884738
30	0x34	0.76491153
31	0x2c	0.6893647
32	0x01	0.28330055
33	0xb1	-0.4721676
34	0x2f	0.71769476
35	0x39	0.81212825
36	0xed	0.094433516
37	0xc9	-0.24552715
38	0x43	0.9065618
39	0x20	0.5760445
40	0x14	0.46272424
41	0xcd	-0.20775375
42	0x62	1.1993057
43	0x1c	0.53827107
44	0x04	0.3116306
45	0xd9	-0.094433516
46	0x73	1.3598427
47	0x10	0.42495084
48	0x20	0.5760445
49	0xbd	-0.35884738
50	0x57	1.0954288
51	0x2c	0.6893647
52	0x25	0.6232612
53	0xb1	-0.4721676
54	0x52	1.048212
55	0x39	0.81212825
56	0x10	0.42495084
57	0xc9	-0.24552715
58	0x67	1.2465224
59	0x20	0.5760445
60	0xcd	-0.20775375
61	0xf1	0.13220693
62	0x1c	0.53827107
63	0x3f	0.86878836
64	0xbd	-0.35884738
65	0xfc	0.2360838
66	0x2c	0.6893647
67	0x34	0.76491153
68	0xd9	-0.094433516
69	0xe1	-0.018886704
70	0x10	0.42495084
71	0x4f	1.019882
72	0xde	-0.047216758
73	0xd4	-0.14165027
74	0x0b	0.37773407
75	0x5c	1.1426456
76	0xc9	-0.24552715
77	0xed	0.094433516
78	0x20	0.5760445
79	0x43	0.9065618
80	0xf1	0.13220693
81	0xf1	0.13220693
82	0x3f	0.86878836
83	0x3f	0.86878836
84	0xe1	-0.018886704
85	0xfc	0.2360838
86	0x4f	1.019882
87	0x34	0.76491153
88	0xfc	0.2360838
89	0xe1	-0.018886704
90	0x34	0.76491153
91	0x4f	1.019882
92	0x01	0.28330055
93	0xd4	-0.14165027
94	0x2f	0.71769476
95	0x5c	1.1426456
96	0xed	0.094433516
97	0xed	0.094433516
98	0x43	0.9065618
99	0x43	0.9065618
100	0x14	0.46272424
101	0xf1	0.13220693
102	0x62	1.1993057
103	0x3f	0.86878836
104	0x04	0.3116306
105	0xfc	0.2360838
106	0x73	1.3598427
107	0x34	0.76491153
108	0x20	0.5760445
109	0xe1	-0.018886704
110	0x57	1.0954288
111	0x4f	1.019882
112	0x25	0.6232612
113	0xd4	-0.14165027
114	0x52	1.048212
115	0x5c	1.1426456
116	0x10	0.42495084
117	0xed	0.094433516
118	0x67	1.2465224
119	0x43	0.9065618
120	0xcd	-0.20775375
121	0x14	0.46272424
122	0x1c	0.53827107
123	0x62	1.1993057
124	0xbd	-0.35884738
125	0x20	0.5760445
126	0x2c	0.6893647
127	0x57	1.0954288
128	0xd9	-0.094433516
129	0x04	0.3116306
130	0x10	0.42495084
131	0x73	1.3598427
132	0xde	-0.047216758
133	0xf7	0.18886703
134	0x0b	0.37773407
135	0x7f	1.4731629
136	0xc9	-0.24552715
137	0x10	0.42495084
138	0x20	0.5760445
139	0x67	1.2465224
140	0xf1	0.13220693
141	0x14	0.46272424
142	0x3f	0.86878836
143	0x62	1.1993057
144	0xe1	-0.018886704
145	0x20	0.5760445
146	0x4f	1.019882
147	0x57	1.0954288
148	0xfc	0.2360838
149	0x04	0.3116306
150	0x34	0.76491153
151	0x73	1.3598427
152	0x01	0.28330055
153	0xf7	0.18886703
154	0x2f	0.71769476
155	0x7f	1.4731629
156	0xed	0.094433516
157	0x10	0.42495084
158	0x43	0.9065618
159	0x67	1.2465224
160	0x14	0.46272424
161	0x14	0.46272424
162	0x62	1.1993057
163	0x62	1.1993057
164	0x04	0.3116306
165	0x20	0.5760445
166	0x73	1.3598427
167	0x57	1.0954288
168	0x20	0.5760445
169	0x04	0.3116306
170	0x57	1.0954288
171	0x73	1.3598427
172	0x25	0.6232612
173	0xf7	0.18886703
174	0x52	1.048212
175	0x7f	1.4731629
176	0x10	0.42495084
177	0x10	0.42495084
178	0x67	1.2465224
179	0x67	1.2465224

model/conv2d_9/Conv2D i1 [10, 3, 3, 32]
0	0xff	-1
1	0xfd	-3
2	0x04	4
3	0x03	3
4	0x00	0
5	0x00	0
6	0xfc	-4
7	0xfe	-2
8	0xff	-1
9	0x01	1
10	0xff	-1
11	0x0c	12
12	0xfc	-4
13	0x02	2
14	0xfa	-6
15	0xff	-1
16	0xff	-1
17	0x02	2
18	0xfe	-2
19	0x02	2
20	0xfe	-2
21	0x00	0
22	0x00	0
23	0x01	1
24	0xfe	-2
25	0xfa	-6
26	0xfd	-3
27	0xfd	-3
28	0x06	6
29	0xf6	-10
30	0xfe	-2
31	0x03	3
32	0xfd	-3
33	0xf8	-8
34	0x05	5
35	0x0a	10
36	0x04	4
37	0xf9	-7
38	0xfc	-4
39	0xfc	-4
40	0xfd	-3
41	0x04	4
42	0xfc	-4
43	0xfc	-4
44	0xfb	-5
45	0xff	-1
46	0xfa	-6
47	0x07	7
48	0x08	8
49	0x00	0
50	0xfc	-4
51	0x01	1
52	0xfb	-5
53	0xf5	-11
54	0x00	0
55	0x01	1
56	0xff	-1
57	0xfa	-6
58	0xfa	-6
59	0x02	2
60	0x06	6
61	0x00	0
62	0xfc	-4
63	0x02	2
64	0x04	4
65	0x00	0
66	0xff	-1
67	0x04	4
68	0xff	-1
69	0xf5	-11
70	0xff	-1
71	0x00	0
72	0x00	0
73	0xfd	-3
74	0xf9	-7
75	0xfd	-3
76	0x02	2
77	0x03	3
78	0x01	1
79	0x08	8
80	0x05	5
81	0xfd	-3
82	0xff	-1
83	0x08	8
84	0x02	2
85	0xf9	-7
86	0xff	-1
87	0x03	3
88	0x00	0
89	0xfa	-6
90	0x03	3
91	0xf8	-8
92	0x00	0
93	0xfa	-6
94	0x01	1
95	0x00	0
96	0xf5	-11
97	0xfb	-5
98	0x08	8
99	0x06	6
100	0x03	3
101	0xf9	-7
102	0xfa	-6
103	0xf6	-10
104	0xf7	-9
105	0x09	9
106	0xfd	-3
107	0xf8	-8
108	0xf0	-16
109	0xf6	-10
110	0xee	-18
111	0x02	2
112	0x0a	10
113	0x01	1
114	0xfa	-6
115	0xff	-1
116	0xef	-17
117	0xef	-17
118	0xff	-1
119	0x03	3
120	0xf9	-7
121	0x04	4
122	0xf2	-14
123	0x10	16
124	0x04	4
125	0xfc	-4
126	0xf7	-9
127	0x01	1
128	0xfc	-4
129	0xfb	-5
130	0x05	5
131	0x12	18
132	0x06	6
133	0x01	1
134	0x04	4
135	0x0b	11
136	0x05	5
137	0xff	-1
138	0xff	-1
139	0x81	-127
140	0x07	7
141	0xf0	-16
142	0x02	2
143	0x0e	14
144	0xf5	-11
145	0xfe	-2
146	0xe3	-29
147	0xfe	-2
148	0xfd	-3
149	0xfb	-5
150	0xfd	-3
151	0x03	3
152	0x03	3
153	0x11	17
154	0x0b	11
155	0x19	25
156	0xf1	-15
157	0xfb	-5
158	0xfd	-3
159	0xfc	-4
160	0x1b	27
161	0xf9	-7
162	0xf0	-16
163	0x01	1
164	0x04	4
165	0xf8	-8
166	0xf9	-7
167	0x0e	14
168	0x08	8
169	0xec	-20
170	0xfa	-6
171	0x09	9
172	0x0d	13
173	0x03	3
174	0x0c	12
175	0xfd	-3
176	0x07	7
177	0x06	6
178	0xfa	-6
179	0x15	21
180	0x0a	10
181	0x0b	11
182	0xff	-1
183	0xff	-1
184	0xff	-1
185	0xf1	-15
186	0x13	19
187	0x01	1
188	0x07	7
189	0x02	2
190	0x11	17
191	0xf7	-9
192	0x06	6
193	0xfc	-4
194	0xfa	-6
195	0x01	1
196	0x03	3
197	0x01	1
198	0xf7	-9
199	0xfd	-3
200	0x02	2
201	0xfc	-4
202	0x06	6
203	0x07	7
204	0x01	1
205	0x02	2
206	0x01	1
207	0xfa	-6
208	0x08	8
209	0x06	6
210	0x03	3
211	0x0b	11
212	0x01	1
213	0xfd	-3
214	0x00	0
215	0x02	2
216	0x01	1
217	0xf6	-10
218	0x00	0
219	0xfc	-4
220	0x04	4
221	0xfc	-4
222	0x06	6
223	0x00	0
224	0x08	8
225	0x05	5
226	0x00	0
227	0xff	-1
228	0x03	3
229	0xfd	-3
230	0xf8	-8
231	0x03	3
232	0x03	3
233	0x00	0
234	0x03	3
235	0x01	1
236	0xfe	-2
237	0xfb	-5
238	0xff	-1
239	0x01	1
240	0x0c	12
241	0xf8	-8
242	0x01	1
243	0x03	3
244	0xff	-1
245	0x03	3
246	0x00	0
247	0xfe	-2
248	0xfc	-4
249	0x00	0
250	0x02	2
251	0x0b	11
252	0xfa	-6
253	0x06	6
254	0x04	4
255	0x02	2

model/conv2d_10/Conv2D i1 [20, 3, 3, 32]
0	0x04	4
1	0xf5	-11
2	0xf6	-10
3	0x04	4
4	0x02	2
5	0x03	3
6	0xf9	-7
7	0x09	9
8	0xff	-1
9	0x02	2
10	0xff	-1
11	0xfe	-2
12	0xf8	-8
13	0xfe	-2
14	0xe8	-24
15	0x09	9
16	0x19	25
17	0x05	5
18	0xf2	-14
19	0x15	21
20	0xf2	-14
21	0x02	2
22	0x02	2
23	0xf7	-9
24	0x00	0
25	0xed	-19
26	0xea	-22
27	0x0c	12
28	0xf8	-8
29	0x23	35
30	0x01	1
31	0xfe	-2
32	0x08	8
33	0xf1	-15
34	0x00	0
35	0x14	20
36	0x13	19
37	0xf5	-11
38	0xe8	-24
39	0x04	4
40	0xfa	-6
41	0xec	-20
42	0xfb	-5
43	0xf6	-10
44	0xfb	-5
45	0xfe	-2
46	0xf4	-12
47	0xfd	-3
48	0x0f	15
49	0x0e	14
50	0xf9	-7
51	0x1b	27
52	0xf5	-11
53	0xf2	-14
54	0xfc	-4
55	0x03	3
56	0x02	2
57	0xf1	-15
58	0xff	-1
59	0x09	9
60	0x06	6
61	0x01	1
62	0x03	3
63	0xf8	-8
64	0xfe	-2
65	0xfc	-4
66	0xff	-1
67	0xfa	-6
68	0x09	9
69	0x09	9
70	0x05	5
71	0x0b	11
72	0x00	0
73	0x06	6
74	0x0b	11
75	0xff	-1
76	0xff	-1
77	0xf8	-8
78	0x01	1
79	0xfc	-4
80	0xf8	-8
81	0x03	3
82	0x00	0
83	0xf5	-11
84	0xfc	-4
85	0x06	6
86	0xf9	-7
87	0xf4	-12
88	0x04	4
89	0x0f	15
90	0xff	-1
91	0x0b	11
92	0xee	-18
93	0xfd	-3
94	0xfb	-5
95	0xfe	-2
96	0xfd	-3
97	0xf0	-16
98	0xfb	-5
99	0x1d	29
100	0x11	17
101	0x08	8
102	0xfc	-4
103	0x1c	28
104	0x0b	11
105	0xf8	-8
106	0x04	4
107	0xa8	-88
108	0x17	23
109	0xf2	-14
110	0xfe	-2
111	0x0f	15
112	0x08	8
113	0x05	5
114	0xd4	-44
115	0x0d	13
116	0x03	3
117	0x06	6
118	0xfc	-4
119	0xf8	-8
120	0x0c	12
121	0x06	6
122	0x03	3
123	0x15	21
124	0xee	-18
125	0x16	22
126	0x00	0
127	0x00	0
128	0x0b	11
129	0x0d	13
130	0x06	6
131	0xf0	-16
132	0x10	16
133	0xe8	-24
134	0xe4	-28
135	0xf4	-12
136	0xfb	-5
137	0xf9	-7
138	0x0f	15
139	0x36	54
140	0xe3	-29
141	0xff	-1
142	0x00	0
143	0xe5	-27
144	0x1d	29
145	0x0d	13
146	0x23	35
147	0x06	6
148	0xfc	-4
149	0xff	-1
150	0x01	1
151	0xfc	-4
152	0xfc	-4
153	0xf9	-7
154	0xfe	-2
155	0x1a	26
156	0x0b	11
157	0xf1	-15
158	0xfb	-5
159	0x00	0
160	0xfe	-2
161	0x07	7
162	0x07	7
163	0xf5	-11
164	0xfa	-6
165	0xe2	-30
166	0xfe	-2
167	0xf4	-12
168	0x03	3
169	0xf8	-8
170	0xee	-18
171	0x7f	127
172	0xe8	-24
173	0x1f	31
174	0x0a	10
175	0xf0	-16
176	0x12	18
177	0x0c	12
178	0x2d	45
179	0x02	2
180	0x0d	13
181	0xfd	-3
182	0xfc	-4
183	0xfd	-3
184	0x00	0
185	0xd6	-42
186	0x09	9
187	0xe5	-27
188	0x27	39
189	0xdc	-36
190	0xf8	-8
191	0xfa	-6
192	0x00	0
193	0x00	0
194	0x05	5
195	0x05	5
196	0x06	6
197	0xf4	-12
198	0xf9	-7
199	0x03	3
200	0x04	4
201	0xfa	-6
202	0xff	-1
203	0xfc	-4
204	0xfd	-3
205	0x00	0
206	0x04	4
207	0xfe	-2
208	0x16	22
209	0xfb	-5
210	0xfd	-3
211	0x07	7
212	0x05	5
213	0xfa	-6
214	0x00	0
215	0x03	3
216	0x02	2
217	0xf1	-15
218	0x03	3
219	0x05	5
220	0x08	8
221	0x08	8
222	0xfb	-5
223	0x03	3
224	0x0d	13
225	0x04	4
226	0x09	9
227	0xf9	-7
228	0x0b	11
229	0xe9	-23
230	0xeb	-21
231	0x00	0
232	0x03	3
233	0xf3	-13
234	0xff	-1
235	0xf2	-14
236	0xf9	-7
237	0xfd	-3
238	0x08	8
239	0xf7	-9
240	0x19	25
241	0xfe	-2
242	0x06	6
243	0x04	4
244	0x01	1
245	0xfc	-4
246	0x00	0
247	0x01	1
248	0xf8	-8
249	0x02	2
250	0x0b	11
251	0x1a	26
252	0x01	1
253	0xff	-1
254	0xfd	-3
255	0x02	2

model/lambda/Const i1 [1, 1, 1, 5, 4] scale=0.009443352 zero_point=-29
0	0xe8	0.047216758
1	0xe8	0.047216758
2	0x48	0.95377856
3	0x48	0.95377856
4	0xd5	-0.13220693
5	0xf6	0.17942369
6	0x5b	1.1332022
7	0x3a	0.82157165
8	0xf6	0.17942369
9	0xd5	-0.13220693
10	0x3a	0.82157165
11	0x5b	1.1332022
12	0xfc	0.2360838
13	0xc5	-0.28330055
14	0x33	0.75546813
15	0x6a	1.2748525
16	0xe4	0.009443352
17	0xe4	0.009443352
18	0x4c	0.99155194
19	0x4c	0.99155194

model/conv2d_8/Conv2D i1 [20, 3, 3, 32]
0	0x00	0
1	0x00	0
2	0x00	0
3	0x00	0
4	0x00	0
5	0x00	0
6	0x00	0
7	0x00	0
8	0x00	0
9	0x00	0
10	0x00	0
11	0x00	0
12	0x00	0
13	0x00	0
14	0x00	0
15	0x00	0
16	0x00	0
17	0x00	0
18	0x00	0
19	0x00	0
20	0x00	0
21	0x00	0
22	0x00	0
23	0x00	0
24	0x00	0
25	0x00	0
26	0x00	0
27	0x00	0
28	0x00	0
29	0x00	0
30	0x00	0
31	0x00	0
32	0x00	0
33	0x00	0
34	0x00	0
35	0x00	0
36	0x00	0
37	0x00	0
38	0x00	0
39	0x00	0
40	0x00	0
41	0x00	0
42	0x00	0
43	0x00	0
44	0x00	0
45	0x00	0
46	0x00	0
47	0x00	0
48	0x00	0
49	0x00	0
50	0x00	0
51	0x00	0
52	0x00	0
53	0x00	0
54	0x00	0
55	0x00	0
56	0x00	0
57	0x00	0
58	0x00	0
59	0x00	0
60	0x00	0
61	0x00	0
62	0x00	0
63	0x00	0
64	0x00	0
65	0x00	0
66	0x00	0
67	0x00	0
68	0x00	0
69	0x00	0
70	0x00	0
71	0x00	0
72	0x00	0
73	0x00	0
74	0x00	0
75	0x00	0
76	0x00	0
77	0x00	0
78	0x00	0
79	0x00	0
80	0x00	0
81	0x00	0
82	0x00	0
83	0x00	0
84	0x00	0
85	0x00	0
86	0x00	0
87	0x00	0
88	0x00	0
89	0x00	0
90	0x00	0
91	0x00	0
92	0x00	0
93	0x00	0
94	0x00	0
95	0x00	0
96	0x00	0
97	0x00	0
98	0x00	0
99	0x00	0
100	0x00	0
101	0x00	0
102	0x00	0
103	0x00	0
104	0x00	0
105	0x00	0
106	0x00	0
107	0x00	0
108	0x00	0
109	0x00	0
110	0x00	0
111	0x00	0
112	0x00	0
113	0x00	0
114	0x00	0
115	0x00	0
116	0x00	0
117	0x00	0
118	0x00	0
119	0x00	0
120	0x00	0
121	0x00	0
122	0x00	0
123	0x00	0
124	0x00	0
125	0x00	0
126	0x00	0
127	0x00	0
128	0xf3	-13
129	0xa7	-89
130	0xe2	-30
131	0x55	85
132	0xff	-1
133	0x81	-127
134	0x12	18
135	0x08	8
136	0xef	-17
137	0xfc	-4
138	0x84	-124
139	0x33	51
140	0xfe	-2
141	0x2c	44
142	0xfb	-5
143	0x70	112
144	0x5c	92
145	0xe8	-24
146	0xf2	-14
147	0x11	17
148	0x00	0
149	0xca	-54
150	0x13	19
151	0xf5	-11
152	0xea	-22
153	0xbc	-68
154	0xec	-20
155	0xc4	-60
156	0x0c	12
157	0x2b	43
158	0x02	2
159	0xfd	-3
160	0x00	0
161	0x00	0
162	0x00	0
163	0x00	0
164	0x00	0
165	0x00	0
166	0x00	0
167	0x00	0
168	0x00	0
169	0x00	0
170	0x00	0
171	0x00	0
172	0x00	0
173	0x00	0
174	0x00	0
175	0x00	0
176	0x00	0
177	0x00	0
178	0x00	0
179	0x00	0
180	0x00	0
181	0x00	0
182	0x00	0
183	0x00	0
184	0x00	0
185	0x00	0
186	0x00	0
187	0x00	0
188	0x00	0
189	0x00	0
190	0x00	0
191	0x00	0
192	0x00	0
193	0x00	0
194	0x00	0
195	0x00	0
196	0x00	0
197	0x00	0
198	0x00	0
199	0x00	0
200	0x00	0
201	0x00	0
202	0x00	0
203	0x00	0
204	0x00	0
205	0x00	0
206	0x00	0
207	0x00	0
208	0x00	0
209	0x00	0
210	0x00	0
211	0x00	0
212	0x00	0
213	0x00	0
214	0x00	0
215	0x00	0
216	0x00	0
217	0x00	0
218	0x00	0
219	0x00	0
220	0x00	0
221	0x00	0
222	0x00	0
223	0x00	0
224	0x00	0
225	0x00	0
226	0x00	0
227	0x00	0
228	0x00	0
229	0x00	0
230	0x00	0
231	0x00	0
232	0x00	0
233	0x00	0
234	0x00	0
235	0x00	0
236	0x00	0
237	0x00	0
238	0x00	0
239	0x00	0
240	0x00	0
241	0x00	0
242	0x00	0
243	0x00	0
244	0x00	0
245	0x00	0
246	0x00	0
247	0x00	0
248	0x00	0
249	0x00	0
250	0x00	0
251	0x00	0
252	0x00	0
253	0x00	0
254	0x00	0
255	0x00	0

model/conv2d_7/Conv2D i1 [10, 3, 3, 32]
0	0x00	0
1	0x00	0
2	0x00	0
3	0x00	0
4	0x00	0
5	0x00	0
6	0x00	0
7	0x00	0
8	0x00	0
9	0x00	0
10	0x00	0
11	0x00	0
12	0x00	0
13	0x00	0
14	0x00	0
15	0x00	0
16	0x00	0
17	0x00	0
18	0x00	0
19	0x00	0
20	0x00	0
21	0x00	0
22	0x00	0
23	0x00	0
24	0x00	0
25	0x00	0
26	0x00	0
27	0x00	0
28	0x00	0
29	0x00	0
30	0x00	0
31	0x00	0
32	0x00	0
33	0x00	0
34	0x00	0
35	0x00	0
36	0x00	0
37	0x00	0
38	0x00	0
39	0x00	0
40	0x00	0
41	0x00	0
42	0x00	0
43	0x00	0
44	0x00	0
45	0x00	0
46	0x00	0
47	0x00	0
48	0x00	0
49	0x00	0
50	0x00	0
51	0x00	0
52	0x00	0
53	0x00	0
54	0x00	0
55	0x00	0
56	0x00	0
57	0x00	0
58	0x00	0
59	0x00	0
60	0x00	0
61	0x00	0
62	0x00	0
63	0x00	0
64	0x00	0
65	0x00	0
66	0x00	0
67	0x00	0
68	0x00	0
69	0x00	0
70	0x00	0
71	0x00	0
72	0x00	0
73	0x00	0
74	0x00	0
75	0x00	0
76	0x00	0
77	0x00	0
78	0x00	0
79	0x00	0
80	0x00	0
81	0x00	0
82	0x00	0
83	0x00	0
84	0x00	0
85	0x00	0
86	0x00	0
87	0x00	0
88	0x00	0
89	0x00	0
90	0x00	0
91	0x00	0
92	0x00	0
93	0x00	0
94	0x00	0
95	0x00	0
96	0x00	0
97	0x00	0
98	0x00	0
99	0x00	0
100	0x00	0
101	0x00	0
102	0x00	0
103	0x00	0
104	0x00	0
105	0x00	0
106	0x00	0
107	0x00	0
108	0x00	0
109	0x00	0
110	0x00	0
111	0x00	0
112	0x00	0
113	0x00	0
114	0x00	0
115	0x00	0
116	0x00	0
117	0x00	0
118	0x00	0
119	0x00	0
120	0x00	0
121	0x00	0
122	0x00	0
123	0x00	0
124	0x00	0
125	0x00	0
126	0x00	0
127	0x00	0
128	0x28	40
129	0x07	7
130	0x2a	42
131	0x15	21
132	0x1c	28
133	0xdd	-35
134	0xb8	-72
135	0x05	5
136	0x11	17
137	0xf7	-9
138	0x1f	31
139	0xe3	-29
140	0xca	-54
141	0xde	-34
142	0x0e	14
143	0xf6	-10
144	0x5b	91
145	0xef	-17
146	0x0b	11
147	0xeb	-21
148	0x03	3
149	0x0b	11
150	0x02	2
151	0x02	2
152	0xfe	-2
153	0x0b	11
154	0x24	36
155	0x7f	127
156	0xed	-19
157	0xea	-22
158	0xe2	-30
159	0x16	22
160	0x00	0
161	0x00	0
162	0x00	0
163	0x00	0
164	0x00	0
165	0x00	0
166	0x00	0
167	0x00	0
168	0x00	0
169	0x00	0
170	0x00	0
171	0x00	0
172	0x00	0
173	0x00	0
174	0x00	0
175	0x00	0
176	0x00	0
177	0x00	0
178	0x00	0
179	0x00	0
180	0x00	0
181	0x00	0
182	0x00	0
183	0x00	0
184	0x00	0
185	0x00	0
186	0x00	0
187	0x00	0
188	0x00	0
189	0x00	0
190	0x00	0
191	0x00	0
192	0x00	0
193	0x00	0
194	0x00	0
195	0x00	0
196	0x00	0
197	0x00	0
198	0x00	0
199	0x00	0
200	0x00	0
201	0x00	0
202	0x00	0
203	0x00	0
204	0x00	0
205	0x00	0
206	0x00	0
207	0x00	0
208	0x00	0
209	0x00	0
210	0x00	0
211	0x00	0
212	0x00	0
213	0x00	0
214	0x00	0
215	0x00	0
216	0x00	0
217	0x00	0
218	0x00	0
219	0x00	0
220	0x00	0
221	0x00	0
222	0x00	0
223	0x00	0
224	0x00	0
225	0x00	0
226	0x00	0
227	0x00	0
228	0x00	0
229	0x00	0
230	0x00	0
231	0x00	0
232	0x00	0
233	0x00	0
234	0x00	0
235	0x00	0
236	0x00	0
237	0x00	0
238	0x00	0
239	0x00	0
240	0x00	0
241	0x00	0
242	0x00	0
243	0x00	0
244	0x00	0
245	0x00	0
246	0x00	0
247	0x00	0
248	0x00	0
249	0x00	0
250	0x00	0
251	0x00	0
252	0x00	0
253	0x00	0
254	0x00	0
255	0x00	0
