quantized_model.tflite (tflite, 594800 bytes, 51 tensors)

model/conv1/Conv2D i1 [8, 3, 3, 3]
78 -122 45 15 -70 63 -54 23
27 32 -87 58 -85 0 80 -127
91 41 -31 11 15 -121 82 41
-100 80 21 0 0 0 0 0
0 0 0 0 0 0 0 0
0 0 0 0 0 0 0 0
0 0 0 0 0 0 -19 -36
-1 19 -10 12 15 26 18 12
3 13 60 42 27 120 127 47
-19 -11 -2 25 6 13 72 38
11 15 32 20 -41 -60 -45 10
23 18 48 61 20 -109 -127 -34
38 50 8 27 12 -3 -73 -47
-4 30 24 11 -125 -126 -126 -126
-127 -126 -125 -126 -126 -126 -126 -125
-125 -126 -127 -125 -126 -125 -125 -126
-125 -125 -126 -126 -125 -126 -126 -78
-86 -23 -110 -127 -36 -61 -58 -18
13 28 9 -37 -5 -9 -6 31
1 29 19 3 18 28 -4 23
39 -1 0 0 0 0 0 0
0 0 0 0 0 0 0 0
0 0 0 0 0 0 0 0
0 0 0 0 0 -88 83 2
-70 73 15 3 37 -29 -124 127
13 -99 78 -6 -45 46 -11 -9
47 -50 -3 45 -40 -18 53 -25
00000000: 4e86 2d0f ba3f ca17 1b20 a93a ab00 5081
00000010: 5b29 e10b 0f87 5229 9c50 1500 0000 0000
00000020: 0000 0000 0000 0000 0000 0000 0000 0000
00000030: 0000 0000 0000 eddc ff13 f60c 0f1a 120c
00000040: 030d 3c2a 1b78 7f2f edf5 fe19 060d 4826
00000050: 0b0f 2014 d7c4 d30a 1712 303d 1493 81de
00000060: 2632 081b 0cfd b7d1 fc1e 180b 8382 8282
00000070: 8182 8382 8282 8283 8382 8183 8283 8382
00000080: 8383 8282 8382 82b2 aae9 9281 dcc3 c6ee
00000090: 0d1c 09db fbf7 fa1f 011d 1303 121c fc17
000000a0: 27ff 0000 0000 0000 0000 0000 0000 0000
000000b0: 0000 0000 0000 0000 0000 0000 00a8 5302
000000c0: ba49 0f03 25e3 847f 0d9d 4efa d32e f5f7
000000d0: 2fce fd2d d8ee 35e7

model/conv_dw_1_bn/FusedBatchNormV3;model/conv_dw_1/depthwise i1 [1, 3, 3, 8]
94 -111 -1 -10 -85 -19 -92 13
-97 -97 13 -25 75 -37 -127 -37
-13 -127 0 -10 95 1 -37 9
-45 40 -127 9 127 127 -120 4
-56 -92 -12 127 27 124 -88 127
59 -97 9 -21 112 -45 -10 -76
-49 -95 29 -11 36 17 -56 -24
107 -97 10 -63 60 6 -78 -34
127 -111 -2 5 4 -13 -68 -73
00000000: 5e91 fff6 abed a40d 9f9f 0de7 4bdb 81db
00000010: f381 00f6 5f01 db09 d328 8109 7f7f 8804
00000020: c8a4 f47f 1b7c a87f 3b9f 09eb 70d3 f6b4
00000030: cfa1 1df5 2411 c8e8 6b9f 0ac1 3c06 b2de
00000040: 7f91 fe05 04f3 bcb7

model/conv_pw_1/Conv2D i1 [16, 1, 1, 8]
-127 -2 2 -8 -3 -1 0 107
1 -2 21 10 -1 -127 0 -11
127 2 -1 -1 -1 5 0 55
-4 16 127 16 -3 76 0 -5
-12 -5 -127 -11 1 -96 0 -65
11 -1 127 -4 1 11 0 18
-2 -3 7 -127 0 -10 0 -3
4 0 127 14 -1 -25 0 54
5 -2 -127 -18 0 -116 0 -32
0 0 0 0 0 0 0 0
18 8 127 21 -2 109 0 34
-12 0 96 127 0 66 0 -107
86 0 1 3 2 -3 0 -127
0 11 -75 -6 2 -127 0 -39
22 0 -127 -19 1 -85 0 5
2 7 127 23 -3 121 0 41
00000000: 81fe 02f8 fdff 006b 01fe 150a ff81 00f5
00000010: 7f02 ffff ff05 0037 fc10 7f10 fd4c 00fb
00000020: f4fb 81f5 01a0 00bf 0bff 7ffc 010b 0012
00000030: fefd 0781 00f6 00fd 0400 7f0e ffe7 0036
00000040: 05fe 81ee 008c 00e0 0000 0000 0000 0000
00000050: 1208 7f15 fe6d 0022 f400 607f 0042 0095
00000060: 5600 0103 02fd 0081 000b b5fa 0281 00d9
00000070: 1600 81ed 01ab 0005 0207 7f17 fd79 0029

model/conv_dw_2_bn/FusedBatchNormV3;model/conv_dw_2/depthwise i1 [1, 3, 3, 16]
37 8 -127 -90 31 31 57 30
0 -17 -6 -19 -127 20 22 127
75 99 -32 -9 -127 -92 71 82
-76 75 -3 3 -59 -10 34 -109
25 32 10 -38 96 -56 22 26
-88 54 21 -66 5 29 10 -87
24 -12 -29 -13 28 -40 106 -52
-104 16 -26 -52 -107 -30 49 100
127 -127 34 -17 -44 -120 127 -127
115 18 127 -116 -93 -84 127 -77
82 -30 38 2 12 -127 35 -62
127 127 -114 -121 -26 -41 34 26
50 9 7 127 10 13 54 28
-44 37 -16 -127 12 -19 9 18
64 17 32 13 -22 -57 68 43
104 27 34 25 -58 127 36 9
64 3 -3 27 14 -117 18 28
-28 92 -19 25 -32 8 21 -13
00000000: 2508 81a6 1f1f 391e 00ef faed 8114 167f
00000010: 4b63 e0f7 81a4 4752 b44b fd03 c5f6 2293
00000020: 1920 0ada 60c8 161a a836 15be 051d 0aa9
00000030: 18f4 e3f3 1cd8 6acc 9810 e6cc 95e2 3164
00000040: 7f81 22ef d488 7f81 7312 7f8c a3ac 7fb3
00000050: 52e2 2602 0c81 23c2 7f7f 8e87 e6d7 221a
00000060: 3209 077f 0a0d 361c d425 f081 0ced 0912
00000070: 4011 200d eac7 442b 681b 2219 c67f 2409
00000080: 4003 fd1b 0e8b 121c e45c ed19 e008 15f3

model/conv_pw_2/Conv2D i1 [32, 1, 1, 16]
-5 27 1 29 112 14 -6 -25
-56 0 23 1 14 10 43 127
14 -38 2 95 -16 -10 -6 28
-52 0 21 2 -21 -51 -127 30
16 1 18 -2 -9 -32 -4 2
-36 0 -14 -1 -15 -12 -127 -39
-1 -3 10 -1 -4 -2 127 6
-16 0 16 0 3 -3 5 7
-9 -6 1 10 -75 -9 4 2
71 0 -127 0 9 11 7 98
-23 -127 3 18 25 -9 -27 -42
50 0 -25 -1 5 -100 2 -11
0 0 0 0 0 0 0 0
0 0 0 0 0 0 0 0
-22 -127 -8 -12 15 8 -9 82
51 0 -45 -1 12 -16 -2 -33
6 4 -10 0 0 25 3 -4
2 0 -4 1 20 4 127 9
-25 8 5 4 17 59 -9 -3
17 0 22 0 5 4 127 42
5 -1 -9 -33 3 -10 7 4
-91 0 3 0 -29 -4 -34 -127
0 0 0 0 0 0 0 0
0 0 0 0 0 0 0 0
0 45 -26 16 22 -10 29 127
17 0 -6 -2 7 105 -10 -34
-6 0 -9 5 -127 0 -6 -2
28 0 -103 -1 2 9 -4 61
23 -2 -5 127 -20 -18 -22 -29
-100 0 7 0 -22 -30 5 78
19 -6 -11 -14 -127 36 11 4
-21 0 8 0 -7 -6 -6 67
00000000: fb1b 011d 700e fae7 c800 1701 0e0a 2b7f
00000010: 0eda 025f f0f6 fa1c cc00 1502 ebcd 811e
00000020: 1001 12fe f7e0 fc02 dc00 f2ff f1f4 81d9
00000030: fffd 0aff fcfe 7f06 f000 1000 03fd 0507
00000040: f7fa 010a b5f7 0402 4700 8100 090b 0762
00000050: e981 0312 19f7 e5d6 3200 e7ff 059c 02f5
00000060: 0000 0000 0000 0000 0000 0000 0000 0000
00000070: ea81 f8f4 0f08 f752 3300 d3ff 0cf0 fedf
00000080: 0604 f600 0019 03fc 0200 fc01 1404 7f09
00000090: e708 0504 113b f7fd 1100 1600 0504 7f2a
000000a0: 05ff f7df 03f6 0704 a500 0300 e3fc de81
000000b0: 0000 0000 0000 0000 0000 0000 0000 0000
000000c0: 002d e610 16f6 1d7f 1100 fafe 0769 f6de
000000d0: fa00 f705 8100 fafe 1c00 99ff 0209 fc3d
000000e0: 17fe fb7f ecee eae3 9c00 0700 eae2 054e
000000f0: 13fa f5f2 8124 0b04 eb00 0800 f9fa fa43

model/conv_dw_3_bn/FusedBatchNormV3;model/conv_dw_3/depthwise;model/conv2d_6/Conv2D i1 [1, 3, 3, 32]
-2 12 15 -9 12 -3 -77 13
5 -6 8 -87 0 -12 -6 8
-127 70 19 -3 -17 -5 0 -8
44 -5 4 -107 -5 21 -9 -13
8 119 -20 59 -93 -3 -127 -32
127 31 -16 -67 -3 17 -72 17
-103 0 7 7 121 2 -3 6
-66 6 -7 -72 19 26 13 127
-2 26 5 -20 8 -7 39 12
13 -27 13 -90 -3 -3 -23 12
-52 -37 16 -5 -12 2 1 -7
43 -5 2 -127 -3 13 3 6
-127 -7 127 3 3 -2 46 53
-25 127 4 -64 -40 13 3 2
-7 127 22 -3 20 127 6 -1
-64 -15 -127 32 14 -32 23 -8
113 -127 -104 127 127 127 11 -78
-47 115 -125 -127 127 127 127 -127
-71 9 -127 127 -127 -113 127 127
-127 70 2 -84 -127 -127 120 -93
15 -35 -26 -15 0 14 38 23
-21 -67 127 -54 -23 14 22 -11
-31 -27 20 3 12 -12 10 6
-51 21 126 22 1 -33 -127 -15
-26 -4 -11 -16 -19 -5 4 -87
19 8 6 -67 1 0 -6 -5
-49 -58 12 -7 5 1 -4 -5
38 27 -4 -23 -10 5 -6 18
26 9 2 5 -35 12 -22 127
-75 36 -20 -90 0 -2 -21 92
-28 -19 20 4 -16 -7 21 -13
-97 -127 -7 -68 83 117 -18 -29
00000000: fe0c 0ff7 0cfd b30d 05fa 08a9 00f4 fa08
00000010: 8146 13fd effb 00f8 2cfb 0495 fb15 f7f3
00000020: 0877 ec3b a3fd 81e0 7f1f f0bd fd11 b811
00000030: 9900 0707 7902 fd06 be06 f9b8 131a 0d7f
00000040: fe1a 05ec 08f9 270c 0de5 0da6 fdfd e90c
00000050: ccdb 10fb f402 01f9 2bfb 0281 fd0d 0306
00000060: 81f9 7f03 03fe 2e35 e77f 04c0 d80d 0302
00000070: f97f 16fd 147f 06ff c0f1 8120 0ee0 17f8
00000080: 7181 987f 7f7f 0bb2 d173 8381 7f7f 7f81
00000090: b909 817f 818f 7f7f 8146 02ac 8181 78a3
000000a0: 0fdd e6f1 000e 2617 ebbd 7fca e90e 16f5
000000b0: e1e5 1403 0cf4 0a06 cd15 7e16 01df 81f1
000000c0: e6fc f5f0 edfb 04a9 1308 06bd 0100 fafb
000000d0: cfc6 0cf9 0501 fcfb 261b fce9 f605 fa12
000000e0: 1a09 0205 dd0c ea7f b524 eca6 00fe eb5c
000000f0: e4ed 1404 f0f9 15f3 9f81 f9bc 5375 eee3

model/conv_pw_3/Conv2D i1 [32, 1, 1, 32]
0 -63 3 -71 -8 -108 0 4
-72 5 2 0 5 -10 -34 -27
0 36 -68 -127 -4 8 -21 -80
59 -3 0 0 6 -17 12 -31
-19 -9 -31 -32 -14 -27 0 39
10 -9 -26 6 15 -68 8 59
0 0 -24 -19 -49 -125 -2 -15
-20 127 1 0 -12 34 91 -9
-5 7 49 -33 65 -32 0 -20
-12 10 26 -2 38 25 -7 72
0 -5 -14 -52 17 -39 -52 -7
2 -127 2 0 17 -25 -67 9
-92 -17 40 -24 4 2 0 1
1 1 8 -1 -3 104 -18 52
0 3 -12 -26 -31 124 127 -10
5 -4 -5 0 0 -5 -8 -3
2 8 3 -3 0 18 0 -2
127 3 0 -1 5 3 18 -2
0 -8 12 12 -4 0 6 8
13 4 0 0 1 -15 1 -26
1 24 -1 -9 -2 -21 0 -18
-127 -8 -2 0 -25 -6 7 4
0 3 -3 -16 1 17 -6 -2
0 -18 5 0 -9 21 4 28
-2 127 -3 0 -45 29 0 -9
43 -33 20 -1 1 1 46 -76
0 -11 6 4 -46 0 -3 7
6 -40 6 0 -47 104 20 -102
-1 -6 0 -4 -2 -1 0 -1
-3 4 -3 -1 -1 1 -1 -1
0 -1 127 -1 -4 -1 -2 0
-5 0 1 0 -2 2 1 1
00000000: 00c1 03b9 f894 0004 b805 0200 05f6 dee5
00000010: 0024 bc81 fc08 ebb0 3bfd 0000 06ef 0ce1
00000020: edf7 e1e0 f2e5 0027 0af7 e606 0fbc 083b
00000030: 0000 e8ed cf83 fef1 ec7f 0100 f422 5bf7
00000040: fb07 31df 41e0 00ec f40a 1afe 2619 f948
00000050: 00fb f2cc 11d9 ccf9 0281 0200 11e7 bd09
00000060: a4ef 28e8 0402 0001 0101 08ff fd68 ee34
00000070: 0003 f4e6 e17c 7ff6 05fc fb00 00fb f8fd
00000080: 0208 03fd 0012 00fe 7f03 00ff 0503 12fe
00000090: 00f8 0c0c fc00 0608 0d04 0000 01f1 01e6
000000a0: 0118 fff7 feeb 00ee 81f8 fe00 e7fa 0704
000000b0: 0003 fdf0 0111 fafe 00ee 0500 f715 041c
000000c0: fe7f fd00 d31d 00f7 2bdf 14ff 0101 2eb4
000000d0: 00f5 0604 d200 fd07 06d8 0600 d168 149a
000000e0: fffa 00fc feff 00ff fd04 fdff ff01 ffff
000000f0: 00ff 7fff fcff fe00 fb00 0100 fe02 0101

model/conv_dw_4_bn/FusedBatchNormV3;model/conv_dw_4/depthwise;model/conv2d_6/Conv2D i1 [1, 3, 3, 32]
72 40 -61 -47 -47 -39 -52 -53
76 -63 73 47 53 62 64 -55
61 55 71 53 -63 76 57 -55
-127 62 -56 68 61 71 86 55
97 86 -101 -89 -75 -42 -82 -70
123 -88 100 69 90 91 94 -70
83 95 118 82 -95 127 88 -99
-88 88 -90 91 84 93 10 93
22 51 -57 -44 -29 -13 -48 -34
51 -44 42 35 55 43 42 -36
42 52 50 49 -41 64 51 -60
-24 25 -42 40 35 32 -96 49
-127 77 -85 -74 -87 27 -83 -83
57 -74 90 85 77 78 78 -64
82 72 58 81 -74 73 73 -78
0 81 -72 78 83 79 108 80
-123 127 -127 -127 -127 46 -127 -127
127 -127 127 127 127 127 127 -127
127 127 127 127 -127 112 127 -127
90 127 -127 127 127 127 -1 127
-30 70 -58 -69 -57 9 -73 -55
66 -71 63 60 72 55 62 -65
60 62 77 66 -56 57 71 -69
61 51 -63 66 65 57 -127 77
68 43 -37 -33 -28 98 -42 -41
-2 -26 49 41 35 34 26 -94
30 32 2 42 -29 6 35 -35
-8 27 -33 24 36 15 46 36
85 62 -48 -57 -47 127 -66 -61
33 -60 76 66 55 45 51 -96
54 51 22 57 -47 4 63 -49
60 53 -57 48 70 36 1 63
00000000: 4828 c3d1 d1d9 cccb 4cc1 492f 353e 40c9
00000010: 3d37 4735 c14c 39c9 813e c844 3d47 5637
00000020: 6156 9ba7 b5d6 aeba 7ba8 6445 5a5b 5eba
00000030: 535f 7652 a17f 589d a858 a65b 545d 0a5d
00000040: 1633 c7d4 e3f3 d0de 33d4 2a23 372b 2adc
00000050: 2a34 3231 d740 33c4 e819 d628 2320 a031
00000060: 814d abb6 a91b adad 39b6 5a55 4d4e 4ec0
00000070: 5248 3a51 b649 49b2 0051 b84e 534f 6c50
00000080: 857f 8181 812e 8181 7f81 7f7f 7f7f 7f81
00000090: 7f7f 7f7f 8170 7f81 5a7f 817f 7f7f ff7f
000000a0: e246 c6bb c709 b7c9 42b9 3f3c 4837 3ebf
000000b0: 3c3e 4d42 c839 47bb 3d33 c142 4139 814d
000000c0: 442b dbdf e462 d6d7 fee6 3129 2322 1aa2
000000d0: 1e20 022a e306 23dd f81b df18 240f 2e24
000000e0: 553e d0c7 d17f bec3 21c4 4c42 372d 33a0
000000f0: 3633 1639 d104 3fcf 3c35 c730 4624 013f

model/conv_pw_4/Conv2D i1 [64, 1, 1, 32]
29 4 12 8 -3 7 -89 4
-4 6 0 127 8 -26 -11 4
-3 -10 6 21 9 14 1 7
-7 -9 -16 29 -2 -23 -23 -13
-24 10 11 -11 -7 54 -30 18
-74 -2 1 -6 6 -18 -8 5
0 -16 -127 -1 2 2 -55 -43
15 -11 -1 18 1 14 48 1
17 7 10 12 -127 -99 -41 0
14 -17 17 8 64 2 -21 -3
-3 -2 9 6 23 0 1 24
-10 -1 13 -8 -1 10 1 52
-11 -13 -9 0 -127 -48 18 -6
5 25 -2 -37 89 -5 6 4
3 -3 -8 7 0 12 -46 30
28 -4 1 -1 -7 21 10 92
-3 6 -1 7 -2 13 -1 -1
-127 0 -10 -1 1 4 2 3
-3 0 55 5 -1 2 -1 -4
-1 -17 2 -2 3 -8 8 0
11 91 -86 1 6 8 42 -4
1 127 2 -53 78 9 -45 -9
4 -26 13 46 17 17 -31 -16
17 12 -7 -55 -120 -6 -3 -119
6 -39 35 59 -40 -51 15 68
42 54 57 30 -4 -36 -59 -1
-2 -127 11 -26 111 -29 -53 31
-22 -57 -11 -41 -44 -90 -4 -26
-10 -104 89 5 19 6 -19 20
-4 -118 -14 11 -100 5 8 -1
-4 5 5 -48 29 -11 34 49
11 -55 -3 53 90 2 -4 127
00000000: 1d04 0c08 fd07 a704 fc06 007f 08e6 f504
00000010: fdf6 0615 090e 0107 f9f7 f01d fee9 e9f3
00000020: e80a 0bf5 f936 e212 b6fe 01fa 06ee f805
00000030: 00f0 81ff 0202 c9d5 0ff5 ff12 010e 3001
00000040: 1107 0a0c 819d d700 0eef 1108 4002 ebfd
00000050: fdfe 0906 1700 0118 f6ff 0df8 ff0a 0134
00000060: f5f3 f700 81d0 12fa 0519 fedb 59fb 0604
00000070: 03fd f807 000c d21e 1cfc 01ff f915 0a5c
00000080: fd06 ff07 fe0d ffff 8100 f6ff 0104 0203
00000090: fd00 3705 ff02 fffc ffef 02fe 03f8 0800
000000a0: 0b5b aa01 0608 2afc 017f 02cb 4e09 d3f7
000000b0: 04e6 0d2e 1111 e1f0 110c f9c9 88fa fd89
000000c0: 06d9 233b d8cd 0f44 2a36 391e fcdc c5ff
000000d0: fe81 0be6 6fe3 cb1f eac7 f5d7 d4a6 fce6
000000e0: f698 5905 1306 ed14 fc8a f20b 9c05 08ff
000000f0: fc05 05d0 1df5 2231 0bc9 fd35 5a02 fc7f

model/conv_dw_5_bn/FusedBatchNormV3;model/conv_dw_5/depthwise;model/conv_dw_6/depthwise i1 [1, 3, 3, 64]
6 -3 29 -6 21 -7 54 34
5 -54 -18 -28 -3 35 1 -10
102 2 -14 -4 17 6 5 -76
-80 -7 -5 15 -2 -20 10 52
-2 1 13 127 1 127 28 20
4 -127 14 1 4 -58 -18 1
7 -2 0 74 -22 -17 -6 -3
-13 17 -9 22 18 3 35 34
-23 38 127 14 109 2 80 -17
1 116 -45 81 -14 -8 1 -26
40 -11 41 21 -39 23 -14 -29
-62 33 -68 -11 45 11 -10 61
-11 4 -31 -27 -5 -112 -127 127
-36 45 43 68 -49 35 81 -32
-23 -5 -70 -106 10 45 -4 -36
-33 -3 24 -14 -127 -23 -26 -68
2 27 13 -18 34 -2 37 -16
3 68 11 60 11 -49 -5 -9
-8 4 -11 -8 14 5 -1 47
13 -7 -4 14 -9 -15 7 -12
0 1 16 -95 -6 -38 27 23
8 97 2 -12 10 6 42 0
11 0 0 -4 -14 -25 -5 1
1 12 5 -19 -38 -2 -16 33
1 77 -8 17 -23 -8 -106 0
-7 -100 -18 -52 -20 -60 -3 0
36 -16 21 22 -66 43 -29 -43
-10 -5 -3 52 28 5 -62 -7
29 5 -31 -66 -28 -116 55 -32
-39 50 4 75 -45 36 -54 -59
-12 6 7 -50 3 30 2 -39
-88 19 47 118 84 -69 127 76
00000000: 06fd 1dfa 15f9 3622 05ca eee4 fd23 01f6
00000010: 6602 f2fc 1106 05b4 b0f9 fb0f feec 0a34
00000020: fe01 0d7f 017f 1c14 0481 0e01 04c6 ee01
00000030: 07fe 004a eaef fafd f311 f716 1203 2322
00000040: e926 7f0e 6d02 50ef 0174 d351 f2f8 01e6
00000050: 28f5 2915 d917 f2e3 c221 bcf5 2d0b f63d
00000060: f504 e1e5 fb90 817f dc2d 2b44 cf23 51e0
00000070: e9fb ba96 0a2d fcdc dffd 18f2 81e9 e6bc
00000080: 021b 0dee 22fe 25f0 0344 0b3c 0bcf fbf7
00000090: f804 f5f8 0e05 ff2f 0df9 fc0e f7f1 07f4
000000a0: 0001 10a1 fada 1b17 0861 02f4 0a06 2a00
000000b0: 0b00 00fc f2e7 fb01 010c 05ed dafe f021
000000c0: 014d f811 e9f8 9600 f99c eecc ecc4 fd00
000000d0: 24f0 1516 be2b e3d5 f6fb fd34 1c05 c2f9
000000e0: 1d05 e1be e48c 37e0 d932 044b d324 cac5
000000f0: f406 07ce 031e 02d9 a813 2f76 54bb 7f4c

model/conv_pw_5/Conv2D i1 [64, 1, 1, 64]
-85 -20 25 32 100 15 63 35
-6 73 -15 -16 1 -2 11 -9
11 93 5 -39 -69 -27 13 24
72 -3 -24 84 31 8 1 53
-127 -44 -63 24 -41 25 32 55
-37 73 -93 -44 0 35 40 -62
-12 52 90 17 15 20 -121 -8
86 33 -14 -23 38 -5 6 -5
-20 -23 26 -25 -2 -26 58 -27
6 1 7 -11 17 15 -6 8
8 3 -16 -12 -50 21 13 -11
-1 -7 28 -127 17 7 23 -23
-23 8 -53 -117 -12 -16 57 -63
29 -86 -41 -28 -11 27 -19 -30
-14 20 32 1 -17 -1 -18 7
-18 36 -23 -12 -24 -10 -17 -20
1 -1 -6 -11 -36 83 2 127
-8 -21 -66 10 -13 -6 -74 45
28 -13 -4 -14 -31 -29 -2 1
-6 -8 -14 48 -4 18 0 -29
-3 16 29 1 -5 -4 -27 5
6 -4 -20 -3 5 -17 61 -16
11 -18 -10 -1 -10 -13 -18 21
-23 -126 -3 28 -16 10 15 4
-6 -12 1 -7 -13 1 -1 4
7 -14 4 -8 -1 -3 -3 -3
-8 -6 -3 -4 -8 10 127 -8
-5 4 -7 -2 -7 -1 2 -2
4 -10 -1 -3 4 1 13 3
-11 -13 -10 16 -5 6 5 -5
-3 -10 -2 -1 -3 -1 -2 1
-8 18 0 1 -2 9 13 8
00000000: abec 1920 640f 3f23 fa49 f1f0 01fe 0bf7
00000010: 0b5d 05d9 bbe5 0d18 48fd e854 1f08 0135
00000020: 81d4 c118 d719 2037 db49 a3d4 0023 28c2
00000030: f434 5a11 0f14 87f8 5621 f2e9 26fb 06fb
00000040: ece9 1ae7 fee6 3ae5 0601 07f5 110f fa08
00000050: 0803 f0f4 ce15 0df5 fff9 1c81 1107 17e9
00000060: e908 cb8b f4f0 39c1 1daa d7e4 f51b ede2
00000070: f214 2001 efff ee07 ee24 e9f4 e8f6 efec
00000080: 01ff faf5 dc53 027f f8eb be0a f3fa b62d
00000090: 1cf3 fcf2 e1e3 fe01 faf8 f230 fc12 00e3
000000a0: fd10 1d01 fbfc e505 06fc ecfd 05ef 3df0
000000b0: 0bee f6ff f6f3 ee15 e982 fd1c f00a 0f04
000000c0: faf4 01f9 f301 ff04 07f2 04f8 fffd fdfd
000000d0: f8fa fdfc f80a 7ff8 fb04 f9fe f9ff 02fe
000000e0: 04f6 fffd 0401 0d03 f5f3 f610 fb06 05fb
000000f0: fdf6 feff fdff fe01 f812 0001 fe09 0d08

model/conv2d/Conv2D i1 [32, 1, 1, 64]
-6 1 24 4 100 -1 26 -2
34 42 56 -54 3 41 -33 -28
15 -13 38 59 -14 29 116 -42
-12 5 8 63 14 51 -26 7
77 23 -43 -30 -7 -29 -3 46
-39 45 48 -7 32 19 -8 80
127 11 37 -22 42 31 -3 -14
42 -8 25 50 41 48 32 9
-5 -18 -11 -30 4 127 11 -26
80 43 -24 -15 -23 72 -32 -74
15 4 -4 55 -34 7 45 5
20 -16 -14 -24 -12 35 11 -22
-24 24 3 -35 -3 0 -5 -11
-35 -40 -10 17 48 21 -35 69
-57 49 32 -30 30 -3 -19 -19
3 -27 -20 -14 18 -13 27 19
-29 7 20 9 -33 -58 3 -59
-12 33 -7 8 -3 -63 31 -33
-1 -34 -9 6 29 1 -53 4
6 16 24 33 -47 -32 -68 -9
-15 -88 3 -23 3 -15 0 127
37 -67 13 59 -36 12 37 -19
89 -59 -10 68 -29 62 -28 23
21 -50 18 1 -23 30 -8 -5
44 -13 -31 3 -96 34 -14 77
-30 -62 -107 30 -10 13 -88 62
-16 2 -38 -93 0 7 -119 83
85 47 -28 -23 -4 -36 17 6
-74 43 -35 -37 -35 -18 7 -127
-8 12 -72 -33 -58 63 22 -52
-76 -61 -116 -8 -3 -85 14 -7
-98 52 -40 5 -14 -20 -110 57
00000000: fa01 1804 64ff 1afe 222a 38ca 0329 dfe4
00000010: 0ff3 263b f21d 74d6 f405 083f 0e33 e607
00000020: 4d17 d5e2 f9e3 fd2e d92d 30f9 2013 f850
00000030: 7f0b 25ea 2a1f fdf2 2af8 1932 2930 2009
00000040: fbee f5e2 047f 0be6 502b e8f1 e948 e0b6
00000050: 0f04 fc37 de07 2d05 14f0 f2e8 f423 0bea
00000060: e818 03dd fd00 fbf5 ddd8 f611 3015 dd45
00000070: c731 20e2 1efd eded 03e5 ecf2 12f3 1b13
00000080: e307 1409 dfc6 03c5 f421 f908 fdc1 1fdf
00000090: ffde f706 1d01 cb04 0610 1821 d1e0 bcf7
000000a0: f1a8 03e9 03f1 007f 25bd 0d3b dc0c 25ed
000000b0: 59c5 f644 e33e e417 15ce 1201 e91e f8fb
000000c0: 2cf3 e103 a022 f24d e2c2 951e f60d a83e
000000d0: f002 daa3 0007 8953 552f e4e9 fcdc 1106
000000e0: b62b dddb ddee 0781 f80c b8df c63f 16cc
000000f0: b4c3 8cf8 fdab 0ef9 9e34 d805 f2ec 9239

model/conv_dw_6_bn/FusedBatchNormV3;model/conv_dw_6/depthwise i1 [1, 3, 3, 64]
-23 59 74 65 68 70 72 -73
99 25 65 53 -72 -125 61 -79
76 -72 -70 64 -54 70 -60 -65
-48 -56 72 72 -56 -71 63 65
-76 -98 -73 66 -73 59 65 -70
-55 -48 66 54 62 67 101 66
-38 -92 61 -68 -62 -91 -60 55
69 -104 61 -55 -67 75 -59 -65
-40 84 106 99 96 82 91 -95
127 -80 88 79 -88 6 96 48
92 92 -98 83 -84 96 -81 -93
-70 -82 99 107 50 -78 83 92
-96 59 -89 97 -91 94 93 -104
-78 -71 88 82 72 82 127 93
-89 -125 87 -95 -80 -127 -83 93
86 -127 92 -75 -87 98 -87 -79
-12 41 46 51 41 39 39 -40
57 63 55 40 -43 66 53 37
37 12 -33 38 -44 38 -33 -50
-45 -30 58 46 91 -29 35 44
-51 24 -26 45 -40 43 50 -68
-36 -23 45 36 28 37 61 45
-54 -56 38 -46 -37 -57 -41 40
47 -59 47 -33 -38 49 -34 -35
107 92 79 97 98 97 94 -100
-67 50 89 84 -94 -127 85 -127
102 -127 -89 100 -87 99 -98 -90
-15 -89 90 104 -71 -98 98 92
-96 -127 -96 94 -101 92 94 -107
-68 -92 99 88 83 95 -47 101
-69 -105 95 -108 -101 26 -83 79
102 20 93 -82 -100 92 -90 -87
00000000: e93b 4a41 4446 48b7 6319 4135 b883 3db1
00000010: 4cb8 ba40 ca46 c4bf d0c8 4848 c8b9 3f41
00000020: b49e b742 b73b 41ba c9d0 4236 3e43 6542
00000030: daa4 3dbc c2a5 c437 4598 3dc9 bd4b c5bf
00000040: d854 6a63 6052 5ba1 7fb0 584f a806 6030
00000050: 5c5c 9e53 ac60 afa3 baae 636b 32b2 535c
00000060: a03b a761 a55e 5d98 b2b9 5852 4852 7f5d
00000070: a783 57a1 b081 ad5d 5681 5cb5 a962 a9b1
00000080: f429 2e33 2927 27d8 393f 3728 d542 3525
00000090: 250c df26 d426 dfce d3e2 3a2e 5be3 232c
000000a0: cd18 e62d d82b 32bc dce9 2d24 1c25 3d2d
000000b0: cac8 26d2 dbc7 d728 2fc5 2fdf da31 dedd
000000c0: 6b5c 4f61 6261 5e9c bd32 5954 a281 5581
000000d0: 6681 a764 a963 9ea6 f1a7 5a68 b99e 625c
000000e0: a081 a05e 9b5c 5e95 bca4 6358 535f d165
000000f0: bb97 5f94 9b1a ad4f 6614 5dae 9c5c a6a9

model/conv_pw_6/Conv2D i1 [128, 1, 1, 64]
-33 35 -4 -3 28 -26 -19 17
-4 14 2 11 15 17 -3 -3
17 6 -3 -5 4 -5 3 5
-12 12 3 -6 46 -13 -6 23
-20 30 -5 -3 -1 -6 -6 6
-16 1 -11 0 9 3 16 22
-14 6 -2 -15 6 127 -20 -1
-38 -2 -6 -23 33 -12 26 -14
9 -7 -6 39 -54 -127 -25 -19
-5 -23 -31 6 -19 -12 -8 4
-3 9 -13 -17 -6 -12 12 -33
-12 -16 3 8 5 -2 16 -7
14 -25 57 6 36 18 -81 6
4 0 64 -3 -50 41 -13 -66
-31 3 -86 -15 -30 30 17 53
18 9 -38 24 42 3 71 -9
-5 -10 5 -2 -83 -101 7 -36
10 -29 13 -25 8 -51 26 18
2 -28 1 14 31 10 10 24
-21 12 25 5 -2 -127 -8 -1
-75 12 30 -23 18 -14 -35 -11
2 14 -20 12 7 1 1 1
-1 47 -26 20 48 11 6 -2
29 -46 -25 -8 -26 -7 -28 8
0 23 8 8 -12 26 5 -8
-3 -9 -18 12 1 4 8 2
-24 1 -12 17 -4 -6 0 -7
13 -6 -9 7 -8 -127 7 -9
30 3 -16 12 5 -11 -6 -14
-5 4 -10 4 3 -2 -7 -2
-14 17 5 -9 -15 6 5 12
-2 -12 -33 -3 0 8 3 3
00000000: df23 fcfd 1ce6 ed11 fc0e 020b 0f11 fdfd
00000010: 1106 fdfb 04fb 0305 f40c 03fa 2ef3 fa17
00000020: ec1e fbfd fffa fa06 f001 f500 0903 1016
00000030: f206 fef1 067f ecff dafe fae9 21f4 1af2
00000040: 09f9 fa27 ca81 e7ed fbe9 e106 edf4 f804
00000050: fd09 f3ef faf4 0cdf f4f0 0308 05fe 10f9
00000060: 0ee7 3906 2412 af06 0400 40fd ce29 f3be
00000070: e103 aaf1 e21e 1135 1209 da18 2a03 47f7
00000080: fbf6 05fe ad9b 07dc 0ae3 0de7 08cd 1a12
00000090: 02e4 010e 1f0a 0a18 eb0c 1905 fe81 f8ff
000000a0: b50c 1ee9 12f2 ddf5 020e ec0c 0701 0101
000000b0: ff2f e614 300b 06fe 1dd2 e7f8 e6f9 e408
000000c0: 0017 0808 f41a 05f8 fdf7 ee0c 0104 0802
000000d0: e801 f411 fcfa 00f9 0dfa f707 f881 07f7
000000e0: 1e03 f00c 05f5 faf2 fb04 f604 03fe f9fe
000000f0: f211 05f7 f106 050c fef4 dffd 0008 0303

model/conv_dw_7_bn/FusedBatchNormV3;model/conv_dw_7/depthwise;model/conv_dw_12/depthwise i1 [1, 3, 3, 128]
-9 -16 29 -29 7 53 -1 -8
-5 -2 2 -10 -4 -29 21 -9
11 5 0 3 31 -6 -2 3
-6 -8 5 53 -2 14 -34 -9
13 24 9 25 -5 25 8 -17
2 24 -15 19 -14 5 7 -28
1 -6 -3 -9 24 127 -5 29
7 3 -10 8 -38 22 21 28
-36 -23 13 31 -2 -28 11 -13
-14 83 8 0 4 2 -36 -12
23 5 -1 -2 1 6 -9 -6
-56 -30 -9 -1 -6 11 20 -9
8 4 -4 19 3 19 -7 18
-2 14 -30 8 25 0 -2 -8
16 -11 -1 42 1 -10 -7 -23
-1 23 7 0 9 -6 -9 17
-40 -7 127 -27 -23 127 12 -25
-16 -8 34 -25 42 -45 -80 -21
-27 25 -14 -4 0 -10 -14 -10
-11 -10 -25 127 -12 -7 -127 5
36 12 11 -14 -26 127 29 -7
-31 62 -63 127 26 7 6 -127
-25 -8 12 -13 -14 -24 -51 127
34 0 -11 31 -63 127 127 127
-12 15 26 -28 8 -111 16 -38
-22 127 -11 -20 -52 14 -11 -33
-13 6 -12 -13 5 2 -27 12
127 -59 -17 -3 9 8 -1 -14
5 3 1 127 38 39 -45 5
12 127 -122 -39 -7 -14 18 17
-18 -50 -42 123 15 -25 26 -127
-8 127 -12 -13 -16 -33 -2 31
00000000: f7f0 1de3 0735 fff8 fbfe 02f6 fce3 15f7
00000010: 0b05 0003 1ffa fe03 faf8 0535 fe0e def7
00000020: 0d18 0919 fb19 08ef 0218 f113 f205 07e4
00000030: 01fa fdf7 187f fb1d 0703 f608 da16 151c
00000040: dce9 0d1f fee4 0bf3 f253 0800 0402 dcf4
00000050: 1705 fffe 0106 f7fa c8e2 f7ff fa0b 14f7
00000060: 0804 fc13 0313 f912 fe0e e208 1900 fef8
00000070: 10f5 ff2a 01f6 f9e9 ff17 0700 09fa f711
00000080: d8f9 7fe5 e97f 0ce7 f0f8 22e7 2ad3 b0eb
00000090: e519 f2fc 00f6 f2f6 f5f6 e77f f4f9 8105
000000a0: 240c 0bf2 e67f 1df9 e13e c17f 1a07 0681
000000b0: e7f8 0cf3 f2e8 cd7f 2200 f51f c17f 7f7f
000000c0: f40f 1ae4 0891 10da ea7f f5ec cc0e f5df
000000d0: f306 f4f3 0502 e50c 7fc5 effd 0908 fff2
000000e0: 0503 017f 2627 d305 0c7f 86d9 f9f2 1211
000000f0: eece d67b 0fe7 1a81 f87f f4f3 f0df fe1f

model/conv_pw_7/Conv2D i1 [128, 1, 1, 128]
-57 -24 -6 -25 9 10 54 16
38 1 -40 43 -15 9 11 -2
-2 37 -4 -5 -58 -61 -5 -61
-14 62 -87 1 47 -7 -53 5
62 46 2 -30 14 0 18 -10
66 -113 -42 1 45 76 91 1
75 -10 -88 -3 5 18 127 6
57 -7 -17 49 14 -33 8 25
22 -67 60 -88 33 3 -10 -52
9 36 1 -46 -27 -1 -38 63
-50 11 5 14 -35 -64 -47 43
20 -4 23 27 -3 52 -18 -74
58 42 55 21 26 -30 -26 -32
-21 -30 4 -13 -1 58 -43 57
-23 -5 36 2 78 62 24 -14
0 -16 -91 6 -10 38 -56 85
15 -3 -5 6 7 13 -12 14
6 10 8 -3 -13 0 -11 5
-12 -4 11 7 10 8 20 -13
1 10 9 6 -16 -19 5 -7
20 3 -9 5 10 -7 -9 -15
15 -12 8 -11 -3 -10 6 3
1 -10 -21 28 16 -19 8 4
-8 0 25 -4 3 1 -8 14
10 12 -6 -1 8 0 10 -11
-12 -7 21 3 -2 3 -16 -11
1 6 -4 -36 -9 -8 -3 6
-2 9 8 -11 11 2 -17 5
3 -32 0 11 -3 5 -10 -14
6 11 8 -17 -4 9 -10 4
-127 4 3 7 21 2 -3 0
-13 -9 -3 4 8 -7 -15 4
00000000: c7e8 fae7 090a 3610 2601 d82b f109 0bfe
00000010: fe25 fcfb c6c3 fbc3 f23e a901 2ff9 cb05
00000020: 3e2e 02e2 0e00 12f6 428f d601 2d4c 5b01
00000030: 4bf6 a8fd 0512 7f06 39f9 ef31 0edf 0819
00000040: 16bd 3ca8 2103 f6cc 0924 01d2 e5ff da3f
00000050: ce0b 050e ddc0 d12b 14fc 171b fd34 eeb6
00000060: 3a2a 3715 1ae2 e6e0 ebe2 04f3 ff3a d539
00000070: e9fb 2402 4e3e 18f2 00f0 a506 f626 c855
00000080: 0ffd fb06 070d f40e 060a 08fd f300 f505
00000090: f4fc 0b07 0a08 14f3 010a 0906 f0ed 05f9
000000a0: 1403 f705 0af9 f7f1 0ff4 08f5 fdf6 0603
000000b0: 01f6 eb1c 10ed 0804 f800 19fc 0301 f80e
000000c0: 0a0c faff 0800 0af5 f4f9 1503 fe03 f0f5
000000d0: 0106 fcdc f7f8 fd06 fe09 08f5 0b02 ef05
000000e0: 03e0 000b fd05 f6f2 060b 08ef fc09 f604
000000f0: 8104 0307 1502 fd00 f3f7 fd04 08f9 f104

model/conv_dw_8_bn/FusedBatchNormV3;model/conv_dw_8/depthwise;model/conv_dw_12/depthwise i1 [1, 3, 3, 128]
31 -3 10 33 24 -2 9 12
2 3 -20 1 30 39 9 4
-27 -17 17 50 -1 -76 8 5
11 -17 2 13 -5 -48 14 11
-8 -12 -43 -6 -16 5 4 15
14 1 -15 13 -13 -15 8 -4
19 14 -8 -17 45 10 -11 -18
4 21 -5 11 43 -3 -23 -69
19 -26 8 -15 38 1 35 19
9 -6 11 -3 -10 -4 5 -28
7 -50 -3 -56 6 31 5 36
-4 7 -14 64 -7 -28 -3 -32
-10 3 -5 -51 2 -8 -2 7
4 7 10 1 -84 30 -9 6
20 31 5 18 -70 50 39 6
1 -2 11 8 8 -9 55 -15
115 -4 35 69 5 6 -5 23
-17 95 56 -79 127 127 8 22
-43 -43 84 -35 28 -84 -19 -12
29 -110 27 -4 -3 39 71 -3
-3 -50 -127 -7 -68 -3 0 -21
57 10 -32 -3 -21 4 -21 -98
127 18 -22 24 33 -19 -12 -64
27 125 -11 127 119 -7 -37 -33
2 -123 8 -4 127 2 -42 54
-24 11 39 -9 -12 -28 6 -28
-9 -51 -25 10 -25 127 -32 66
-2 7 -7 11 -17 26 79 -127
-13 1 -15 -24 7 -51 -9 127
43 -17 22 2 -94 18 -15 -2
42 38 -19 79 43 -36 -57 7
16 37 41 -47 45 -20 -13 -68
00000000: 1ffd 0a21 18fe 090c 0203 ec01 1e27 0904
00000010: e5ef 1132 ffb4 0805 0bef 020d fbd0 0e0b
00000020: f8f4 d5fa f005 040f 0e01 f10d f3f1 08fc
00000030: 130e f8ef 2d0a f5ee 0415 fb0b 2bfd e9bb
00000040: 13e6 08f1 2601 2313 09fa 0bfd f6fc 05e4
00000050: 07ce fdc8 061f 0524 fc07 f240 f9e4 fde0
00000060: f603 fbcd 02f8 fe07 0407 0a01 ac1e f706
00000070: 141f 0512 ba32 2706 01fe 0b08 08f7 37f1
00000080: 73fc 2345 0506 fb17 ef5f 38b1 7f7f 0816
00000090: d5d5 54dd 1cac edf4 1d92 1bfc fd27 47fd
000000a0: fdce 81f9 bcfd 00eb 390a e0fd eb04 eb9e
000000b0: 7f12 ea18 21ed f4c0 1b7d f57f 77f9 dbdf
000000c0: 0285 08fc 7f02 d636 e80b 27f7 f4e4 06e4
000000d0: f7cd e70a e77f e042 fe07 f90b ef1a 4f81
000000e0: f301 f1e8 07cd f77f 2bef 1602 a212 f1fe
000000f0: 2a26 ed4f 2bdc c707 1025 29d1 2dec f3bc

model/conv_pw_8/Conv2D i1 [128, 1, 1, 128]
1 24 -28 -54 -104 -82 57 20
-37 30 -8 -58 -43 81 64 95
-20 -11 -59 14 74 40 -44 -41
85 105 -31 -4 9 -22 -98 -77
-49 23 -51 44 4 72 -51 -33
-8 -50 53 -15 34 -33 -31 40
-24 -39 -52 64 40 -35 -42 -6
26 -2 34 -48 18 -54 -13 33
42 20 0 2 5 2 11 46
-22 -121 -4 70 101 39 -7 3
-2 -47 36 -30 -32 4 -89 -127
1 -58 -33 -38 111 52 39 38
-23 -12 11 1 103 7 27 -45
81 99 50 -47 45 -20 -43 20
-9 16 -55 -18 41 41 35 27
-38 -9 51 -42 4 -7 43 3
16 127 34 -20 -12 11 12 10
4 11 -21 -7 -12 -26 -11 4
23 -9 -16 7 10 -25 -7 36
3 10 -9 6 -20 -5 2 -77
-9 -32 5 -29 14 26 19 15
-37 -14 11 39 -22 1 -43 50
77 0 -49 -13 18 13 21 7
-6 -11 16 -4 40 -5 -14 8
6 -3 -106 8 -42 -35 -4 44
29 4 1 23 -5 88 21 13
-12 19 51 -6 2 20 -25 -10
-4 18 46 30 8 24 -27 -52
23 12 61 63 -40 -12 -1 -7
5 38 -6 -34 15 -2 7 23
-18 -4 -8 -18 8 -7 52 -12
-16 -8 -22 14 -23 -24 3 -15
00000000: 0118 e4ca 98ae 3914 db1e f8c6 d551 405f
00000010: ecf5 c50e 4a28 d4d7 5569 e1fc 09ea 9eb3
00000020: cf17 cd2c 0448 cddf f8ce 35f1 22df e128
00000030: e8d9 cc40 28dd d6fa 1afe 22d0 12ca f321
00000040: 2a14 0002 0502 0b2e ea87 fc46 6527 f903
00000050: fed1 24e2 e004 a781 01c6 dfda 6f34 2726
00000060: e9f4 0b01 6707 1bd3 5163 32d1 2dec d514
00000070: f710 c9ee 2929 231b daf7 33d6 04f9 2b03
00000080: 107f 22ec f40b 0c0a 040b ebf9 f4e6 f504
00000090: 17f7 f007 0ae7 f924 030a f706 ecfb 02b3
000000a0: f7e0 05e3 0e1a 130f dbf2 0b27 ea01 d532
000000b0: 4d00 cff3 120d 1507 faf5 10fc 28fb f208
000000c0: 06fd 9608 d6dd fc2c 1d04 0117 fb58 150d
000000d0: f413 33fa 0214 e7f6 fc12 2e1e 0818 e5cc
000000e0: 170c 3d3f d8f4 fff9 0526 fade 0ffe 0717
000000f0: eefc f8ee 08f9 34f4 f0f8 ea0e e9e8 03f1

model/conv_dw_9_bn/FusedBatchNormV3;model/conv_dw_9/depthwise;model/conv_dw_12/depthwise i1 [1, 3, 3, 128]
23 -37 -5 42 2 19 -6 9
-127 -3 -6 44 9 2 50 -2
23 -67 -75 -39 -4 6 37 56
-35 -66 -29 44 40 33 -124 8
43 1 10 10 11 -4 -48 -4
1 -6 -12 124 -1 -11 6 -11
50 -110 0 2 -34 12 -1 18
106 17 79 -20 -18 37 -57 -14
2 -3 6 21 -2 -60 -11 -14
7 -37 -25 -3 30 31 12 17
26 1 4 1 13 53 -8 -3
21 23 9 24 -3 16 -7 -8
9 127 -111 -11 -22 -4 -11 -19
28 -2 7 -11 23 113 10 -6
33 9 -22 -50 -14 127 -17 -6
-21 6 -35 -3 5 11 6 -12
83 -33 3 127 -13 23 -36 -6
87 -2 -20 99 37 -4 -13 10
2 -88 -86 -19 -37 5 127 1
19 -23 -73 127 65 56 -10 22
106 21 62 30 -20 -15 -7 9
-15 -22 -28 -45 -6 3 1 -32
-10 -121 -26 16 -74 18 -12 35
127 116 37 -12 -33 127 57 -15
-57 -17 15 104 -13 -109 -36 -11
10 -23 -127 -52 -37 127 31 111
62 -84 -1 -37 -14 88 -127 -52
-122 5 11 12 -31 -42 -21 -11
127 44 -127 11 12 -48 -20 3
-3 0 54 -55 -3 -44 19 -7
29 -84 127 -107 -2 35 -15 -9
-84 54 -89 -5 0 -5 9 -9
00000000: 17db fb2a 0213 fa09 81fd fa2c 0902 32fe
00000010: 17bd b5d9 fc06 2538 ddbe e32c 2821 8408
00000020: 2b01 0a0a 0bfc d0fc 01fa f47c fff5 06f5
00000030: 3292 0002 de0c ff12 6a11 4fec ee25 c7f2
00000040: 02fd 0615 fec4 f5f2 07db e7fd 1e1f 0c11
00000050: 1a01 0401 0d35 f8fd 1517 0918 fd10 f9f8
00000060: 097f 91f5 eafc f5ed 1cfe 07f5 1771 0afa
00000070: 2109 eace f27f effa eb06 ddfd 050b 06f4
00000080: 53df 037f f317 dcfa 57fe ec63 25fc f30a
00000090: 02a8 aaed db05 7f01 13e9 b77f 4138 f616
000000a0: 6a15 3e1e ecf1 f909 f1ea e4d3 fa03 01e0
000000b0: f687 e610 b612 f423 7f74 25f4 df7f 39f1
000000c0: c7ef 0f68 f393 dcf5 0ae9 81cc db7f 1f6f
000000d0: 3eac ffdb f258 81cc 8605 0b0c e1d6 ebf5
000000e0: 7f2c 810b 0cd0 ec03 fd00 36c9 fdd4 13f9
000000f0: 1dac 7f95 fe23 f1f7 ac36 a7fb 00fb 09f7

model/conv_pw_9/Conv2D i1 [128, 1, 1, 128]
16 42 35 14 -54 86 3 -53
52 67 77 -7 -71 -7 10 -28
25 -12 -33 29 -107 94 35 -76
-29 -21 -37 -42 -17 10 16 86
-4 25 -16 -9 -8 53 44 -15
-72 -28 55 18 93 39 -4 35
4 -25 119 -16 22 -35 42 4
-52 33 1 -30 -78 18 5 7
0 -55 -24 26 112 -12 36 58
-17 38 15 28 29 7 99 7
-4 29 31 -4 -46 94 71 -5
-21 -59 -19 36 15 -67 7 -30
-110 41 13 56 37 33 17 -1
8 -62 -62 -21 118 -52 34 6
-21 127 36 -20 -9 23 -79 -32
6 -53 60 32 34 37 -18 53
15 13 -22 -24 6 -14 -20 -13
-11 5 0 -60 -15 127 -23 82
-26 -16 2 63 35 31 -3 1
-16 15 -36 -20 -33 -7 12 31
-28 -2 9 -29 -29 7 11 12
13 -5 64 10 10 2 -39 33
-18 18 -25 3 22 4 0 14
-41 1 27 -19 23 5 -36 -4
7 -24 -38 24 -16 -72 -11 7
-12 -6 -21 -9 -9 -33 -6 -2
0 -16 13 -25 -42 -9 22 12
10 45 -12 -14 16 -24 44 -7
21 -8 1 6 -6 35 -26 3
11 -1 -19 40 2 7 29 -26
5 -8 -22 12 -17 9 -78 13
14 -36 -2 24 -78 -3 -35 48
00000000: 102a 230e ca56 03cb 3443 4df9 b9f9 0ae4
00000010: 19f4 df1d 955e 23b4 e3eb dbd6 ef0a 1056
00000020: fc19 f0f7 f835 2cf1 b8e4 3712 5d27 fc23
00000030: 04e7 77f0 16dd 2a04 cc21 01e2 b212 0507
00000040: 00c9 e81a 70f4 243a ef26 0f1c 1d07 6307
00000050: fc1d 1ffc d25e 47fb ebc5 ed24 0fbd 07e2
00000060: 9229 0d38 2521 11ff 08c2 c2eb 76cc 2206
00000070: eb7f 24ec f717 b1e0 06cb 3c20 2225 ee35
00000080: 0f0d eae8 06f2 ecf3 f505 00c4 f17f e952
00000090: e6f0 023f 231f fd01 f00f dcec dff9 0c1f
000000a0: e4fe 09e3 e307 0b0c 0dfb 400a 0a02 d921
000000b0: ee12 e703 1604 000e d701 1bed 1705 dcfc
000000c0: 07e8 da18 f0b8 f507 f4fa ebf7 f7df fafe
000000d0: 00f0 0de7 d6f7 160c 0a2d f4f2 10e8 2cf9
000000e0: 15f8 0106 fa23 e603 0bff ed28 0207 1de6
000000f0: 05f8 ea0c ef09 b20d 0edc fe18 b2fd dd30

model/conv_dw_10_bn/FusedBatchNormV3;model/conv_dw_10/depthwise;model/conv_dw_12/depthwise i1 [1, 3, 3, 128]
15 5 29 3 4 52 -56 -29
15 -3 88 67 -7 -52 39 46
4 20 -22 32 -93 3 -37 -56
56 -1 -30 33 73 -9 -11 -11
-3 -40 6 -69 -12 73 14 45
5 8 28 3 -30 12 10 3
1 39 -19 7 58 16 -4 -11
-7 -29 -3 -11 6 22 17 5
32 7 -8 -11 -7 5 1 15
21 0 -2 1 -25 9 -27 -112
-15 -6 -101 -127 15 -7 16 5
7 46 1 1 -4 114 18 26
3 2 12 -2 -77 3 -7 -108
20 39 2 3 13 30 116 10
-57 -5 8 0 46 2 7 7
4 50 -15 -85 -19 -4 5 -127
-13 16 -32 62 -16 127 -63 36
-44 -11 21 28 -5 -70 -45 127
-1 35 -29 42 -55 -2 -127 -71
98 -8 -126 85 127 -42 -23 10
-3 20 15 -57 -28 127 -6 62
-12 34 -4 -16 -127 38 28 -38
0 127 -127 42 -127 55 -16 -28
127 11 -125 44 7 9 10 4
58 -45 -42 -13 -38 14 14 -33
32 47 -29 11 -20 -20 -127 -55
31 -127 -99 -49 -3 -52 26 0
-3 84 -24 -127 -13 22 47 -20
41 90 127 -64 -127 -42 -6 23
-48 -16 -10 28 127 78 85 -103
25 13 -11 -21 31 -8 58 57
4 10 -15 -127 -127 -25 38 -71
00000000: 0f05 1d03 0434 c8e3 0ffd 5843 f9cc 272e
00000010: 0414 ea20 a303 dbc8 38ff e221 49f7 f5f5
00000020: fdd8 06bb f449 0e2d 0508 1c03 e20c 0a03
00000030: 0127 ed07 3a10 fcf5 f9e3 fdf5 0616 1105
00000040: 2007 f8f5 f905 010f 1500 fe01 e709 e590
00000050: f1fa 9b81 0ff9 1005 072e 0101 fc72 121a
00000060: 0302 0cfe b303 f994 1427 0203 0d1e 740a
00000070: c7fb 0800 2e02 0707 0432 f1ab edfc 0581
00000080: f310 e03e f07f c124 d4f5 151c fbba d37f
00000090: ff23 e32a c9fe 81b9 62f8 8255 7fd6 e90a
000000a0: fd14 0fc7 e47f fa3e f422 fcf0 8126 1cda
000000b0: 007f 812a 8137 f0e4 7f0b 832c 0709 0a04
000000c0: 3ad3 d6f3 da0e 0edf 202f e30b ecec 81c9
000000d0: 1f81 9dcf fdcc 1a00 fd54 e881 f316 2fec
000000e0: 295a 7fc0 81d6 fa17 d0f0 f61c 7f4e 5599
000000f0: 190d f5eb 1ff8 3a39 040a f181 81e7 26b9

model/conv_pw_10/Conv2D i1 [128, 1, 1, 128]
-36 2 42 -22 16 -5 -19 -4
10 32 26 5 4 22 127 74
-41 6 9 4 18 9 16 40
-18 9 -16 33 -24 1 15 10
-42 -39 27 -9 -30 -68 21 -12
-22 -23 0 2 -83 -10 -3 -28
30 35 24 67 24 13 2 24
45 70 -10 -17 4 6 1 -22
17 -16 29 12 -19 -45 -13 -30
5 -6 -30 -10 63 4 -28 -8
3 -11 18 -2 13 -3 2 22
-4 78 21 -31 -3 43 -15 -3
10 15 -2 24 14 37 -16 15
-16 -10 19 -21 85 0 -19 -6
-12 6 -1 19 -13 20 22 -22
2 44 -20 7 10 55 -7 -11
13 41 -17 -16 -54 32 127 30
-19 67 -23 10 93 1 95 -18
52 -25 52 -40 4 -25 7 -41
85 -107 55 2 -92 -1 75 9
-108 -73 41 -12 -5 48 28 -1
-79 -43 7 -10 38 -14 7 -4
4 5 -4 -4 -19 -10 -23 6
-18 56 22 -15 27 65 30 -42
-5 41 -82 -107 -56 22 52 -11
-23 -29 -45 39 -59 32 -41 53
-23 35 14 20 -31 6 -8 11
-62 60 7 68 111 7 -24 -24
65 -28 -4 85 -34 -18 41 -78
17 44 25 -24 68 57 7 5
2 24 17 -25 -8 86 -7 83
17 -37 98 35 8 -58 -113 22
00000000: dc02 2aea 10fb edfc 0a20 1a05 0416 7f4a
00000010: d706 0904 1209 1028 ee09 f021 e801 0f0a
00000020: d6d9 1bf7 e2bc 15f4 eae9 0002 adf6 fde4
00000030: 1e23 1843 180d 0218 2d46 f6ef 0406 01ea
00000040: 11f0 1d0c edd3 f3e2 05fa e2f6 3f04 e4f8
00000050: 03f5 12fe 0dfd 0216 fc4e 15e1 fd2b f1fd
00000060: 0a0f fe18 0e25 f00f f0f6 13eb 5500 edfa
00000070: f406 ff13 f314 16ea 022c ec07 0a37 f9f5
00000080: 0d29 eff0 ca20 7f1e ed43 e90a 5d01 5fee
00000090: 34e7 34d8 04e7 07d7 5595 3702 a4ff 4b09
000000a0: 94b7 29f4 fb30 1cff b1d5 07f6 26f2 07fc
000000b0: 0405 fcfc edf6 e906 ee38 16f1 1b41 1ed6
000000c0: fb29 ae95 c816 34f5 e9e3 d327 c520 d735
000000d0: e923 0e14 e106 f80b c23c 0744 6f07 e8e8
000000e0: 41e4 fc55 deee 29b2 112c 19e8 4439 0705
000000f0: 0218 11e7 f856 f953 11db 6223 08c6 8f16

model/conv_dw_11_bn/FusedBatchNormV3;model/conv_dw_11/depthwise;model/conv_dw_12/depthwise i1 [1, 3, 3, 128]
-12 -12 7 59 36 -126 98 30
26 17 25 94 -127 -56 -94 75
21 -17 51 -127 16 -69 53 127
-72 32 16 -7 92 66 -45 61
-37 70 81 19 -95 46 20 -60
-38 -47 -68 -29 23 -16 34 -32
102 92 10 -75 11 -28 -11 50
-125 -34 -56 60 -20 91 26 127
0 -42 -19 -24 1 -4 39 59
-27 72 -127 6 106 -127 78 49
20 -28 93 -82 81 -23 -8 1
-127 40 -28 -48 -50 95 -127 -15
-53 11 -127 11 -127 42 -36 20
-14 51 36 114 -42 -5 -22 -23
-73 -64 30 21 30 43 -2 13
17 -20 -15 39 52 127 -21 69
91 -68 29 57 56 -127 103 49
65 127 49 127 -105 -21 -98 -127
48 -73 121 -36 81 -18 17 74
-87 94 67 127 72 127 -57 127
-78 -15 47 67 -34 118 109 127
-76 -90 -51 -92 82 -36 85 -105
127 88 25 -82 -85 -61 -19 86
-107 -40 -94 23 -46 127 6 -19
-27 -79 -97 -26 68 28 68 127
-116 23 -105 59 -6 -127 127 73
49 -77 114 -95 94 -64 -86 34
-112 84 -127 -127 -50 62 -101 -88
-127 79 27 32 -75 105 -45 65
-57 -23 60 62 17 13 -127 -119
-79 -61 77 61 75 127 -35 46
44 62 5 75 79 40 -107 127
00000000: f4f4 073b 2482 621e 1a11 195e 81c8 a24b
00000010: 15ef 3381 10bb 357f b820 10f9 5c42 d33d
00000020: db46 5113 a12e 14c4 dad1 bce3 17f0 22e0
00000030: 665c 0ab5 0be4 f532 83de c83c ec5b 1a7f
00000040: 00d6 ede8 01fc 273b e548 8106 6a81 4e31
00000050: 14e4 5dae 51e9 f801 8128 e4d0 ce5f 81f1
00000060: cb0b 810b 812a dc14 f233 2472 d6fb eae9
00000070: b7c0 1e15 1e2b fe0d 11ec f127 347f eb45
00000080: 5bbc 1d39 3881 6731 417f 317f 97eb 9e81
00000090: 30b7 79dc 51ee 114a a95e 437f 487f c77f
000000a0: b2f1 2f43 de76 6d7f b4a6 cda4 52dc 5597
000000b0: 7f58 19ae abc3 ed56 95d8 a217 d27f 06ed
000000c0: e5b1 9fe6 441c 447f 8c17 973b fa81 7f49
000000d0: 31b3 72a1 5ec0 aa22 9054 8181 ce3e 9ba8
000000e0: 814f 1b20 b569 d341 c7e9 3c3e 110d 8189
000000f0: b1c3 4d3d 4b7f dd2e 2c3e 054b 4f28 957f

model/conv_pw_11/Conv2D i1 [128, 1, 1, 128]
57 15 -31 -55 33 14 15 52
10 -26 27 127 -7 24 -69 29
-15 12 -19 19 -30 -33 6 -14
-4 -24 -66 50 0 -33 39 -31
-30 -4 -30 -65 -35 -42 65 29
23 -26 -16 -20 -18 -12 -6 61
22 61 -5 26 -53 84 59 -29
-24 22 91 19 -33 94 20 63
41 -82 65 37 42 13 0 -14
66 -14 -41 120 2 -21 31 16
-15 -22 -71 6 -24 65 -56 -29
16 -83 -4 -18 -20 29 19 -45
-63 -17 24 -25 -29 -98 13 3
10 -4 -16 -7 50 43 16 -6
0 7 -15 -110 -19 -93 -23 20
16 42 26 10 -21 -12 -110 77
-18 -2 -8 15 13 -1 39 68
-31 103 27 -34 -3 103 53 17
-32 76 14 22 -15 -4 -11 -33
19 -27 86 -70 41 27 -28 21
24 72 -6 57 -22 50 9 36
9 40 85 23 -45 77 -7 -22
-25 -63 -24 -3 5 -1 -33 -65
0 -69 23 69 14 -5 38 -28
26 3 -55 -59 -45 3 -1 -15
-18 -12 22 -19 -27 95 33 -34
64 -21 30 -4 2 15 -29 7
-81 -45 22 28 71 5 32 -37
52 19 11 -12 -13 5 25 -72
32 -43 10 74 29 33 15 -16
9 -56 22 24 -20 30 -23 13
4 -19 -6 -30 2 127 31 25
00000000: 390f e1c9 210e 0f34 0ae6 1b7f f918 bb1d
00000010: f10c ed13 e2df 06f2 fce8 be32 00df 27e1
00000020: e2fc e2bf ddd6 411d 17e6 f0ec eef4 fa3d
00000030: 163d fb1a cb54 3be3 e816 5b13 df5e 143f
00000040: 29ae 4125 2a0d 00f2 42f2 d778 02eb 1f10
00000050: f1ea b906 e841 c8e3 10ad fcee ec1d 13d3
00000060: c1ef 18e7 e39e 0d03 0afc f0f9 322b 10fa
00000070: 0007 f192 eda3 e914 102a 1a0a ebf4 924d
00000080: eefe f80f 0dff 2744 e167 1bde fd67 3511
00000090: e04c 0e16 f1fc f5df 13e5 56ba 291b e415
000000a0: 1848 fa39 ea32 0924 0928 5517 d34d f9ea
000000b0: e7c1 e8fd 05ff dfbf 00bb 1745 0efb 26e4
000000c0: 1a03 c9c5 d303 fff1 eef4 16ed e55f 21de
000000d0: 40eb 1efc 020f e307 afd3 161c 4705 20db
000000e0: 3413 0bf4 f305 19b8 20d5 0a4a 1d21 0ff0
000000f0: 09c8 1618 ec1e e90d 04ed fae2 027f 1f19

model/conv2d_1/Conv2D i1 [32, 1, 1, 128]
32 -48 -42 36 2 -31 -45 -49
-19 -35 28 -6 -32 -19 -103 -67
39 24 -17 -4 -35 -38 -52 -22
-26 3 84 -6 -1 -112 64 14
-9 -19 47 3 -15 7 -6 -14
-43 -26 -26 -46 -50 -13 -23 -39
4 -74 12 -47 -72 -19 -100 7
-9 106 0 42 -15 17 -44 39
-66 -26 71 25 -111 -33 -113 -34
14 58 -43 -10 15 127 36 -50
-25 39 54 88 -22 -44 7 86
11 -6 -4 70 3 -24 11 -48
126 -77 -18 13 5 -15 25 105
-1 0 7 -35 -37 109 17 -29
-20 -91 1 -73 11 -17 11 11
-30 2 -44 39 -17 44 -20 13
17 11 -81 19 32 -45 -59 -31
-16 -46 -22 -26 -36 -4 5 20
-35 -38 -11 10 17 27 -1 -19
-8 58 43 -90 28 0 -22 -10
14 -22 -49 -100 36 -60 35 32
23 77 -37 -13 -34 -16 60 41
-31 -111 -5 -23 -65 2 60 -17
5 13 26 26 -5 9 -14 -30
-69 -43 23 79 52 -12 14 36
-64 14 -25 29 26 72 27 -36
22 24 -32 -52 29 -89 81 1
3 -24 56 112 60 19 20 -46
37 12 -5 -24 -77 -26 12 95
13 14 -126 15 -44 72 78 -3
-19 45 -8 25 127 19 -84 55
-11 41 79 -24 -57 -24 -6 41
00000000: 20d0 d624 02e1 d3cf eddd 1cfa e0ed 99bd
00000010: 2718 effc ddda ccea e603 54fa ff90 400e
00000020: f7ed 2f03 f107 faf2 d5e6 e6d2 cef3 e9d9
00000030: 04b6 0cd1 b8ed 9c07 f76a 002a f111 d427
00000040: bee6 4719 91df 8fde 0e3a d5f6 0f7f 24ce
00000050: e727 3658 ead4 0756 0bfa fc46 03e8 0bd0
00000060: 7eb3 ee0d 05f1 1969 ff00 07dd db6d 11e3
00000070: eca5 01b7 0bef 0b0b e202 d427 ef2c ec0d
00000080: 110b af13 20d3 c5e1 f0d2 eae6 dcfc 0514
00000090: ddda f50a 111b ffed f83a 2ba6 1c00 eaf6
000000a0: 0eea cf9c 24c4 2320 174d dbf3 def0 3c29
000000b0: e191 fbe9 bf02 3cef 050d 1a1a fb09 f2e2
000000c0: bbd5 174f 34f4 0e24 c00e e71d 1a48 1bdc
000000d0: 1618 e0cc 1da7 5101 03e8 3870 3c13 14d2
000000e0: 250c fbe8 b3e6 0c5f 0d0e 820f d448 4efd
000000f0: ed2d f819 7f13 ac37 f529 4fe8 c7e8 fa29

model/conv_dw_12_bn/FusedBatchNormV3;model/conv_dw_12/depthwise i1 [1, 3, 3, 128]
-114 71 90 -58 -58 -75 -73 -63
-86 85 71 64 83 88 75 100
61 -89 -95 70 -81 69 -96 -70
77 -96 71 -70 66 -24 -69 -101
89 -64 -73 -61 75 119 -70 -62
-77 -84 -63 -69 75 88 44 -62
-106 -54 -68 111 -76 82 -90 -123
-76 73 16 -72 63 -64 108 -71
75 -89 84 74 -95 102 -110 -97
96 -93 -72 25 77 90 -62 -127
73 -67 113 67 83 69 103 -72
82 70 -77 108 74 127 -83 -80
83 70 70 -103 -109 68 -109 78
-127 -82 82 70 -68 -64 127 -35
59 66 62 71 -7 -69 60 64
58 82 -103 -78 65 71 -78 68
-106 82 120 -90 -92 -96 -91 -86
-111 103 93 86 127 100 102 127
85 -119 -104 91 -107 100 -125 -84
99 -127 94 -87 83 -23 -85 -127
121 -92 -90 -79 95 2 -102 -85
-92 -121 -84 -92 100 116 62 -90
-120 25 -98 127 -97 94 -110 -127
-94 101 14 -93 92 -97 127 -93
89 -127 127 102 -127 87 -114 -127
109 -124 -92 33 108 108 -87 37
86 -85 99 89 111 98 127 -97
127 99 -96 127 100 -17 -127 -91
85 101 101 -92 6 82 -127 92
-118 -112 104 97 -85 -87 90 -23
73 73 88 92 -16 -90 77 87
85 95 -127 -94 86 73 -106 89
00000000: 8e47 5ac6 c6b5 b7c1 aa55 4740 5358 4b64
00000010: 3da7 a146 af45 a0ba 4da0 47ba 42e8 bb9b
00000020: 59c0 b7c3 4b77 bac2 b3ac c1bb 4b58 2cc2
00000030: 96ca bc6f b452 a685 b449 10b8 3fc0 6cb9
00000040: 4ba7 544a a166 929f 60a3 b819 4d5a c281
00000050: 49bd 7143 5345 67b8 5246 b36c 4a7f adb0
00000060: 5346 4699 9344 934e 81ae 5246 bcc0 7fdd
00000070: 3b42 3e47 f9bb 3c40 3a52 99b2 4147 b244
00000080: 9652 78a6 a4a0 a5aa 9167 5d56 7f64 667f
00000090: 5589 985b 9564 83ac 6381 5ea9 53e9 ab81
000000a0: 79a4 a6b1 5f02 9aab a487 aca4 6474 3ea6
000000b0: 8819 9e7f 9f5e 9281 a265 0ea3 5c9f 7fa3
000000c0: 5981 7f66 8157 8e81 6d84 a421 6c6c a925
000000d0: 56ab 6359 6f62 7f9f 7f63 a07f 64ef 81a5
000000e0: 5565 65a4 0652 815c 8a90 6861 aba9 5ae9
000000f0: 4949 585c f0a6 4d57 555f 81a2 5649 9659

model/conv_pw_12/Conv2D i1 [256, 1, 1, 128]
-9 45 26 -80 -12 85 -70 -56
24 48 54 34 -69 29 43 -47
-43 52 -58 -108 4 19 -12 83
61 50 -6 29 -50 -11 21 -7
-41 -10 -25 -36 -23 -36 38 -42
18 26 18 1 58 65 48 -50
-103 51 -45 17 26 43 -19 -59
-23 57 -36 0 7 -3 -12 -25
26 -49 -4 3 35 66 -78 -30
-1 40 -31 -35 54 -47 45 46
28 -21 -95 37 -56 -31 -44 33
17 -50 61 4 52 42 -36 -59
-8 -42 27 -61 46 -47 -15 25
-71 -3 54 -19 -8 -63 30 -38
9 -127 -62 -14 -8 64 29 -32
31 60 26 -37 18 18 -4 -74
-23 -49 22 -16 14 16 19 -37
35 56 -32 -3 -4 -14 12 2
32 -30 35 -12 11 -12 24 28
47 32 1 -48 28 39 -51 46
-23 18 24 79 15 -9 -14 0
40 -16 11 0 -2 -60 -33 -22
-15 44 -56 33 17 58 -47 -11
-55 61 -1 2 -7 -20 -15 28
32 49 -15 -42 49 14 33 -28
59 16 -29 11 -51 27 -8 0
-33 -45 47 -4 47 -48 -28 -118
22 -44 -33 -37 2 -38 25 -46
-11 -55 59 -44 12 44 0 29
-12 -8 -53 -13 42 -39 10 -15
-5 -2 63 22 -22 35 -27 12
43 -76 46 8 -51 2 127 7
00000000: f72d 1ab0 f455 bac8 1830 3622 bb1d 2bd1
00000010: d534 c694 0413 f453 3d32 fa1d cef5 15f9
00000020: d7f6 e7dc e9dc 26d6 121a 1201 3a41 30ce
00000030: 9933 d311 1a2b edc5 e939 dc00 07fd f4e7
00000040: 1acf fc03 2342 b2e2 ff28 e1dd 36d1 2d2e
00000050: 1ceb a125 c8e1 d421 11ce 3d04 342a dcc5
00000060: f8d6 1bc3 2ed1 f119 b9fd 36ed f8c1 1eda
00000070: 0981 c2f2 f840 1de0 1f3c 1adb 1212 fcb6
00000080: e9cf 16f0 0e10 13db 2338 e0fd fcf2 0c02
00000090: 20e2 23f4 0bf4 181c 2f20 01d0 1c27 cd2e
000000a0: e912 184f 0ff7 f200 28f0 0b00 fec4 dfea
000000b0: f12c c821 113a d1f5 c93d ff02 f9ec f11c
000000c0: 2031 f1d6 310e 21e4 3b10 e30b cd1b f800
000000d0: dfd3 2ffc 2fd0 e48a 16d4 dfdb 02da 19d2
000000e0: f5c9 3bd4 0c2c 001d f4f8 cbf3 2ad9 0af1
000000f0: fbfe 3f16 ea23 e50c 2bb4 2e08 cd02 7f07

model/conv_dw_13_bn/FusedBatchNormV3;model/conv_dw_13/depthwise;model/conv2d_4/Conv2D i1 [1, 3, 3, 256]
-127 -67 -72 127 -127 123 127 127
127 -73 127 -114 71 127 -103 -127
127 -92 -43 -127 88 -127 127 -110
-118 127 -127 103 -117 -14 127 127
109 127 -73 -32 -88 71 127 79
90 -117 13 -114 127 -127 101 -127
127 -125 127 -81 -109 127 89 53
-127 -127 66 77 -50 127 127 79
-96 -127 -127 127 28 -127 -60 127
-41 -79 127 -126 127 84 -35 -64
-127 -76 -6 127 127 -127 -127 -127
47 127 127 127 -44 -127 119 -127
1 -11 -40 -49 127 127 -47 127
81 127 -107 -58 -115 -112 106 -123
127 127 -123 89 127 -104 -33 127
127 -99 127 -127 127 -127 127 127
-127 -70 115 -117 -127 127 127 -127
-31 48 117 51 -127 127 -127 -127
16 127 -127 112 127 -127 85 127
-103 -8 -127 -127 127 127 81 22
127 -127 -127 -121 127 64 127 -127
-127 127 -25 -77 -127 125 -118 -127
-115 127 127 121 -51 89 -127 114
126 122 102 109 -127 127 -87 -91
127 -76 -127 -127 127 123 -127 84
-127 -105 51 -127 -125 52 -72 -117
-33 -127 -102 127 127 125 127 -71
127 127 -101 -97 -127 -76 127 127
-127 127 -127 -127 127 -127 121 -41
94 -127 127 -126 91 83 127 -127
127 0 105 -127 -127 115 -127 -14
-89 -94 127 50 -86 52 -127 -92
00000000: 81bd b87f 817b 7f7f 7fb7 7f8e 477f 9981
00000010: 7fa4 d581 5881 7f92 8a7f 8167 8bf2 7f7f
00000020: 6d7f b7e0 a847 7f4f 5a8b 0d8e 7f81 6581
00000030: 7f83 7faf 937f 5935 8181 424d ce7f 7f4f
00000040: a081 817f 1c81 c47f d7b1 7f82 7f54 ddc0
00000050: 81b4 fa7f 7f81 8181 2f7f 7f7f d481 7781
00000060: 01f5 d8cf 7f7f d17f 517f 95c6 8d90 6a85
00000070: 7f7f 8559 7f98 df7f 7f9d 7f81 7f81 7f7f
00000080: 81ba 738b 817f 7f81 e130 7533 817f 8181
00000090: 107f 8170 7f81 557f 99f8 8181 7f7f 5116
000000a0: 7f81 8187 7f40 7f81 817f e7b3 817d 8a81
000000b0: 8d7f 7f79 cd59 8172 7e7a 666d 817f a9a5
000000c0: 7fb4 8181 7f7b 8154 8197 3381 8334 b88b
000000d0: df81 9a7f 7f7d 7fb9 7f7f 9b9f 81b4 7f7f
000000e0: 817f 8181 7f81 79d7 5e81 7f82 5b53 7f81
000000f0: 7f00 6981 8173 81f2 a7a2 7f32 aa34 81a4

model/conv_pw_13/Conv2D i1 [256, 1, 1, 256]
-9 -47 -18 4 -97 -4 -12 14
23 23 -45 35 -11 -26 -38 5
-63 24 -12 31 -39 -9 -15 -15
36 -6 -34 -39 -9 -16 43 13
-28 21 -11 -58 -69 26 -31 7
4 -2 -3 3 50 30 127 -29
-17 -25 -31 0 16 -34 -19 40
0 -5 -9 -33 88 -65 26 -19
-17 11 5 45 -18 -51 24 -34
-3 10 73 9 8 6 5 -29
-8 -22 -48 12 -4 -24 -55 -15
-25 -41 -9 38 38 12 -26 -6
71 25 5 20 -34 7 -7 17
18 -5 31 -25 4 -40 -2 -13
-34 -10 35 -21 -10 -1 -55 -20
85 23 -20 -13 -24 -14 -3 24
29 38 0 44 8 -23 13 -29
20 -19 14 22 51 38 -20 12
-22 -22 -36 28 -61 -19 7 -7
20 41 -21 65 12 -4 29 1
35 -20 -8 -28 -10 1 -20 8
-51 86 11 -37 -10 57 -2 36
-2 -40 -68 -16 11 8 -62 24
25 82 -35 -38 2 8 -28 -47
-56 -6 9 8 5 -18 32 -15
-38 -3 11 -2 -12 -41 -13 -5
-12 -24 -66 -29 -33 2 30 1
0 -14 52 23 7 -29 23 15
-8 -72 -34 -48 30 4 51 -14
34 -31 -18 57 16 22 29 -27
44 24 -8 51 8 50 -11 -30
35 8 -6 11 12 35 44 -57
00000000: f7d1 ee04 9ffc f40e 1717 d323 f5e6 da05
00000010: c118 f41f d9f7 f1f1 24fa ded9 f7f0 2b0d
00000020: e415 f5c6 bb1a e107 04fe fd03 321e 7fe3
00000030: efe7 e100 10de ed28 00fb f7df 58bf 1aed
00000040: ef0b 052d eecd 18de fd0a 4909 0806 05e3
00000050: f8ea d00c fce8 c9f1 e7d7 f726 260c e6fa
00000060: 4719 0514 de07 f911 12fb 1fe7 04d8 fef3
00000070: def6 23eb f6ff c9ec 5517 ecf3 e8f2 fd18
00000080: 1d26 002c 08e9 0de3 14ed 0e16 3326 ec0c
00000090: eaea dc1c c3ed 07f9 1429 eb41 0cfc 1d01
000000a0: 23ec f8e4 f601 ec08 cd56 0bdb f639 fe24
000000b0: fed8 bcf0 0b08 c218 1952 ddda 0208 e4d1
000000c0: c8fa 0908 05ee 20f1 dafd 0bfe f4d7 f3fb
000000d0: f4e8 bee3 df02 1e01 00f2 3417 07e3 170f
000000e0: f8b8 ded0 1e04 33f2 22e1 ee39 1016 1de5
000000f0: 2c18 f833 0832 f5e2 2308 fa0b 0c23 2cc7

model/conv2d_2/Conv2D i1 [32, 1, 1, 256]
-40 -62 -10 -4 1 28 25 32
-4 -7 -2 12 -76 -42 1 -12
-11 -39 40 -6 15 -95 -66 25
5 -36 -14 29 -11 51 10 2
-37 2 -55 -2 -57 -48 78 -28
-3 -10 44 15 -2 -26 -24 11
-41 15 6 8 5 17 -23 -82
27 50 24 9 -35 32 -62 -2
-14 1 -10 -23 -28 0 -6 -52
27 25 -26 36 -7 16 17 -4
-13 -127 25 19 -15 6 43 -19
26 -19 1 -8 14 -19 -18 4
29 -16 -3 33 6 -12 11 19
-38 63 -56 -87 17 -16 -35 -31
-35 48 -69 -28 -35 -9 39 -28
-24 12 35 10 6 34 19 -16
79 8 -4 -5 18 -32 9 -28
11 -11 17 -43 -19 -20 2 28
46 -7 1 5 3 -27 -22 -2
20 12 46 3 -7 -71 -32 -61
-34 -1 -50 36 -26 6 16 -8
8 -18 -37 -7 -41 41 -35 -21
41 -15 -1 -7 -6 -75 55 26
20 -11 77 4 49 -2 -40 -34
12 -22 -38 -3 -87 24 -15 14
-71 45 4 -17 -9 -25 12 37
36 -48 -26 -11 -24 76 81 34
-10 -120 12 -8 -9 -12 0 37
32 34 1 -44 31 -29 -7 -11
17 15 -71 -22 -2 -40 -2 -48
-7 -11 12 -6 22 -69 3 3
27 -8 22 20 -5 -63 -18 -20
00000000: d8c2 f6fc 011c 1920 fcf9 fe0c b4d6 01f4
00000010: f5d9 28fa 0fa1 be19 05dc f21d f533 0a02
00000020: db02 c9fe c7d0 4ee4 fdf6 2c0f fee6 e80b
00000030: d70f 0608 0511 e9ae 1b32 1809 dd20 c2fe
00000040: f201 f6e9 e400 facc 1b19 e624 f910 11fc
00000050: f381 1913 f106 2bed 1aed 01f8 0eed ee04
00000060: 1df0 fd21 06f4 0b13 da3f c8a9 11f0 dde1
00000070: dd30 bbe4 ddf7 27e4 e80c 230a 0622 13f0
00000080: 4f08 fcfb 12e0 09e4 0bf5 11d5 edec 021c
00000090: 2ef9 0105 03e5 eafe 140c 2e03 f9b9 e0c3
000000a0: deff ce24 e606 10f8 08ee dbf9 d729 ddeb
000000b0: 29f1 fff9 fab5 371a 14f5 4d04 31fe d8de
000000c0: 0cea dafd a918 f10e b92d 04ef f7e7 0c25
000000d0: 24d0 e6f5 e84c 5122 f688 0cf8 f7f4 0025
000000e0: 2022 01d4 1fe3 f9f5 110f b9ea fed8 fed0
000000f0: f9f5 0cfa 16bb 0303 1bf8 1614 fbc1 eeec

model/batch_normalization_3/FusedBatchNormV3;model/depthwise_conv2d/depthwise;model/depthwise_conv2d/BiasAdd;model/conv2d_4/Conv2D;depthwise_conv2d/bias i1 [1, 3, 3, 256]
44 60 42 -53 47 -1 -118 127
55 -62 -85 84 -18 20 -91 -51
-36 114 39 82 -102 104 -127 -20
11 22 46 -43 14 5 -67 60
-40 -33 49 -100 -64 -35 -4 -127
35 -43 66 -36 80 19 114 45
43 -32 127 68 3 -59 12 84
3 81 66 83 56 6 -14 -37
74 127 95 91 9 -50 96 -60
54 -35 -29 -21 71 -3 61 41
11 -127 38 -127 53 37 -18 60
52 -15 -2 -127 -93 -11 94 64
-6 87 -22 -82 54 -8 -30 30
88 127 41 6 22 41 10 -88
55 -23 3 -62 119 -57 103 61
-2 59 116 127 91 -35 -27 7
51 -113 9 32 87 -24 30 46
-81 24 39 20 -52 67 -100 7
-1 -15 28 22 -14 52 -48 -29
-21 40 -127 97 47 14 -28 -22
-44 -127 96 -63 40 99 -43 16
-33 -127 54 -110 -58 54 -3 127
-10 -19 76 -117 -31 -81 46 -41
-16 -11 -51 -31 127 -96 -127 29
-127 -37 49 30 -80 -47 -1 58
47 -43 -120 100 -127 -11 6 -111
31 3 -67 50 -119 45 3 79
-36 -75 45 -65 -52 -74 -26 37
22 -122 72 12 -9 -46 -26 109
127 119 -32 39 127 89 -2 86
33 26 -38 23 -36 -18 -31 10
127 -2 22 -127 -36 81 76 -49
00000000: 2c3c 2acb 2fff 8a7f 37c2 ab54 ee14 a5cd
00000010: dc72 2752 9a68 81ec 0b16 2ed5 0e05 bd3c
00000020: d8df 319c c0dd fc81 23d5 42dc 5013 722d
00000030: 2be0 7f44 03c5 0c54 0351 4253 3806 f2db
00000040: 4a7f 5f5b 09ce 60c4 36dd e3eb 47fd 3d29
00000050: 0b81 2681 3525 ee3c 34f1 fe81 a3f5 5e40
00000060: fa57 eaae 36f8 e21e 587f 2906 1629 0aa8
00000070: 37e9 03c2 77c7 673d fe3b 747f 5bdd e507
00000080: 338f 0920 57e8 1e2e af18 2714 cc43 9c07
00000090: fff1 1c16 f234 d0e3 eb28 8161 2f0e e4ea
000000a0: d481 60c1 2863 d510 df81 3692 c636 fd7f
000000b0: f6ed 4c8b e1af 2ed7 f0f5 cde1 7fa0 811d
000000c0: 81db 311e b0d1 ff3a 2fd5 8864 81f5 0691
000000d0: 1f03 bd32 892d 034f dcb5 2dbf ccb6 e625
000000e0: 1686 480c f7d2 e66d 7f77 e027 7f59 fe56
000000f0: 211a da17 dcee e10a 7ffe 1681 dc51 4ccf

model/conv2d_3/Conv2D i1 [256, 1, 1, 256]
-10 10 46 -34 -19 -3 2 15
-1 -1 -9 47 -17 16 3 -4
-3 -44 -1 -4 3 -17 5 -20
-28 -24 26 -3 25 64 -1 -3
-35 6 6 -8 -2 0 60 -2
-2 67 2 -8 55 -17 40 1
2 3 -10 -5 10 26 -1 -63
30 -51 -3 64 15 -4 10 -5
31 -15 -33 -52 -83 -6 12 -4
49 -1 27 42 10 -9 0 -1
-47 21 -14 7 30 -1 23 12
-47 15 5 5 7 -1 6 -73
-4 -11 10 21 21 1 -40 -19
-8 13 1 0 -57 5 -3 5
2 0 -5 1 -21 -5 -34 8
-5 0 127 30 6 11 32 48
25 -1 -1 -1 -8 5 44 23
-1 19 -41 3 1 -12 -56 54
1 6 -4 12 -29 0 5 -28
-8 3 23 -6 -51 -1 21 3
-3 34 0 37 -11 -3 -1 68
-20 16 9 1 -25 -16 72 -7
-19 -12 0 -3 74 -7 0 -2
3 -2 61 -21 9 -15 0 -1
-25 1 -13 30 0 8 -23 -20
37 -62 13 -3 0 3 -6 28
-57 -4 1 65 -3 16 -3 -19
2 -3 2 2 12 0 -2 25
-22 1 4 10 1 -1 -78 -108
27 -35 -3 45 -4 20 21 -26
5 -1 -6 -2 1 4 8 -13
-16 4 -18 -3 -6 35 -55 -18
00000000: f60a 2ede edfd 020f ffff f72f ef10 03fc
00000010: fdd4 fffc 03ef 05ec e4e8 1afd 1940 fffd
00000020: dd06 06f8 fe00 3cfe fe43 02f8 37ef 2801
00000030: 0203 f6fb 0a1a ffc1 1ecd fd40 0ffc 0afb
00000040: 1ff1 dfcc adfa 0cfc 31ff 1b2a 0af7 00ff
00000050: d115 f207 1eff 170c d10f 0505 07ff 06b7
00000060: fcf5 0a15 1501 d8ed f80d 0100 c705 fd05
00000070: 0200 fb01 ebfb de08 fb00 7f1e 060b 2030
00000080: 19ff ffff f805 2c17 ff13 d703 01f4 c836
00000090: 0106 fc0c e300 05e4 f803 17fa cdff 1503
000000a0: fd22 0025 f5fd ff44 ec10 0901 e7f0 48f9
000000b0: edf4 00fd 4af9 00fe 03fe 3deb 09f1 00ff
000000c0: e701 f31e 0008 e9ec 25c2 0dfd 0003 fa1c
000000d0: c7fc 0141 fd10 fded 02fd 0202 0c00 fe19
000000e0: ea01 040a 01ff b294 1bdd fd2d fc14 15e6
000000f0: 05ff fafe 0104 08f3 f004 eefd fa23 c9ee
